{"format": "graph-model", "generatedBy": "2.11.0", "convertedBy": "TensorFlow.js Converter v4.2.0", "signature": {"inputs": {"images": {"name": "images:0", "dtype": "DT_FLOAT", "tensorShape": {"dim": [{"size": "1"}, {"size": "3"}, {"size": "640"}, {"size": "640"}]}}}, "outputs": {"output1": {"name": "Identity_1:0", "dtype": "DT_FLOAT", "tensorShape": {"dim": [{"size": "1"}, {"size": "32"}, {"size": "160"}, {"size": "160"}]}}, "output0": {"name": "Identity:0", "dtype": "DT_FLOAT", "tensorShape": {"dim": [{"size": "1"}, {"size": "116"}, {"size": "8400"}]}}}}, "modelTopology": {"node": [{"name": "ConstantFolding/StatefulPartitionedCall/onnx_tf_prefix_/model.22/Div_1_recip", "op": "Const", "attr": {"dtype": {"type": "DT_FLOAT"}, "value": {"tensor": {"dtype": "DT_FLOAT", "tensorShape": {}}}}}, {"name": "StatefulPartitionedCall/onnx_tf_prefix_/model.22/Constant_13", "op": "Const", "attr": {"value": {"tensor": {"dtype": "DT_FLOAT", "tensorShape": {"dim": [{"size": "1"}, {"size": "2"}, {"size": "8400"}]}}}, "dtype": {"type": "DT_FLOAT"}}}, {"name": "StatefulPartitionedCall/zeros_9", "op": "Const", "attr": {"value": {"tensor": {"dtype": "DT_INT64", "tensorShape": {}}}, "dtype": {"type": "DT_INT64"}}}, {"name": "StatefulPartitionedCall/Const_60", "op": "Const", "attr": {"dtype": {"type": "DT_INT64"}, "value": {"tensor": {"dtype": "DT_INT64", "tensorShape": {}}}}}, {"name": "StatefulPartitionedCall/Shape_17", "op": "Const", "attr": {"dtype": {"type": "DT_INT64"}, "value": {"tensor": {"dtype": "DT_INT64", "tensorShape": {"dim": [{"size": "3"}]}}}}}, {"name": "StatefulPartitionedCall/ExpandDims_1", "op": "Const", "attr": {"dtype": {"type": "DT_INT64"}, "value": {"tensor": {"dtype": "DT_INT64", "tensorShape": {"dim": [{"size": "1"}, {"size": "1"}]}}}}}, {"name": "StatefulPartitionedCall/Cast_18", "op": "Const", "attr": {"value": {"tensor": {"dtype": "DT_INT64", "tensorShape": {"dim": [{"size": "1"}]}}}, "dtype": {"type": "DT_INT64"}}}, {"name": "StatefulPartitionedCall/Const_59", "op": "Const", "attr": {"value": {"tensor": {"dtype": "DT_INT64", "tensorShape": {}}}, "dtype": {"type": "DT_INT64"}}}, {"name": "StatefulPartitionedCall/ones_1", "op": "Const", "attr": {"value": {"tensor": {"dtype": "DT_INT64", "tensorShape": {"dim": [{"size": "3"}]}}}, "dtype": {"type": "DT_INT64"}}}, {"name": "StatefulPartitionedCall/onnx_tf_prefix_/model.22/Constant_12", "op": "Const", "attr": {"value": {"tensor": {"dtype": "DT_FLOAT", "tensorShape": {"dim": [{"size": "1"}, {"size": "2"}, {"size": "8400"}]}}}, "dtype": {"type": "DT_FLOAT"}}}, {"name": "StatefulPartitionedCall/onnx_tf_prefix_/model.22/dfl/Constant", "op": "Const", "attr": {"dtype": {"type": "DT_INT64"}, "value": {"tensor": {"dtype": "DT_INT64", "tensorShape": {"dim": [{"size": "4"}]}}}}}, {"name": "StatefulPartitionedCall/Where_6", "op": "Const", "attr": {"dtype": {"type": "DT_INT64"}, "value": {"tensor": {"dtype": "DT_INT64", "tensorShape": {"dim": [{}, {"size": "1"}]}}}}}, {"name": "StatefulPartitionedCall/Cast_10", "op": "Const", "attr": {"value": {"tensor": {"dtype": "DT_INT64", "tensorShape": {"dim": [{"size": "1"}]}}}, "dtype": {"type": "DT_INT64"}}}, {"name": "StatefulPartitionedCall/GatherV2_6", "op": "Const", "attr": {"value": {"tensor": {"dtype": "DT_INT64", "tensorShape": {"dim": [{}]}}}, "dtype": {"type": "DT_INT64"}}}, {"name": "StatefulPartitionedCall/zeros_6", "op": "Const", "attr": {"value": {"tensor": {"dtype": "DT_INT64", "tensorShape": {}}}, "dtype": {"type": "DT_INT64"}}}, {"name": "StatefulPartitionedCall/onnx_tf_prefix_/model.22/dfl/Transpose/perm", "op": "Const", "attr": {"value": {"tensor": {"dtype": "DT_INT32", "tensorShape": {"dim": [{"size": "4"}]}}}, "dtype": {"type": "DT_INT32"}}}, {"name": "StatefulPartitionedCall/concat_76", "op": "Const", "attr": {"dtype": {"type": "DT_INT32"}, "value": {"tensor": {"dtype": "DT_INT32", "tensorShape": {"dim": [{"size": "4"}]}}}}}, {"name": "StatefulPartitionedCall/concat_77", "op": "Const", "attr": {"dtype": {"type": "DT_INT32"}, "value": {"tensor": {"dtype": "DT_INT32", "tensorShape": {"dim": [{"size": "4"}]}}}}}, {"name": "StatefulPartitionedCall/transpose_240/perm", "op": "Const", "attr": {"dtype": {"type": "DT_INT32"}, "value": {"tensor": {"dtype": "DT_INT32", "tensorShape": {"dim": [{"size": "4"}]}}}}}, {"name": "StatefulPartitionedCall/split_76", "op": "Const", "attr": {"dtype": {"type": "DT_FLOAT"}, "value": {"tensor": {"dtype": "DT_FLOAT", "tensorShape": {"dim": [{"size": "1"}, {"size": "1"}, {"size": "16"}, {"size": "1"}]}}}}}, {"name": "StatefulPartitionedCall/transpose_241/perm", "op": "Const", "attr": {"dtype": {"type": "DT_INT32"}, "value": {"tensor": {"dtype": "DT_INT32", "tensorShape": {"dim": [{"size": "4"}]}}}}}, {"name": "StatefulPartitionedCall/onnx_tf_prefix_/model.22/dfl/Constant_1", "op": "Const", "attr": {"dtype": {"type": "DT_INT64"}, "value": {"tensor": {"dtype": "DT_INT64", "tensorShape": {"dim": [{"size": "3"}]}}}}}, {"name": "StatefulPartitionedCall/Where_7", "op": "Const", "attr": {"value": {"tensor": {"dtype": "DT_INT64", "tensorShape": {"dim": [{}, {"size": "1"}]}}}, "dtype": {"type": "DT_INT64"}}}, {"name": "StatefulPartitionedCall/Cast_11", "op": "Const", "attr": {"value": {"tensor": {"dtype": "DT_INT64", "tensorShape": {"dim": [{"size": "1"}]}}}, "dtype": {"type": "DT_INT64"}}}, {"name": "StatefulPartitionedCall/GatherV2_7", "op": "Const", "attr": {"dtype": {"type": "DT_INT64"}, "value": {"tensor": {"dtype": "DT_INT64", "tensorShape": {"dim": [{}]}}}}}, {"name": "StatefulPartitionedCall/zeros_7", "op": "Const", "attr": {"value": {"tensor": {"dtype": "DT_INT64", "tensorShape": {}}}, "dtype": {"type": "DT_INT64"}}}, {"name": "StatefulPartitionedCall/SelectV2_1", "op": "Const", "attr": {"value": {"tensor": {"dtype": "DT_INT64", "tensorShape": {"dim": [{"size": "1"}]}}}, "dtype": {"type": "DT_INT64"}}}, {"name": "StatefulPartitionedCall/zeros_8", "op": "Const", "attr": {"value": {"tensor": {"dtype": "DT_INT64", "tensorShape": {}}}, "dtype": {"type": "DT_INT64"}}}, {"name": "StatefulPartitionedCall/Const_58", "op": "Const", "attr": {"value": {"tensor": {"dtype": "DT_INT64", "tensorShape": {}}}, "dtype": {"type": "DT_INT64"}}}, {"name": "StatefulPartitionedCall/Shape_16", "op": "Const", "attr": {"value": {"tensor": {"dtype": "DT_INT64", "tensorShape": {"dim": [{"size": "3"}]}}}, "dtype": {"type": "DT_INT64"}}}, {"name": "StatefulPartitionedCall/ExpandDims", "op": "Const", "attr": {"value": {"tensor": {"dtype": "DT_INT64", "tensorShape": {"dim": [{"size": "1"}, {"size": "1"}]}}}, "dtype": {"type": "DT_INT64"}}}, {"name": "StatefulPartitionedCall/Cast_16", "op": "Const", "attr": {"value": {"tensor": {"dtype": "DT_INT64", "tensorShape": {"dim": [{"size": "1"}]}}}, "dtype": {"type": "DT_INT64"}}}, {"name": "Func/StatefulPartitionedCall/assert_equal_1/Assert/AssertGuard/then/_157/output/_171", "op": "Const", "attr": {"dtype": {"type": "DT_BOOL"}, "value": {"tensor": {"dtype": "DT_BOOL", "tensorShape": {}}}}}, {"name": "StatefulPartitionedCall/Const_57", "op": "Const", "attr": {"dtype": {"type": "DT_INT64"}, "value": {"tensor": {"dtype": "DT_INT64", "tensorShape": {}}}}}, {"name": "StatefulPartitionedCall/ones", "op": "Const", "attr": {"dtype": {"type": "DT_INT64"}, "value": {"tensor": {"dtype": "DT_INT64", "tensorShape": {"dim": [{"size": "3"}]}}}}}, {"name": "StatefulPartitionedCall/onnx_tf_prefix_/model.22/Concat_5/axis", "op": "Const", "attr": {"value": {"tensor": {"dtype": "DT_INT32", "tensorShape": {}}}, "dtype": {"type": "DT_INT32"}}}, {"name": "StatefulPartitionedCall/onnx_tf_prefix_/model.22/Constant_15", "op": "Const", "attr": {"value": {"tensor": {"dtype": "DT_FLOAT", "tensorShape": {"dim": [{"size": "1"}, {"size": "8400"}]}}}, "dtype": {"type": "DT_FLOAT"}}}, {"name": "StatefulPartitionedCall/Const_40", "op": "Const", "attr": {"dtype": {"type": "DT_INT32"}, "value": {"tensor": {"dtype": "DT_INT32", "tensorShape": {"dim": [{"size": "4"}, {"size": "2"}]}}}}}, {"name": "StatefulPartitionedCall/transpose_185/perm", "op": "Const", "attr": {"dtype": {"type": "DT_INT32"}, "value": {"tensor": {"dtype": "DT_INT32", "tensorShape": {"dim": [{"size": "4"}]}}}}}, {"name": "StatefulPartitionedCall/split_58", "op": "Const", "attr": {"dtype": {"type": "DT_FLOAT"}, "value": {"tensor": {"dtype": "DT_FLOAT", "tensorShape": {"dim": [{"size": "3"}, {"size": "3"}, {"size": "64"}, {"size": "64"}]}}}}}, {"name": "unknown_116", "op": "Const", "attr": {"value": {"tensor": {"dtype": "DT_FLOAT", "tensorShape": {"dim": [{"size": "64"}]}}}, "dtype": {"type": "DT_FLOAT"}}}, {"name": "StatefulPartitionedCall/transpose_186/perm", "op": "Const", "attr": {"value": {"tensor": {"dtype": "DT_INT32", "tensorShape": {"dim": [{"size": "4"}]}}}, "dtype": {"type": "DT_INT32"}}}, {"name": "StatefulPartitionedCall/Const_41", "op": "Const", "attr": {"value": {"tensor": {"dtype": "DT_INT32", "tensorShape": {"dim": [{"size": "4"}, {"size": "2"}]}}}, "dtype": {"type": "DT_INT32"}}}, {"name": "StatefulPartitionedCall/transpose_188/perm", "op": "Const", "attr": {"value": {"tensor": {"dtype": "DT_INT32", "tensorShape": {"dim": [{"size": "4"}]}}}, "dtype": {"type": "DT_INT32"}}}, {"name": "StatefulPartitionedCall/split_59", "op": "Const", "attr": {"value": {"tensor": {"dtype": "DT_FLOAT", "tensorShape": {"dim": [{"size": "3"}, {"size": "3"}, {"size": "64"}, {"size": "64"}]}}}, "dtype": {"type": "DT_FLOAT"}}}, {"name": "unknown_118", "op": "Const", "attr": {"value": {"tensor": {"dtype": "DT_FLOAT", "tensorShape": {"dim": [{"size": "64"}]}}}, "dtype": {"type": "DT_FLOAT"}}}, {"name": "StatefulPartitionedCall/transpose_189/perm", "op": "Const", "attr": {"value": {"tensor": {"dtype": "DT_INT32", "tensorShape": {"dim": [{"size": "4"}]}}}, "dtype": {"type": "DT_INT32"}}}, {"name": "StatefulPartitionedCall/transpose_191/perm", "op": "Const", "attr": {"value": {"tensor": {"dtype": "DT_INT32", "tensorShape": {"dim": [{"size": "4"}]}}}, "dtype": {"type": "DT_INT32"}}}, {"name": "StatefulPartitionedCall/split_60", "op": "Const", "attr": {"dtype": {"type": "DT_FLOAT"}, "value": {"tensor": {"dtype": "DT_FLOAT", "tensorShape": {"dim": [{"size": "1"}, {"size": "1"}, {"size": "64"}, {"size": "64"}]}}}}}, {"name": "unknown_120", "op": "Const", "attr": {"value": {"tensor": {"dtype": "DT_FLOAT", "tensorShape": {"dim": [{"size": "64"}]}}}, "dtype": {"type": "DT_FLOAT"}}}, {"name": "StatefulPartitionedCall/transpose_192/perm", "op": "Const", "attr": {"dtype": {"type": "DT_INT32"}, "value": {"tensor": {"dtype": "DT_INT32", "tensorShape": {"dim": [{"size": "4"}]}}}}}, {"name": "StatefulPartitionedCall/Const_42", "op": "Const", "attr": {"dtype": {"type": "DT_INT32"}, "value": {"tensor": {"dtype": "DT_INT32", "tensorShape": {"dim": [{"size": "4"}, {"size": "2"}]}}}}}, {"name": "StatefulPartitionedCall/transpose_194/perm", "op": "Const", "attr": {"dtype": {"type": "DT_INT32"}, "value": {"tensor": {"dtype": "DT_INT32", "tensorShape": {"dim": [{"size": "4"}]}}}}}, {"name": "StatefulPartitionedCall/split_61", "op": "Const", "attr": {"dtype": {"type": "DT_FLOAT"}, "value": {"tensor": {"dtype": "DT_FLOAT", "tensorShape": {"dim": [{"size": "3"}, {"size": "3"}, {"size": "64"}, {"size": "80"}]}}}}}, {"name": "unknown_122", "op": "Const", "attr": {"dtype": {"type": "DT_FLOAT"}, "value": {"tensor": {"dtype": "DT_FLOAT", "tensorShape": {"dim": [{"size": "80"}]}}}}}, {"name": "StatefulPartitionedCall/transpose_195/perm", "op": "Const", "attr": {"value": {"tensor": {"dtype": "DT_INT32", "tensorShape": {"dim": [{"size": "4"}]}}}, "dtype": {"type": "DT_INT32"}}}, {"name": "StatefulPartitionedCall/Const_43", "op": "Const", "attr": {"dtype": {"type": "DT_INT32"}, "value": {"tensor": {"dtype": "DT_INT32", "tensorShape": {"dim": [{"size": "4"}, {"size": "2"}]}}}}}, {"name": "StatefulPartitionedCall/transpose_197/perm", "op": "Const", "attr": {"value": {"tensor": {"dtype": "DT_INT32", "tensorShape": {"dim": [{"size": "4"}]}}}, "dtype": {"type": "DT_INT32"}}}, {"name": "StatefulPartitionedCall/split_62", "op": "Const", "attr": {"dtype": {"type": "DT_FLOAT"}, "value": {"tensor": {"dtype": "DT_FLOAT", "tensorShape": {"dim": [{"size": "3"}, {"size": "3"}, {"size": "80"}, {"size": "80"}]}}}}}, {"name": "unknown_124", "op": "Const", "attr": {"dtype": {"type": "DT_FLOAT"}, "value": {"tensor": {"dtype": "DT_FLOAT", "tensorShape": {"dim": [{"size": "80"}]}}}}}, {"name": "StatefulPartitionedCall/transpose_198/perm", "op": "Const", "attr": {"dtype": {"type": "DT_INT32"}, "value": {"tensor": {"dtype": "DT_INT32", "tensorShape": {"dim": [{"size": "4"}]}}}}}, {"name": "StatefulPartitionedCall/transpose_200/perm", "op": "Const", "attr": {"dtype": {"type": "DT_INT32"}, "value": {"tensor": {"dtype": "DT_INT32", "tensorShape": {"dim": [{"size": "4"}]}}}}}, {"name": "StatefulPartitionedCall/split_63", "op": "Const", "attr": {"dtype": {"type": "DT_FLOAT"}, "value": {"tensor": {"dtype": "DT_FLOAT", "tensorShape": {"dim": [{"size": "1"}, {"size": "1"}, {"size": "80"}, {"size": "80"}]}}}}}, {"name": "unknown_126", "op": "Const", "attr": {"dtype": {"type": "DT_FLOAT"}, "value": {"tensor": {"dtype": "DT_FLOAT", "tensorShape": {"dim": [{"size": "80"}]}}}}}, {"name": "StatefulPartitionedCall/transpose_201/perm", "op": "Const", "attr": {"dtype": {"type": "DT_INT32"}, "value": {"tensor": {"dtype": "DT_INT32", "tensorShape": {"dim": [{"size": "4"}]}}}}}, {"name": "StatefulPartitionedCall/onnx_tf_prefix_/model.22/Concat_1/axis", "op": "Const", "attr": {"dtype": {"type": "DT_INT32"}, "value": {"tensor": {"dtype": "DT_INT32", "tensorShape": {}}}}}, {"name": "StatefulPartitionedCall/onnx_tf_prefix_/model.22/Constant_3", "op": "Const", "attr": {"dtype": {"type": "DT_INT64"}, "value": {"tensor": {"dtype": "DT_INT64", "tensorShape": {"dim": [{"size": "3"}]}}}}}, {"name": "StatefulPartitionedCall/Where_3", "op": "Const", "attr": {"value": {"tensor": {"dtype": "DT_INT64", "tensorShape": {"dim": [{}, {"size": "1"}]}}}, "dtype": {"type": "DT_INT64"}}}, {"name": "StatefulPartitionedCall/Cast_7", "op": "Const", "attr": {"value": {"tensor": {"dtype": "DT_INT64", "tensorShape": {"dim": [{"size": "1"}]}}}, "dtype": {"type": "DT_INT64"}}}, {"name": "StatefulPartitionedCall/GatherV2_3", "op": "Const", "attr": {"value": {"tensor": {"dtype": "DT_INT64", "tensorShape": {"dim": [{}]}}}, "dtype": {"type": "DT_INT64"}}}, {"name": "StatefulPartitionedCall/zeros_3", "op": "Const", "attr": {"dtype": {"type": "DT_INT64"}, "value": {"tensor": {"dtype": "DT_INT64", "tensorShape": {}}}}}, {"name": "StatefulPartitionedCall/Const_44", "op": "Const", "attr": {"dtype": {"type": "DT_INT32"}, "value": {"tensor": {"dtype": "DT_INT32", "tensorShape": {"dim": [{"size": "4"}, {"size": "2"}]}}}}}, {"name": "StatefulPartitionedCall/transpose_203/perm", "op": "Const", "attr": {"value": {"tensor": {"dtype": "DT_INT32", "tensorShape": {"dim": [{"size": "4"}]}}}, "dtype": {"type": "DT_INT32"}}}, {"name": "StatefulPartitionedCall/split_64", "op": "Const", "attr": {"dtype": {"type": "DT_FLOAT"}, "value": {"tensor": {"dtype": "DT_FLOAT", "tensorShape": {"dim": [{"size": "3"}, {"size": "3"}, {"size": "128"}, {"size": "64"}]}}}}}, {"name": "unknown_128", "op": "Const", "attr": {"dtype": {"type": "DT_FLOAT"}, "value": {"tensor": {"dtype": "DT_FLOAT", "tensorShape": {"dim": [{"size": "64"}]}}}}}, {"name": "StatefulPartitionedCall/transpose_204/perm", "op": "Const", "attr": {"dtype": {"type": "DT_INT32"}, "value": {"tensor": {"dtype": "DT_INT32", "tensorShape": {"dim": [{"size": "4"}]}}}}}, {"name": "StatefulPartitionedCall/Const_45", "op": "Const", "attr": {"value": {"tensor": {"dtype": "DT_INT32", "tensorShape": {"dim": [{"size": "4"}, {"size": "2"}]}}}, "dtype": {"type": "DT_INT32"}}}, {"name": "StatefulPartitionedCall/transpose_206/perm", "op": "Const", "attr": {"value": {"tensor": {"dtype": "DT_INT32", "tensorShape": {"dim": [{"size": "4"}]}}}, "dtype": {"type": "DT_INT32"}}}, {"name": "StatefulPartitionedCall/split_65", "op": "Const", "attr": {"value": {"tensor": {"dtype": "DT_FLOAT", "tensorShape": {"dim": [{"size": "3"}, {"size": "3"}, {"size": "64"}, {"size": "64"}]}}}, "dtype": {"type": "DT_FLOAT"}}}, {"name": "unknown_130", "op": "Const", "attr": {"value": {"tensor": {"dtype": "DT_FLOAT", "tensorShape": {"dim": [{"size": "64"}]}}}, "dtype": {"type": "DT_FLOAT"}}}, {"name": "StatefulPartitionedCall/transpose_207/perm", "op": "Const", "attr": {"value": {"tensor": {"dtype": "DT_INT32", "tensorShape": {"dim": [{"size": "4"}]}}}, "dtype": {"type": "DT_INT32"}}}, {"name": "StatefulPartitionedCall/transpose_209/perm", "op": "Const", "attr": {"dtype": {"type": "DT_INT32"}, "value": {"tensor": {"dtype": "DT_INT32", "tensorShape": {"dim": [{"size": "4"}]}}}}}, {"name": "StatefulPartitionedCall/split_66", "op": "Const", "attr": {"dtype": {"type": "DT_FLOAT"}, "value": {"tensor": {"dtype": "DT_FLOAT", "tensorShape": {"dim": [{"size": "1"}, {"size": "1"}, {"size": "64"}, {"size": "64"}]}}}}}, {"name": "unknown_132", "op": "Const", "attr": {"value": {"tensor": {"dtype": "DT_FLOAT", "tensorShape": {"dim": [{"size": "64"}]}}}, "dtype": {"type": "DT_FLOAT"}}}, {"name": "StatefulPartitionedCall/transpose_210/perm", "op": "Const", "attr": {"value": {"tensor": {"dtype": "DT_INT32", "tensorShape": {"dim": [{"size": "4"}]}}}, "dtype": {"type": "DT_INT32"}}}, {"name": "StatefulPartitionedCall/Const_46", "op": "Const", "attr": {"value": {"tensor": {"dtype": "DT_INT32", "tensorShape": {"dim": [{"size": "4"}, {"size": "2"}]}}}, "dtype": {"type": "DT_INT32"}}}, {"name": "StatefulPartitionedCall/transpose_212/perm", "op": "Const", "attr": {"dtype": {"type": "DT_INT32"}, "value": {"tensor": {"dtype": "DT_INT32", "tensorShape": {"dim": [{"size": "4"}]}}}}}, {"name": "StatefulPartitionedCall/split_67", "op": "Const", "attr": {"dtype": {"type": "DT_FLOAT"}, "value": {"tensor": {"dtype": "DT_FLOAT", "tensorShape": {"dim": [{"size": "3"}, {"size": "3"}, {"size": "128"}, {"size": "80"}]}}}}}, {"name": "unknown_134", "op": "Const", "attr": {"value": {"tensor": {"dtype": "DT_FLOAT", "tensorShape": {"dim": [{"size": "80"}]}}}, "dtype": {"type": "DT_FLOAT"}}}, {"name": "StatefulPartitionedCall/transpose_213/perm", "op": "Const", "attr": {"dtype": {"type": "DT_INT32"}, "value": {"tensor": {"dtype": "DT_INT32", "tensorShape": {"dim": [{"size": "4"}]}}}}}, {"name": "StatefulPartitionedCall/Const_47", "op": "Const", "attr": {"dtype": {"type": "DT_INT32"}, "value": {"tensor": {"dtype": "DT_INT32", "tensorShape": {"dim": [{"size": "4"}, {"size": "2"}]}}}}}, {"name": "StatefulPartitionedCall/transpose_215/perm", "op": "Const", "attr": {"value": {"tensor": {"dtype": "DT_INT32", "tensorShape": {"dim": [{"size": "4"}]}}}, "dtype": {"type": "DT_INT32"}}}, {"name": "StatefulPartitionedCall/split_68", "op": "Const", "attr": {"dtype": {"type": "DT_FLOAT"}, "value": {"tensor": {"dtype": "DT_FLOAT", "tensorShape": {"dim": [{"size": "3"}, {"size": "3"}, {"size": "80"}, {"size": "80"}]}}}}}, {"name": "unknown_136", "op": "Const", "attr": {"dtype": {"type": "DT_FLOAT"}, "value": {"tensor": {"dtype": "DT_FLOAT", "tensorShape": {"dim": [{"size": "80"}]}}}}}, {"name": "StatefulPartitionedCall/transpose_216/perm", "op": "Const", "attr": {"dtype": {"type": "DT_INT32"}, "value": {"tensor": {"dtype": "DT_INT32", "tensorShape": {"dim": [{"size": "4"}]}}}}}, {"name": "StatefulPartitionedCall/transpose_218/perm", "op": "Const", "attr": {"dtype": {"type": "DT_INT32"}, "value": {"tensor": {"dtype": "DT_INT32", "tensorShape": {"dim": [{"size": "4"}]}}}}}, {"name": "StatefulPartitionedCall/split_69", "op": "Const", "attr": {"value": {"tensor": {"dtype": "DT_FLOAT", "tensorShape": {"dim": [{"size": "1"}, {"size": "1"}, {"size": "80"}, {"size": "80"}]}}}, "dtype": {"type": "DT_FLOAT"}}}, {"name": "unknown_138", "op": "Const", "attr": {"dtype": {"type": "DT_FLOAT"}, "value": {"tensor": {"dtype": "DT_FLOAT", "tensorShape": {"dim": [{"size": "80"}]}}}}}, {"name": "StatefulPartitionedCall/transpose_219/perm", "op": "Const", "attr": {"value": {"tensor": {"dtype": "DT_INT32", "tensorShape": {"dim": [{"size": "4"}]}}}, "dtype": {"type": "DT_INT32"}}}, {"name": "StatefulPartitionedCall/onnx_tf_prefix_/model.22/Concat_2/axis", "op": "Const", "attr": {"dtype": {"type": "DT_INT32"}, "value": {"tensor": {"dtype": "DT_INT32", "tensorShape": {}}}}}, {"name": "StatefulPartitionedCall/onnx_tf_prefix_/model.22/Constant_4", "op": "Const", "attr": {"dtype": {"type": "DT_INT64"}, "value": {"tensor": {"dtype": "DT_INT64", "tensorShape": {"dim": [{"size": "3"}]}}}}}, {"name": "StatefulPartitionedCall/Where_4", "op": "Const", "attr": {"value": {"tensor": {"dtype": "DT_INT64", "tensorShape": {"dim": [{}, {"size": "1"}]}}}, "dtype": {"type": "DT_INT64"}}}, {"name": "StatefulPartitionedCall/Cast_8", "op": "Const", "attr": {"value": {"tensor": {"dtype": "DT_INT64", "tensorShape": {"dim": [{"size": "1"}]}}}, "dtype": {"type": "DT_INT64"}}}, {"name": "StatefulPartitionedCall/GatherV2_4", "op": "Const", "attr": {"dtype": {"type": "DT_INT64"}, "value": {"tensor": {"dtype": "DT_INT64", "tensorShape": {"dim": [{}]}}}}}, {"name": "StatefulPartitionedCall/zeros_4", "op": "Const", "attr": {"value": {"tensor": {"dtype": "DT_INT64", "tensorShape": {}}}, "dtype": {"type": "DT_INT64"}}}, {"name": "StatefulPartitionedCall/Const_48", "op": "Const", "attr": {"dtype": {"type": "DT_INT32"}, "value": {"tensor": {"dtype": "DT_INT32", "tensorShape": {"dim": [{"size": "4"}, {"size": "2"}]}}}}}, {"name": "StatefulPartitionedCall/transpose_221/perm", "op": "Const", "attr": {"value": {"tensor": {"dtype": "DT_INT32", "tensorShape": {"dim": [{"size": "4"}]}}}, "dtype": {"type": "DT_INT32"}}}, {"name": "StatefulPartitionedCall/split_70", "op": "Const", "attr": {"dtype": {"type": "DT_FLOAT"}, "value": {"tensor": {"dtype": "DT_FLOAT", "tensorShape": {"dim": [{"size": "3"}, {"size": "3"}, {"size": "256"}, {"size": "64"}]}}}}}, {"name": "unknown_140", "op": "Const", "attr": {"dtype": {"type": "DT_FLOAT"}, "value": {"tensor": {"dtype": "DT_FLOAT", "tensorShape": {"dim": [{"size": "64"}]}}}}}, {"name": "StatefulPartitionedCall/transpose_222/perm", "op": "Const", "attr": {"dtype": {"type": "DT_INT32"}, "value": {"tensor": {"dtype": "DT_INT32", "tensorShape": {"dim": [{"size": "4"}]}}}}}, {"name": "StatefulPartitionedCall/Const_49", "op": "Const", "attr": {"value": {"tensor": {"dtype": "DT_INT32", "tensorShape": {"dim": [{"size": "4"}, {"size": "2"}]}}}, "dtype": {"type": "DT_INT32"}}}, {"name": "StatefulPartitionedCall/transpose_224/perm", "op": "Const", "attr": {"value": {"tensor": {"dtype": "DT_INT32", "tensorShape": {"dim": [{"size": "4"}]}}}, "dtype": {"type": "DT_INT32"}}}, {"name": "StatefulPartitionedCall/split_71", "op": "Const", "attr": {"dtype": {"type": "DT_FLOAT"}, "value": {"tensor": {"dtype": "DT_FLOAT", "tensorShape": {"dim": [{"size": "3"}, {"size": "3"}, {"size": "64"}, {"size": "64"}]}}}}}, {"name": "unknown_142", "op": "Const", "attr": {"value": {"tensor": {"dtype": "DT_FLOAT", "tensorShape": {"dim": [{"size": "64"}]}}}, "dtype": {"type": "DT_FLOAT"}}}, {"name": "StatefulPartitionedCall/transpose_225/perm", "op": "Const", "attr": {"value": {"tensor": {"dtype": "DT_INT32", "tensorShape": {"dim": [{"size": "4"}]}}}, "dtype": {"type": "DT_INT32"}}}, {"name": "StatefulPartitionedCall/transpose_227/perm", "op": "Const", "attr": {"value": {"tensor": {"dtype": "DT_INT32", "tensorShape": {"dim": [{"size": "4"}]}}}, "dtype": {"type": "DT_INT32"}}}, {"name": "StatefulPartitionedCall/split_72", "op": "Const", "attr": {"value": {"tensor": {"dtype": "DT_FLOAT", "tensorShape": {"dim": [{"size": "1"}, {"size": "1"}, {"size": "64"}, {"size": "64"}]}}}, "dtype": {"type": "DT_FLOAT"}}}, {"name": "unknown_144", "op": "Const", "attr": {"dtype": {"type": "DT_FLOAT"}, "value": {"tensor": {"dtype": "DT_FLOAT", "tensorShape": {"dim": [{"size": "64"}]}}}}}, {"name": "StatefulPartitionedCall/transpose_228/perm", "op": "Const", "attr": {"value": {"tensor": {"dtype": "DT_INT32", "tensorShape": {"dim": [{"size": "4"}]}}}, "dtype": {"type": "DT_INT32"}}}, {"name": "StatefulPartitionedCall/Const_50", "op": "Const", "attr": {"value": {"tensor": {"dtype": "DT_INT32", "tensorShape": {"dim": [{"size": "4"}, {"size": "2"}]}}}, "dtype": {"type": "DT_INT32"}}}, {"name": "StatefulPartitionedCall/transpose_230/perm", "op": "Const", "attr": {"dtype": {"type": "DT_INT32"}, "value": {"tensor": {"dtype": "DT_INT32", "tensorShape": {"dim": [{"size": "4"}]}}}}}, {"name": "StatefulPartitionedCall/split_73", "op": "Const", "attr": {"dtype": {"type": "DT_FLOAT"}, "value": {"tensor": {"dtype": "DT_FLOAT", "tensorShape": {"dim": [{"size": "3"}, {"size": "3"}, {"size": "256"}, {"size": "80"}]}}}}}, {"name": "unknown_146", "op": "Const", "attr": {"dtype": {"type": "DT_FLOAT"}, "value": {"tensor": {"dtype": "DT_FLOAT", "tensorShape": {"dim": [{"size": "80"}]}}}}}, {"name": "StatefulPartitionedCall/transpose_231/perm", "op": "Const", "attr": {"dtype": {"type": "DT_INT32"}, "value": {"tensor": {"dtype": "DT_INT32", "tensorShape": {"dim": [{"size": "4"}]}}}}}, {"name": "StatefulPartitionedCall/Const_51", "op": "Const", "attr": {"dtype": {"type": "DT_INT32"}, "value": {"tensor": {"dtype": "DT_INT32", "tensorShape": {"dim": [{"size": "4"}, {"size": "2"}]}}}}}, {"name": "StatefulPartitionedCall/transpose_233/perm", "op": "Const", "attr": {"dtype": {"type": "DT_INT32"}, "value": {"tensor": {"dtype": "DT_INT32", "tensorShape": {"dim": [{"size": "4"}]}}}}}, {"name": "StatefulPartitionedCall/split_74", "op": "Const", "attr": {"value": {"tensor": {"dtype": "DT_FLOAT", "tensorShape": {"dim": [{"size": "3"}, {"size": "3"}, {"size": "80"}, {"size": "80"}]}}}, "dtype": {"type": "DT_FLOAT"}}}, {"name": "unknown_148", "op": "Const", "attr": {"value": {"tensor": {"dtype": "DT_FLOAT", "tensorShape": {"dim": [{"size": "80"}]}}}, "dtype": {"type": "DT_FLOAT"}}}, {"name": "StatefulPartitionedCall/transpose_234/perm", "op": "Const", "attr": {"dtype": {"type": "DT_INT32"}, "value": {"tensor": {"dtype": "DT_INT32", "tensorShape": {"dim": [{"size": "4"}]}}}}}, {"name": "StatefulPartitionedCall/transpose_236/perm", "op": "Const", "attr": {"value": {"tensor": {"dtype": "DT_INT32", "tensorShape": {"dim": [{"size": "4"}]}}}, "dtype": {"type": "DT_INT32"}}}, {"name": "StatefulPartitionedCall/split_75", "op": "Const", "attr": {"value": {"tensor": {"dtype": "DT_FLOAT", "tensorShape": {"dim": [{"size": "1"}, {"size": "1"}, {"size": "80"}, {"size": "80"}]}}}, "dtype": {"type": "DT_FLOAT"}}}, {"name": "unknown_150", "op": "Const", "attr": {"dtype": {"type": "DT_FLOAT"}, "value": {"tensor": {"dtype": "DT_FLOAT", "tensorShape": {"dim": [{"size": "80"}]}}}}}, {"name": "StatefulPartitionedCall/transpose_237/perm", "op": "Const", "attr": {"value": {"tensor": {"dtype": "DT_INT32", "tensorShape": {"dim": [{"size": "4"}]}}}, "dtype": {"type": "DT_INT32"}}}, {"name": "StatefulPartitionedCall/onnx_tf_prefix_/model.22/Concat_3/axis", "op": "Const", "attr": {"value": {"tensor": {"dtype": "DT_INT32", "tensorShape": {}}}, "dtype": {"type": "DT_INT32"}}}, {"name": "StatefulPartitionedCall/onnx_tf_prefix_/model.22/Constant_5", "op": "Const", "attr": {"value": {"tensor": {"dtype": "DT_INT64", "tensorShape": {"dim": [{"size": "3"}]}}}, "dtype": {"type": "DT_INT64"}}}, {"name": "StatefulPartitionedCall/Where_5", "op": "Const", "attr": {"dtype": {"type": "DT_INT64"}, "value": {"tensor": {"dtype": "DT_INT64", "tensorShape": {"dim": [{}, {"size": "1"}]}}}}}, {"name": "StatefulPartitionedCall/Cast_9", "op": "Const", "attr": {"value": {"tensor": {"dtype": "DT_INT64", "tensorShape": {"dim": [{"size": "1"}]}}}, "dtype": {"type": "DT_INT64"}}}, {"name": "StatefulPartitionedCall/GatherV2_5", "op": "Const", "attr": {"dtype": {"type": "DT_INT64"}, "value": {"tensor": {"dtype": "DT_INT64", "tensorShape": {"dim": [{}]}}}}}, {"name": "StatefulPartitionedCall/zeros_5", "op": "Const", "attr": {"dtype": {"type": "DT_INT64"}, "value": {"tensor": {"dtype": "DT_INT64", "tensorShape": {}}}}}, {"name": "StatefulPartitionedCall/onnx_tf_prefix_/model.22/Concat_4/axis", "op": "Const", "attr": {"value": {"tensor": {"dtype": "DT_INT32", "tensorShape": {}}}, "dtype": {"type": "DT_INT32"}}}, {"name": "StatefulPartitionedCall/onnx_tf_prefix_Constant_263", "op": "Const", "attr": {"dtype": {"type": "DT_INT64"}, "value": {"tensor": {"dtype": "DT_INT64", "tensorShape": {"dim": [{"size": "2"}]}}}}}, {"name": "StatefulPartitionedCall/onnx_tf_prefix_/model.22/Split/split_dim", "op": "Const", "attr": {"value": {"tensor": {"dtype": "DT_INT32", "tensorShape": {}}}, "dtype": {"type": "DT_INT32"}}}, {"name": "StatefulPartitionedCall/Const_31", "op": "Const", "attr": {"value": {"tensor": {"dtype": "DT_INT32", "tensorShape": {"dim": [{"size": "4"}, {"size": "2"}]}}}, "dtype": {"type": "DT_INT32"}}}, {"name": "StatefulPartitionedCall/transpose_158/perm", "op": "Const", "attr": {"dtype": {"type": "DT_INT32"}, "value": {"tensor": {"dtype": "DT_INT32", "tensorShape": {"dim": [{"size": "4"}]}}}}}, {"name": "StatefulPartitionedCall/split_49", "op": "Const", "attr": {"value": {"tensor": {"dtype": "DT_FLOAT", "tensorShape": {"dim": [{"size": "3"}, {"size": "3"}, {"size": "64"}, {"size": "32"}]}}}, "dtype": {"type": "DT_FLOAT"}}}, {"name": "unknown_98", "op": "Const", "attr": {"value": {"tensor": {"dtype": "DT_FLOAT", "tensorShape": {"dim": [{"size": "32"}]}}}, "dtype": {"type": "DT_FLOAT"}}}, {"name": "StatefulPartitionedCall/transpose_159/perm", "op": "Const", "attr": {"value": {"tensor": {"dtype": "DT_INT32", "tensorShape": {"dim": [{"size": "4"}]}}}, "dtype": {"type": "DT_INT32"}}}, {"name": "StatefulPartitionedCall/Const_32", "op": "Const", "attr": {"value": {"tensor": {"dtype": "DT_INT32", "tensorShape": {"dim": [{"size": "4"}, {"size": "2"}]}}}, "dtype": {"type": "DT_INT32"}}}, {"name": "StatefulPartitionedCall/transpose_161/perm", "op": "Const", "attr": {"value": {"tensor": {"dtype": "DT_INT32", "tensorShape": {"dim": [{"size": "4"}]}}}, "dtype": {"type": "DT_INT32"}}}, {"name": "StatefulPartitionedCall/split_50", "op": "Const", "attr": {"value": {"tensor": {"dtype": "DT_FLOAT", "tensorShape": {"dim": [{"size": "3"}, {"size": "3"}, {"size": "32"}, {"size": "32"}]}}}, "dtype": {"type": "DT_FLOAT"}}}, {"name": "unknown_100", "op": "Const", "attr": {"dtype": {"type": "DT_FLOAT"}, "value": {"tensor": {"dtype": "DT_FLOAT", "tensorShape": {"dim": [{"size": "32"}]}}}}}, {"name": "StatefulPartitionedCall/transpose_162/perm", "op": "Const", "attr": {"dtype": {"type": "DT_INT32"}, "value": {"tensor": {"dtype": "DT_INT32", "tensorShape": {"dim": [{"size": "4"}]}}}}}, {"name": "StatefulPartitionedCall/transpose_164/perm", "op": "Const", "attr": {"value": {"tensor": {"dtype": "DT_INT32", "tensorShape": {"dim": [{"size": "4"}]}}}, "dtype": {"type": "DT_INT32"}}}, {"name": "StatefulPartitionedCall/split_51", "op": "Const", "attr": {"value": {"tensor": {"dtype": "DT_FLOAT", "tensorShape": {"dim": [{"size": "1"}, {"size": "1"}, {"size": "32"}, {"size": "32"}]}}}, "dtype": {"type": "DT_FLOAT"}}}, {"name": "unknown_102", "op": "Const", "attr": {"value": {"tensor": {"dtype": "DT_FLOAT", "tensorShape": {"dim": [{"size": "32"}]}}}, "dtype": {"type": "DT_FLOAT"}}}, {"name": "StatefulPartitionedCall/transpose_165/perm", "op": "Const", "attr": {"dtype": {"type": "DT_INT32"}, "value": {"tensor": {"dtype": "DT_INT32", "tensorShape": {"dim": [{"size": "4"}]}}}}}, {"name": "StatefulPartitionedCall/onnx_tf_prefix_/model.22/Constant", "op": "Const", "attr": {"dtype": {"type": "DT_INT64"}, "value": {"tensor": {"dtype": "DT_INT64", "tensorShape": {"dim": [{"size": "3"}]}}}}}, {"name": "StatefulPartitionedCall/Where", "op": "Const", "attr": {"value": {"tensor": {"dtype": "DT_INT64", "tensorShape": {"dim": [{}, {"size": "1"}]}}}, "dtype": {"type": "DT_INT64"}}}, {"name": "StatefulPartitionedCall/Cast_4", "op": "Const", "attr": {"dtype": {"type": "DT_INT64"}, "value": {"tensor": {"dtype": "DT_INT64", "tensorShape": {"dim": [{"size": "1"}]}}}}}, {"name": "StatefulPartitionedCall/GatherV2", "op": "Const", "attr": {"value": {"tensor": {"dtype": "DT_INT64", "tensorShape": {"dim": [{}]}}}, "dtype": {"type": "DT_INT64"}}}, {"name": "StatefulPartitionedCall/zeros", "op": "Const", "attr": {"value": {"tensor": {"dtype": "DT_INT64", "tensorShape": {}}}, "dtype": {"type": "DT_INT64"}}}, {"name": "StatefulPartitionedCall/Const_34", "op": "Const", "attr": {"dtype": {"type": "DT_INT32"}, "value": {"tensor": {"dtype": "DT_INT32", "tensorShape": {"dim": [{"size": "4"}, {"size": "2"}]}}}}}, {"name": "StatefulPartitionedCall/transpose_167/perm", "op": "Const", "attr": {"value": {"tensor": {"dtype": "DT_INT32", "tensorShape": {"dim": [{"size": "4"}]}}}, "dtype": {"type": "DT_INT32"}}}, {"name": "StatefulPartitionedCall/split_52", "op": "Const", "attr": {"dtype": {"type": "DT_FLOAT"}, "value": {"tensor": {"dtype": "DT_FLOAT", "tensorShape": {"dim": [{"size": "3"}, {"size": "3"}, {"size": "128"}, {"size": "32"}]}}}}}, {"name": "unknown_104", "op": "Const", "attr": {"dtype": {"type": "DT_FLOAT"}, "value": {"tensor": {"dtype": "DT_FLOAT", "tensorShape": {"dim": [{"size": "32"}]}}}}}, {"name": "StatefulPartitionedCall/transpose_168/perm", "op": "Const", "attr": {"value": {"tensor": {"dtype": "DT_INT32", "tensorShape": {"dim": [{"size": "4"}]}}}, "dtype": {"type": "DT_INT32"}}}, {"name": "StatefulPartitionedCall/Const_35", "op": "Const", "attr": {"value": {"tensor": {"dtype": "DT_INT32", "tensorShape": {"dim": [{"size": "4"}, {"size": "2"}]}}}, "dtype": {"type": "DT_INT32"}}}, {"name": "StatefulPartitionedCall/transpose_170/perm", "op": "Const", "attr": {"dtype": {"type": "DT_INT32"}, "value": {"tensor": {"dtype": "DT_INT32", "tensorShape": {"dim": [{"size": "4"}]}}}}}, {"name": "StatefulPartitionedCall/split_53", "op": "Const", "attr": {"dtype": {"type": "DT_FLOAT"}, "value": {"tensor": {"dtype": "DT_FLOAT", "tensorShape": {"dim": [{"size": "3"}, {"size": "3"}, {"size": "32"}, {"size": "32"}]}}}}}, {"name": "unknown_106", "op": "Const", "attr": {"value": {"tensor": {"dtype": "DT_FLOAT", "tensorShape": {"dim": [{"size": "32"}]}}}, "dtype": {"type": "DT_FLOAT"}}}, {"name": "StatefulPartitionedCall/transpose_171/perm", "op": "Const", "attr": {"value": {"tensor": {"dtype": "DT_INT32", "tensorShape": {"dim": [{"size": "4"}]}}}, "dtype": {"type": "DT_INT32"}}}, {"name": "StatefulPartitionedCall/transpose_173/perm", "op": "Const", "attr": {"dtype": {"type": "DT_INT32"}, "value": {"tensor": {"dtype": "DT_INT32", "tensorShape": {"dim": [{"size": "4"}]}}}}}, {"name": "StatefulPartitionedCall/split_54", "op": "Const", "attr": {"dtype": {"type": "DT_FLOAT"}, "value": {"tensor": {"dtype": "DT_FLOAT", "tensorShape": {"dim": [{"size": "1"}, {"size": "1"}, {"size": "32"}, {"size": "32"}]}}}}}, {"name": "unknown_108", "op": "Const", "attr": {"value": {"tensor": {"dtype": "DT_FLOAT", "tensorShape": {"dim": [{"size": "32"}]}}}, "dtype": {"type": "DT_FLOAT"}}}, {"name": "StatefulPartitionedCall/transpose_174/perm", "op": "Const", "attr": {"value": {"tensor": {"dtype": "DT_INT32", "tensorShape": {"dim": [{"size": "4"}]}}}, "dtype": {"type": "DT_INT32"}}}, {"name": "StatefulPartitionedCall/onnx_tf_prefix_/model.22/Constant_1", "op": "Const", "attr": {"dtype": {"type": "DT_INT64"}, "value": {"tensor": {"dtype": "DT_INT64", "tensorShape": {"dim": [{"size": "3"}]}}}}}, {"name": "StatefulPartitionedCall/Where_1", "op": "Const", "attr": {"dtype": {"type": "DT_INT64"}, "value": {"tensor": {"dtype": "DT_INT64", "tensorShape": {"dim": [{}, {"size": "1"}]}}}}}, {"name": "StatefulPartitionedCall/Cast_5", "op": "Const", "attr": {"value": {"tensor": {"dtype": "DT_INT64", "tensorShape": {"dim": [{"size": "1"}]}}}, "dtype": {"type": "DT_INT64"}}}, {"name": "StatefulPartitionedCall/GatherV2_1", "op": "Const", "attr": {"value": {"tensor": {"dtype": "DT_INT64", "tensorShape": {"dim": [{}]}}}, "dtype": {"type": "DT_INT64"}}}, {"name": "StatefulPartitionedCall/zeros_1", "op": "Const", "attr": {"dtype": {"type": "DT_INT64"}, "value": {"tensor": {"dtype": "DT_INT64", "tensorShape": {}}}}}, {"name": "StatefulPartitionedCall/Const_23", "op": "Const", "attr": {"value": {"tensor": {"dtype": "DT_INT32", "tensorShape": {"dim": [{"size": "4"}, {"size": "2"}]}}}, "dtype": {"type": "DT_INT32"}}}, {"name": "StatefulPartitionedCall/transpose_116/perm", "op": "Const", "attr": {"value": {"tensor": {"dtype": "DT_INT32", "tensorShape": {"dim": [{"size": "4"}]}}}, "dtype": {"type": "DT_INT32"}}}, {"name": "StatefulPartitionedCall/split_35", "op": "Const", "attr": {"value": {"tensor": {"dtype": "DT_FLOAT", "tensorShape": {"dim": [{"size": "3"}, {"size": "3"}, {"size": "64"}, {"size": "64"}]}}}, "dtype": {"type": "DT_FLOAT"}}}, {"name": "unknown_70", "op": "Const", "attr": {"value": {"tensor": {"dtype": "DT_FLOAT", "tensorShape": {"dim": [{"size": "64"}]}}}, "dtype": {"type": "DT_FLOAT"}}}, {"name": "StatefulPartitionedCall/transpose_117/perm", "op": "Const", "attr": {"value": {"tensor": {"dtype": "DT_INT32", "tensorShape": {"dim": [{"size": "4"}]}}}, "dtype": {"type": "DT_INT32"}}}, {"name": "StatefulPartitionedCall/onnx_tf_prefix_/model.17/Concat/axis", "op": "Const", "attr": {"value": {"tensor": {"dtype": "DT_INT32", "tensorShape": {}}}, "dtype": {"type": "DT_INT32"}}}, {"name": "StatefulPartitionedCall/transpose_119/perm", "op": "Const", "attr": {"value": {"tensor": {"dtype": "DT_INT32", "tensorShape": {"dim": [{"size": "4"}]}}}, "dtype": {"type": "DT_INT32"}}}, {"name": "StatefulPartitionedCall/split_36", "op": "Const", "attr": {"value": {"tensor": {"dtype": "DT_FLOAT", "tensorShape": {"dim": [{"size": "1"}, {"size": "1"}, {"size": "192"}, {"size": "128"}]}}}, "dtype": {"type": "DT_FLOAT"}}}, {"name": "unknown_72", "op": "Const", "attr": {"dtype": {"type": "DT_FLOAT"}, "value": {"tensor": {"dtype": "DT_FLOAT", "tensorShape": {"dim": [{"size": "128"}]}}}}}, {"name": "StatefulPartitionedCall/transpose_120/perm", "op": "Const", "attr": {"dtype": {"type": "DT_INT32"}, "value": {"tensor": {"dtype": "DT_INT32", "tensorShape": {"dim": [{"size": "4"}]}}}}}, {"name": "StatefulPartitionedCall/onnx_tf_prefix_/model.18/Split/split_dim", "op": "Const", "attr": {"dtype": {"type": "DT_INT32"}, "value": {"tensor": {"dtype": "DT_INT32", "tensorShape": {}}}}}, {"name": "StatefulPartitionedCall/Const_24", "op": "Const", "attr": {"dtype": {"type": "DT_INT32"}, "value": {"tensor": {"dtype": "DT_INT32", "tensorShape": {"dim": [{"size": "4"}, {"size": "2"}]}}}}}, {"name": "StatefulPartitionedCall/transpose_122/perm", "op": "Const", "attr": {"dtype": {"type": "DT_INT32"}, "value": {"tensor": {"dtype": "DT_INT32", "tensorShape": {"dim": [{"size": "4"}]}}}}}, {"name": "StatefulPartitionedCall/split_37", "op": "Const", "attr": {"value": {"tensor": {"dtype": "DT_FLOAT", "tensorShape": {"dim": [{"size": "3"}, {"size": "3"}, {"size": "64"}, {"size": "64"}]}}}, "dtype": {"type": "DT_FLOAT"}}}, {"name": "unknown_74", "op": "Const", "attr": {"value": {"tensor": {"dtype": "DT_FLOAT", "tensorShape": {"dim": [{"size": "64"}]}}}, "dtype": {"type": "DT_FLOAT"}}}, {"name": "StatefulPartitionedCall/transpose_123/perm", "op": "Const", "attr": {"dtype": {"type": "DT_INT32"}, "value": {"tensor": {"dtype": "DT_INT32", "tensorShape": {"dim": [{"size": "4"}]}}}}}, {"name": "StatefulPartitionedCall/Const_25", "op": "Const", "attr": {"dtype": {"type": "DT_INT32"}, "value": {"tensor": {"dtype": "DT_INT32", "tensorShape": {"dim": [{"size": "4"}, {"size": "2"}]}}}}}, {"name": "StatefulPartitionedCall/transpose_125/perm", "op": "Const", "attr": {"dtype": {"type": "DT_INT32"}, "value": {"tensor": {"dtype": "DT_INT32", "tensorShape": {"dim": [{"size": "4"}]}}}}}, {"name": "StatefulPartitionedCall/split_38", "op": "Const", "attr": {"dtype": {"type": "DT_FLOAT"}, "value": {"tensor": {"dtype": "DT_FLOAT", "tensorShape": {"dim": [{"size": "3"}, {"size": "3"}, {"size": "64"}, {"size": "64"}]}}}}}, {"name": "unknown_76", "op": "Const", "attr": {"value": {"tensor": {"dtype": "DT_FLOAT", "tensorShape": {"dim": [{"size": "64"}]}}}, "dtype": {"type": "DT_FLOAT"}}}, {"name": "StatefulPartitionedCall/transpose_126/perm", "op": "Const", "attr": {"value": {"tensor": {"dtype": "DT_INT32", "tensorShape": {"dim": [{"size": "4"}]}}}, "dtype": {"type": "DT_INT32"}}}, {"name": "StatefulPartitionedCall/onnx_tf_prefix_/model.18/Concat/axis", "op": "Const", "attr": {"dtype": {"type": "DT_INT32"}, "value": {"tensor": {"dtype": "DT_INT32", "tensorShape": {}}}}}, {"name": "StatefulPartitionedCall/transpose_128/perm", "op": "Const", "attr": {"dtype": {"type": "DT_INT32"}, "value": {"tensor": {"dtype": "DT_INT32", "tensorShape": {"dim": [{"size": "4"}]}}}}}, {"name": "StatefulPartitionedCall/split_39", "op": "Const", "attr": {"value": {"tensor": {"dtype": "DT_FLOAT", "tensorShape": {"dim": [{"size": "1"}, {"size": "1"}, {"size": "192"}, {"size": "128"}]}}}, "dtype": {"type": "DT_FLOAT"}}}, {"name": "unknown_78", "op": "Const", "attr": {"dtype": {"type": "DT_FLOAT"}, "value": {"tensor": {"dtype": "DT_FLOAT", "tensorShape": {"dim": [{"size": "128"}]}}}}}, {"name": "StatefulPartitionedCall/transpose_129/perm", "op": "Const", "attr": {"dtype": {"type": "DT_INT32"}, "value": {"tensor": {"dtype": "DT_INT32", "tensorShape": {"dim": [{"size": "4"}]}}}}}, {"name": "StatefulPartitionedCall/Const_26", "op": "Const", "attr": {"value": {"tensor": {"dtype": "DT_INT32", "tensorShape": {"dim": [{"size": "4"}, {"size": "2"}]}}}, "dtype": {"type": "DT_INT32"}}}, {"name": "StatefulPartitionedCall/transpose_131/perm", "op": "Const", "attr": {"value": {"tensor": {"dtype": "DT_INT32", "tensorShape": {"dim": [{"size": "4"}]}}}, "dtype": {"type": "DT_INT32"}}}, {"name": "StatefulPartitionedCall/split_40", "op": "Const", "attr": {"dtype": {"type": "DT_FLOAT"}, "value": {"tensor": {"dtype": "DT_FLOAT", "tensorShape": {"dim": [{"size": "3"}, {"size": "3"}, {"size": "128"}, {"size": "128"}]}}}}}, {"name": "unknown_80", "op": "Const", "attr": {"value": {"tensor": {"dtype": "DT_FLOAT", "tensorShape": {"dim": [{"size": "128"}]}}}, "dtype": {"type": "DT_FLOAT"}}}, {"name": "StatefulPartitionedCall/transpose_132/perm", "op": "Const", "attr": {"dtype": {"type": "DT_INT32"}, "value": {"tensor": {"dtype": "DT_INT32", "tensorShape": {"dim": [{"size": "4"}]}}}}}, {"name": "StatefulPartitionedCall/onnx_tf_prefix_/model.20/Concat/axis", "op": "Const", "attr": {"dtype": {"type": "DT_INT32"}, "value": {"tensor": {"dtype": "DT_INT32", "tensorShape": {}}}}}, {"name": "StatefulPartitionedCall/transpose_134/perm", "op": "Const", "attr": {"dtype": {"type": "DT_INT32"}, "value": {"tensor": {"dtype": "DT_INT32", "tensorShape": {"dim": [{"size": "4"}]}}}}}, {"name": "StatefulPartitionedCall/split_41", "op": "Const", "attr": {"value": {"tensor": {"dtype": "DT_FLOAT", "tensorShape": {"dim": [{"size": "1"}, {"size": "1"}, {"size": "384"}, {"size": "256"}]}}}, "dtype": {"type": "DT_FLOAT"}}}, {"name": "unknown_82", "op": "Const", "attr": {"dtype": {"type": "DT_FLOAT"}, "value": {"tensor": {"dtype": "DT_FLOAT", "tensorShape": {"dim": [{"size": "256"}]}}}}}, {"name": "StatefulPartitionedCall/transpose_135/perm", "op": "Const", "attr": {"value": {"tensor": {"dtype": "DT_INT32", "tensorShape": {"dim": [{"size": "4"}]}}}, "dtype": {"type": "DT_INT32"}}}, {"name": "StatefulPartitionedCall/onnx_tf_prefix_/model.21/Split/split_dim", "op": "Const", "attr": {"value": {"tensor": {"dtype": "DT_INT32", "tensorShape": {}}}, "dtype": {"type": "DT_INT32"}}}, {"name": "StatefulPartitionedCall/Const_27", "op": "Const", "attr": {"value": {"tensor": {"dtype": "DT_INT32", "tensorShape": {"dim": [{"size": "4"}, {"size": "2"}]}}}, "dtype": {"type": "DT_INT32"}}}, {"name": "StatefulPartitionedCall/transpose_137/perm", "op": "Const", "attr": {"value": {"tensor": {"dtype": "DT_INT32", "tensorShape": {"dim": [{"size": "4"}]}}}, "dtype": {"type": "DT_INT32"}}}, {"name": "StatefulPartitionedCall/split_42", "op": "Const", "attr": {"dtype": {"type": "DT_FLOAT"}, "value": {"tensor": {"dtype": "DT_FLOAT", "tensorShape": {"dim": [{"size": "3"}, {"size": "3"}, {"size": "128"}, {"size": "128"}]}}}}}, {"name": "unknown_84", "op": "Const", "attr": {"dtype": {"type": "DT_FLOAT"}, "value": {"tensor": {"dtype": "DT_FLOAT", "tensorShape": {"dim": [{"size": "128"}]}}}}}, {"name": "StatefulPartitionedCall/transpose_138/perm", "op": "Const", "attr": {"dtype": {"type": "DT_INT32"}, "value": {"tensor": {"dtype": "DT_INT32", "tensorShape": {"dim": [{"size": "4"}]}}}}}, {"name": "StatefulPartitionedCall/Const_28", "op": "Const", "attr": {"dtype": {"type": "DT_INT32"}, "value": {"tensor": {"dtype": "DT_INT32", "tensorShape": {"dim": [{"size": "4"}, {"size": "2"}]}}}}}, {"name": "StatefulPartitionedCall/transpose_140/perm", "op": "Const", "attr": {"dtype": {"type": "DT_INT32"}, "value": {"tensor": {"dtype": "DT_INT32", "tensorShape": {"dim": [{"size": "4"}]}}}}}, {"name": "StatefulPartitionedCall/split_43", "op": "Const", "attr": {"value": {"tensor": {"dtype": "DT_FLOAT", "tensorShape": {"dim": [{"size": "3"}, {"size": "3"}, {"size": "128"}, {"size": "128"}]}}}, "dtype": {"type": "DT_FLOAT"}}}, {"name": "unknown_86", "op": "Const", "attr": {"value": {"tensor": {"dtype": "DT_FLOAT", "tensorShape": {"dim": [{"size": "128"}]}}}, "dtype": {"type": "DT_FLOAT"}}}, {"name": "StatefulPartitionedCall/transpose_141/perm", "op": "Const", "attr": {"value": {"tensor": {"dtype": "DT_INT32", "tensorShape": {"dim": [{"size": "4"}]}}}, "dtype": {"type": "DT_INT32"}}}, {"name": "StatefulPartitionedCall/onnx_tf_prefix_/model.21/Concat/axis", "op": "Const", "attr": {"value": {"tensor": {"dtype": "DT_INT32", "tensorShape": {}}}, "dtype": {"type": "DT_INT32"}}}, {"name": "StatefulPartitionedCall/transpose_143/perm", "op": "Const", "attr": {"value": {"tensor": {"dtype": "DT_INT32", "tensorShape": {"dim": [{"size": "4"}]}}}, "dtype": {"type": "DT_INT32"}}}, {"name": "StatefulPartitionedCall/split_44", "op": "Const", "attr": {"value": {"tensor": {"dtype": "DT_FLOAT", "tensorShape": {"dim": [{"size": "1"}, {"size": "1"}, {"size": "384"}, {"size": "256"}]}}}, "dtype": {"type": "DT_FLOAT"}}}, {"name": "unknown_88", "op": "Const", "attr": {"dtype": {"type": "DT_FLOAT"}, "value": {"tensor": {"dtype": "DT_FLOAT", "tensorShape": {"dim": [{"size": "256"}]}}}}}, {"name": "StatefulPartitionedCall/transpose_144/perm", "op": "Const", "attr": {"value": {"tensor": {"dtype": "DT_INT32", "tensorShape": {"dim": [{"size": "4"}]}}}, "dtype": {"type": "DT_INT32"}}}, {"name": "StatefulPartitionedCall/Const_37", "op": "Const", "attr": {"value": {"tensor": {"dtype": "DT_INT32", "tensorShape": {"dim": [{"size": "4"}, {"size": "2"}]}}}, "dtype": {"type": "DT_INT32"}}}, {"name": "StatefulPartitionedCall/transpose_176/perm", "op": "Const", "attr": {"dtype": {"type": "DT_INT32"}, "value": {"tensor": {"dtype": "DT_INT32", "tensorShape": {"dim": [{"size": "4"}]}}}}}, {"name": "StatefulPartitionedCall/split_55", "op": "Const", "attr": {"value": {"tensor": {"dtype": "DT_FLOAT", "tensorShape": {"dim": [{"size": "3"}, {"size": "3"}, {"size": "256"}, {"size": "32"}]}}}, "dtype": {"type": "DT_FLOAT"}}}, {"name": "unknown_110", "op": "Const", "attr": {"value": {"tensor": {"dtype": "DT_FLOAT", "tensorShape": {"dim": [{"size": "32"}]}}}, "dtype": {"type": "DT_FLOAT"}}}, {"name": "StatefulPartitionedCall/transpose_177/perm", "op": "Const", "attr": {"value": {"tensor": {"dtype": "DT_INT32", "tensorShape": {"dim": [{"size": "4"}]}}}, "dtype": {"type": "DT_INT32"}}}, {"name": "StatefulPartitionedCall/Const_38", "op": "Const", "attr": {"value": {"tensor": {"dtype": "DT_INT32", "tensorShape": {"dim": [{"size": "4"}, {"size": "2"}]}}}, "dtype": {"type": "DT_INT32"}}}, {"name": "StatefulPartitionedCall/transpose_179/perm", "op": "Const", "attr": {"dtype": {"type": "DT_INT32"}, "value": {"tensor": {"dtype": "DT_INT32", "tensorShape": {"dim": [{"size": "4"}]}}}}}, {"name": "StatefulPartitionedCall/split_56", "op": "Const", "attr": {"value": {"tensor": {"dtype": "DT_FLOAT", "tensorShape": {"dim": [{"size": "3"}, {"size": "3"}, {"size": "32"}, {"size": "32"}]}}}, "dtype": {"type": "DT_FLOAT"}}}, {"name": "unknown_112", "op": "Const", "attr": {"dtype": {"type": "DT_FLOAT"}, "value": {"tensor": {"dtype": "DT_FLOAT", "tensorShape": {"dim": [{"size": "32"}]}}}}}, {"name": "StatefulPartitionedCall/transpose_180/perm", "op": "Const", "attr": {"dtype": {"type": "DT_INT32"}, "value": {"tensor": {"dtype": "DT_INT32", "tensorShape": {"dim": [{"size": "4"}]}}}}}, {"name": "StatefulPartitionedCall/transpose_182/perm", "op": "Const", "attr": {"dtype": {"type": "DT_INT32"}, "value": {"tensor": {"dtype": "DT_INT32", "tensorShape": {"dim": [{"size": "4"}]}}}}}, {"name": "StatefulPartitionedCall/split_57", "op": "Const", "attr": {"value": {"tensor": {"dtype": "DT_FLOAT", "tensorShape": {"dim": [{"size": "1"}, {"size": "1"}, {"size": "32"}, {"size": "32"}]}}}, "dtype": {"type": "DT_FLOAT"}}}, {"name": "unknown_114", "op": "Const", "attr": {"value": {"tensor": {"dtype": "DT_FLOAT", "tensorShape": {"dim": [{"size": "32"}]}}}, "dtype": {"type": "DT_FLOAT"}}}, {"name": "StatefulPartitionedCall/transpose_183/perm", "op": "Const", "attr": {"value": {"tensor": {"dtype": "DT_INT32", "tensorShape": {"dim": [{"size": "4"}]}}}, "dtype": {"type": "DT_INT32"}}}, {"name": "StatefulPartitionedCall/onnx_tf_prefix_/model.22/Constant_2", "op": "Const", "attr": {"dtype": {"type": "DT_INT64"}, "value": {"tensor": {"dtype": "DT_INT64", "tensorShape": {"dim": [{"size": "3"}]}}}}}, {"name": "StatefulPartitionedCall/Where_2", "op": "Const", "attr": {"value": {"tensor": {"dtype": "DT_INT64", "tensorShape": {"dim": [{}, {"size": "1"}]}}}, "dtype": {"type": "DT_INT64"}}}, {"name": "StatefulPartitionedCall/Cast_6", "op": "Const", "attr": {"value": {"tensor": {"dtype": "DT_INT64", "tensorShape": {"dim": [{"size": "1"}]}}}, "dtype": {"type": "DT_INT64"}}}, {"name": "StatefulPartitionedCall/GatherV2_2", "op": "Const", "attr": {"dtype": {"type": "DT_INT64"}, "value": {"tensor": {"dtype": "DT_INT64", "tensorShape": {"dim": [{}]}}}}}, {"name": "StatefulPartitionedCall/zeros_2", "op": "Const", "attr": {"dtype": {"type": "DT_INT64"}, "value": {"tensor": {"dtype": "DT_INT64", "tensorShape": {}}}}}, {"name": "StatefulPartitionedCall/onnx_tf_prefix_/model.22/Concat/axis", "op": "Const", "attr": {"dtype": {"type": "DT_INT32"}, "value": {"tensor": {"dtype": "DT_INT32", "tensorShape": {}}}}}, {"name": "StatefulPartitionedCall/onnx_tf_prefix_/model.22/Concat_6/axis", "op": "Const", "attr": {"value": {"tensor": {"dtype": "DT_INT32", "tensorShape": {}}}, "dtype": {"type": "DT_INT32"}}}, {"name": "StatefulPartitionedCall/conv2d_transpose/input_sizes", "op": "Const", "attr": {"value": {"tensor": {"dtype": "DT_INT32", "tensorShape": {"dim": [{"size": "4"}]}}}, "dtype": {"type": "DT_INT32"}}}, {"name": "StatefulPartitionedCall/split_46", "op": "Const", "attr": {"value": {"tensor": {"dtype": "DT_FLOAT", "tensorShape": {"dim": [{"size": "2"}, {"size": "2"}, {"size": "64"}, {"size": "64"}]}}}, "dtype": {"type": "DT_FLOAT"}}}, {"name": "StatefulPartitionedCall/transpose_79/perm", "op": "Const", "attr": {"dtype": {"type": "DT_INT32"}, "value": {"tensor": {"dtype": "DT_INT32", "tensorShape": {"dim": [{"size": "4"}]}}}}}, {"name": "StatefulPartitionedCall/transpose_81/perm", "op": "Const", "attr": {"value": {"tensor": {"dtype": "DT_INT32", "tensorShape": {"dim": [{"size": "4"}]}}}, "dtype": {"type": "DT_INT32"}}}, {"name": "StatefulPartitionedCall/Const_14", "op": "Const", "attr": {"value": {"tensor": {"dtype": "DT_INT32", "tensorShape": {"dim": [{"size": "4"}, {"size": "2"}]}}}, "dtype": {"type": "DT_INT32"}}}, {"name": "StatefulPartitionedCall/transpose_61/perm", "op": "Const", "attr": {"dtype": {"type": "DT_INT32"}, "value": {"tensor": {"dtype": "DT_INT32", "tensorShape": {"dim": [{"size": "4"}]}}}}}, {"name": "StatefulPartitionedCall/split_20", "op": "Const", "attr": {"value": {"tensor": {"dtype": "DT_FLOAT", "tensorShape": {"dim": [{"size": "3"}, {"size": "3"}, {"size": "128"}, {"size": "256"}]}}}, "dtype": {"type": "DT_FLOAT"}}}, {"name": "unknown_40", "op": "Const", "attr": {"dtype": {"type": "DT_FLOAT"}, "value": {"tensor": {"dtype": "DT_FLOAT", "tensorShape": {"dim": [{"size": "256"}]}}}}}, {"name": "StatefulPartitionedCall/transpose_62/perm", "op": "Const", "attr": {"dtype": {"type": "DT_INT32"}, "value": {"tensor": {"dtype": "DT_INT32", "tensorShape": {"dim": [{"size": "4"}]}}}}}, {"name": "StatefulPartitionedCall/transpose_64/perm", "op": "Const", "attr": {"dtype": {"type": "DT_INT32"}, "value": {"tensor": {"dtype": "DT_INT32", "tensorShape": {"dim": [{"size": "4"}]}}}}}, {"name": "StatefulPartitionedCall/split_21", "op": "Const", "attr": {"dtype": {"type": "DT_FLOAT"}, "value": {"tensor": {"dtype": "DT_FLOAT", "tensorShape": {"dim": [{"size": "1"}, {"size": "1"}, {"size": "256"}, {"size": "256"}]}}}}}, {"name": "unknown_42", "op": "Const", "attr": {"dtype": {"type": "DT_FLOAT"}, "value": {"tensor": {"dtype": "DT_FLOAT", "tensorShape": {"dim": [{"size": "256"}]}}}}}, {"name": "StatefulPartitionedCall/transpose_65/perm", "op": "Const", "attr": {"value": {"tensor": {"dtype": "DT_INT32", "tensorShape": {"dim": [{"size": "4"}]}}}, "dtype": {"type": "DT_INT32"}}}, {"name": "StatefulPartitionedCall/onnx_tf_prefix_Constant_80", "op": "Const", "attr": {"value": {"tensor": {"dtype": "DT_INT64", "tensorShape": {"dim": [{"size": "2"}]}}}, "dtype": {"type": "DT_INT64"}}}, {"name": "StatefulPartitionedCall/onnx_tf_prefix_/model.8/Split/split_dim", "op": "Const", "attr": {"dtype": {"type": "DT_INT32"}, "value": {"tensor": {"dtype": "DT_INT32", "tensorShape": {}}}}}, {"name": "StatefulPartitionedCall/Const_15", "op": "Const", "attr": {"dtype": {"type": "DT_INT32"}, "value": {"tensor": {"dtype": "DT_INT32", "tensorShape": {"dim": [{"size": "4"}, {"size": "2"}]}}}}}, {"name": "StatefulPartitionedCall/transpose_67/perm", "op": "Const", "attr": {"value": {"tensor": {"dtype": "DT_INT32", "tensorShape": {"dim": [{"size": "4"}]}}}, "dtype": {"type": "DT_INT32"}}}, {"name": "StatefulPartitionedCall/split_22", "op": "Const", "attr": {"value": {"tensor": {"dtype": "DT_FLOAT", "tensorShape": {"dim": [{"size": "3"}, {"size": "3"}, {"size": "128"}, {"size": "128"}]}}}, "dtype": {"type": "DT_FLOAT"}}}, {"name": "unknown_44", "op": "Const", "attr": {"dtype": {"type": "DT_FLOAT"}, "value": {"tensor": {"dtype": "DT_FLOAT", "tensorShape": {"dim": [{"size": "128"}]}}}}}, {"name": "StatefulPartitionedCall/transpose_68/perm", "op": "Const", "attr": {"value": {"tensor": {"dtype": "DT_INT32", "tensorShape": {"dim": [{"size": "4"}]}}}, "dtype": {"type": "DT_INT32"}}}, {"name": "StatefulPartitionedCall/Const_16", "op": "Const", "attr": {"dtype": {"type": "DT_INT32"}, "value": {"tensor": {"dtype": "DT_INT32", "tensorShape": {"dim": [{"size": "4"}, {"size": "2"}]}}}}}, {"name": "StatefulPartitionedCall/transpose_70/perm", "op": "Const", "attr": {"dtype": {"type": "DT_INT32"}, "value": {"tensor": {"dtype": "DT_INT32", "tensorShape": {"dim": [{"size": "4"}]}}}}}, {"name": "StatefulPartitionedCall/split_23", "op": "Const", "attr": {"dtype": {"type": "DT_FLOAT"}, "value": {"tensor": {"dtype": "DT_FLOAT", "tensorShape": {"dim": [{"size": "3"}, {"size": "3"}, {"size": "128"}, {"size": "128"}]}}}}}, {"name": "unknown_46", "op": "Const", "attr": {"dtype": {"type": "DT_FLOAT"}, "value": {"tensor": {"dtype": "DT_FLOAT", "tensorShape": {"dim": [{"size": "128"}]}}}}}, {"name": "StatefulPartitionedCall/transpose_71/perm", "op": "Const", "attr": {"dtype": {"type": "DT_INT32"}, "value": {"tensor": {"dtype": "DT_INT32", "tensorShape": {"dim": [{"size": "4"}]}}}}}, {"name": "StatefulPartitionedCall/onnx_tf_prefix_/model.8/Concat/axis", "op": "Const", "attr": {"dtype": {"type": "DT_INT32"}, "value": {"tensor": {"dtype": "DT_INT32", "tensorShape": {}}}}}, {"name": "StatefulPartitionedCall/transpose_73/perm", "op": "Const", "attr": {"value": {"tensor": {"dtype": "DT_INT32", "tensorShape": {"dim": [{"size": "4"}]}}}, "dtype": {"type": "DT_INT32"}}}, {"name": "StatefulPartitionedCall/split_24", "op": "Const", "attr": {"value": {"tensor": {"dtype": "DT_FLOAT", "tensorShape": {"dim": [{"size": "1"}, {"size": "1"}, {"size": "384"}, {"size": "256"}]}}}, "dtype": {"type": "DT_FLOAT"}}}, {"name": "unknown_48", "op": "Const", "attr": {"value": {"tensor": {"dtype": "DT_FLOAT", "tensorShape": {"dim": [{"size": "256"}]}}}, "dtype": {"type": "DT_FLOAT"}}}, {"name": "StatefulPartitionedCall/transpose_74/perm", "op": "Const", "attr": {"dtype": {"type": "DT_INT32"}, "value": {"tensor": {"dtype": "DT_INT32", "tensorShape": {"dim": [{"size": "4"}]}}}}}, {"name": "StatefulPartitionedCall/transpose_76/perm", "op": "Const", "attr": {"value": {"tensor": {"dtype": "DT_INT32", "tensorShape": {"dim": [{"size": "4"}]}}}, "dtype": {"type": "DT_INT32"}}}, {"name": "StatefulPartitionedCall/split_25", "op": "Const", "attr": {"value": {"tensor": {"dtype": "DT_FLOAT", "tensorShape": {"dim": [{"size": "1"}, {"size": "1"}, {"size": "256"}, {"size": "128"}]}}}, "dtype": {"type": "DT_FLOAT"}}}, {"name": "unknown_50", "op": "Const", "attr": {"dtype": {"type": "DT_FLOAT"}, "value": {"tensor": {"dtype": "DT_FLOAT", "tensorShape": {"dim": [{"size": "128"}]}}}}}, {"name": "StatefulPartitionedCall/transpose_77/perm", "op": "Const", "attr": {"dtype": {"type": "DT_INT32"}, "value": {"tensor": {"dtype": "DT_INT32", "tensorShape": {"dim": [{"size": "4"}]}}}}}, {"name": "StatefulPartitionedCall/transpose_78/perm", "op": "Const", "attr": {"value": {"tensor": {"dtype": "DT_INT32", "tensorShape": {"dim": [{"size": "4"}]}}}, "dtype": {"type": "DT_INT32"}}}, {"name": "StatefulPartitionedCall/transpose_83/perm", "op": "Const", "attr": {"dtype": {"type": "DT_INT32"}, "value": {"tensor": {"dtype": "DT_INT32", "tensorShape": {"dim": [{"size": "4"}]}}}}}, {"name": "StatefulPartitionedCall/onnx_tf_prefix_/model.9/Concat/axis", "op": "Const", "attr": {"dtype": {"type": "DT_INT32"}, "value": {"tensor": {"dtype": "DT_INT32", "tensorShape": {}}}}}, {"name": "StatefulPartitionedCall/transpose_85/perm", "op": "Const", "attr": {"value": {"tensor": {"dtype": "DT_INT32", "tensorShape": {"dim": [{"size": "4"}]}}}, "dtype": {"type": "DT_INT32"}}}, {"name": "StatefulPartitionedCall/split_26", "op": "Const", "attr": {"dtype": {"type": "DT_FLOAT"}, "value": {"tensor": {"dtype": "DT_FLOAT", "tensorShape": {"dim": [{"size": "1"}, {"size": "1"}, {"size": "512"}, {"size": "256"}]}}}}}, {"name": "unknown_52", "op": "Const", "attr": {"value": {"tensor": {"dtype": "DT_FLOAT", "tensorShape": {"dim": [{"size": "256"}]}}}, "dtype": {"type": "DT_FLOAT"}}}, {"name": "StatefulPartitionedCall/transpose_86/perm", "op": "Const", "attr": {"value": {"tensor": {"dtype": "DT_INT32", "tensorShape": {"dim": [{"size": "4"}]}}}, "dtype": {"type": "DT_INT32"}}}, {"name": "StatefulPartitionedCall/transpose_87/perm", "op": "Const", "attr": {"dtype": {"type": "DT_INT32"}, "value": {"tensor": {"dtype": "DT_INT32", "tensorShape": {"dim": [{"size": "4"}]}}}}}, {"name": "StatefulPartitionedCall/Cast_1", "op": "Const", "attr": {"dtype": {"type": "DT_INT32"}, "value": {"tensor": {"dtype": "DT_INT32", "tensorShape": {"dim": [{"size": "2"}]}}}}}, {"name": "StatefulPartitionedCall/transpose_88/perm", "op": "Const", "attr": {"dtype": {"type": "DT_INT32"}, "value": {"tensor": {"dtype": "DT_INT32", "tensorShape": {"dim": [{"size": "4"}]}}}}}, {"name": "StatefulPartitionedCall/Const_9", "op": "Const", "attr": {"value": {"tensor": {"dtype": "DT_INT32", "tensorShape": {"dim": [{"size": "4"}, {"size": "2"}]}}}, "dtype": {"type": "DT_INT32"}}}, {"name": "StatefulPartitionedCall/transpose_40/perm", "op": "Const", "attr": {"dtype": {"type": "DT_INT32"}, "value": {"tensor": {"dtype": "DT_INT32", "tensorShape": {"dim": [{"size": "4"}]}}}}}, {"name": "StatefulPartitionedCall/split_13", "op": "Const", "attr": {"value": {"tensor": {"dtype": "DT_FLOAT", "tensorShape": {"dim": [{"size": "3"}, {"size": "3"}, {"size": "64"}, {"size": "128"}]}}}, "dtype": {"type": "DT_FLOAT"}}}, {"name": "unknown_26", "op": "Const", "attr": {"value": {"tensor": {"dtype": "DT_FLOAT", "tensorShape": {"dim": [{"size": "128"}]}}}, "dtype": {"type": "DT_FLOAT"}}}, {"name": "StatefulPartitionedCall/transpose_41/perm", "op": "Const", "attr": {"dtype": {"type": "DT_INT32"}, "value": {"tensor": {"dtype": "DT_INT32", "tensorShape": {"dim": [{"size": "4"}]}}}}}, {"name": "StatefulPartitionedCall/transpose_43/perm", "op": "Const", "attr": {"value": {"tensor": {"dtype": "DT_INT32", "tensorShape": {"dim": [{"size": "4"}]}}}, "dtype": {"type": "DT_INT32"}}}, {"name": "StatefulPartitionedCall/split_14", "op": "Const", "attr": {"dtype": {"type": "DT_FLOAT"}, "value": {"tensor": {"dtype": "DT_FLOAT", "tensorShape": {"dim": [{"size": "1"}, {"size": "1"}, {"size": "128"}, {"size": "128"}]}}}}}, {"name": "unknown_28", "op": "Const", "attr": {"value": {"tensor": {"dtype": "DT_FLOAT", "tensorShape": {"dim": [{"size": "128"}]}}}, "dtype": {"type": "DT_FLOAT"}}}, {"name": "StatefulPartitionedCall/transpose_44/perm", "op": "Const", "attr": {"dtype": {"type": "DT_INT32"}, "value": {"tensor": {"dtype": "DT_INT32", "tensorShape": {"dim": [{"size": "4"}]}}}}}, {"name": "StatefulPartitionedCall/onnx_tf_prefix_/model.6/Split/split_dim", "op": "Const", "attr": {"value": {"tensor": {"dtype": "DT_INT32", "tensorShape": {}}}, "dtype": {"type": "DT_INT32"}}}, {"name": "StatefulPartitionedCall/Const_10", "op": "Const", "attr": {"value": {"tensor": {"dtype": "DT_INT32", "tensorShape": {"dim": [{"size": "4"}, {"size": "2"}]}}}, "dtype": {"type": "DT_INT32"}}}, {"name": "StatefulPartitionedCall/transpose_46/perm", "op": "Const", "attr": {"value": {"tensor": {"dtype": "DT_INT32", "tensorShape": {"dim": [{"size": "4"}]}}}, "dtype": {"type": "DT_INT32"}}}, {"name": "StatefulPartitionedCall/split_15", "op": "Const", "attr": {"value": {"tensor": {"dtype": "DT_FLOAT", "tensorShape": {"dim": [{"size": "3"}, {"size": "3"}, {"size": "64"}, {"size": "64"}]}}}, "dtype": {"type": "DT_FLOAT"}}}, {"name": "unknown_30", "op": "Const", "attr": {"value": {"tensor": {"dtype": "DT_FLOAT", "tensorShape": {"dim": [{"size": "64"}]}}}, "dtype": {"type": "DT_FLOAT"}}}, {"name": "StatefulPartitionedCall/transpose_47/perm", "op": "Const", "attr": {"dtype": {"type": "DT_INT32"}, "value": {"tensor": {"dtype": "DT_INT32", "tensorShape": {"dim": [{"size": "4"}]}}}}}, {"name": "StatefulPartitionedCall/Const_11", "op": "Const", "attr": {"dtype": {"type": "DT_INT32"}, "value": {"tensor": {"dtype": "DT_INT32", "tensorShape": {"dim": [{"size": "4"}, {"size": "2"}]}}}}}, {"name": "StatefulPartitionedCall/transpose_49/perm", "op": "Const", "attr": {"value": {"tensor": {"dtype": "DT_INT32", "tensorShape": {"dim": [{"size": "4"}]}}}, "dtype": {"type": "DT_INT32"}}}, {"name": "StatefulPartitionedCall/split_16", "op": "Const", "attr": {"dtype": {"type": "DT_FLOAT"}, "value": {"tensor": {"dtype": "DT_FLOAT", "tensorShape": {"dim": [{"size": "3"}, {"size": "3"}, {"size": "64"}, {"size": "64"}]}}}}}, {"name": "unknown_32", "op": "Const", "attr": {"value": {"tensor": {"dtype": "DT_FLOAT", "tensorShape": {"dim": [{"size": "64"}]}}}, "dtype": {"type": "DT_FLOAT"}}}, {"name": "StatefulPartitionedCall/transpose_50/perm", "op": "Const", "attr": {"value": {"tensor": {"dtype": "DT_INT32", "tensorShape": {"dim": [{"size": "4"}]}}}, "dtype": {"type": "DT_INT32"}}}, {"name": "StatefulPartitionedCall/Const_12", "op": "Const", "attr": {"dtype": {"type": "DT_INT32"}, "value": {"tensor": {"dtype": "DT_INT32", "tensorShape": {"dim": [{"size": "4"}, {"size": "2"}]}}}}}, {"name": "StatefulPartitionedCall/transpose_52/perm", "op": "Const", "attr": {"dtype": {"type": "DT_INT32"}, "value": {"tensor": {"dtype": "DT_INT32", "tensorShape": {"dim": [{"size": "4"}]}}}}}, {"name": "StatefulPartitionedCall/split_17", "op": "Const", "attr": {"dtype": {"type": "DT_FLOAT"}, "value": {"tensor": {"dtype": "DT_FLOAT", "tensorShape": {"dim": [{"size": "3"}, {"size": "3"}, {"size": "64"}, {"size": "64"}]}}}}}, {"name": "unknown_34", "op": "Const", "attr": {"dtype": {"type": "DT_FLOAT"}, "value": {"tensor": {"dtype": "DT_FLOAT", "tensorShape": {"dim": [{"size": "64"}]}}}}}, {"name": "StatefulPartitionedCall/transpose_53/perm", "op": "Const", "attr": {"dtype": {"type": "DT_INT32"}, "value": {"tensor": {"dtype": "DT_INT32", "tensorShape": {"dim": [{"size": "4"}]}}}}}, {"name": "StatefulPartitionedCall/Const_13", "op": "Const", "attr": {"dtype": {"type": "DT_INT32"}, "value": {"tensor": {"dtype": "DT_INT32", "tensorShape": {"dim": [{"size": "4"}, {"size": "2"}]}}}}}, {"name": "StatefulPartitionedCall/transpose_55/perm", "op": "Const", "attr": {"dtype": {"type": "DT_INT32"}, "value": {"tensor": {"dtype": "DT_INT32", "tensorShape": {"dim": [{"size": "4"}]}}}}}, {"name": "StatefulPartitionedCall/split_18", "op": "Const", "attr": {"dtype": {"type": "DT_FLOAT"}, "value": {"tensor": {"dtype": "DT_FLOAT", "tensorShape": {"dim": [{"size": "3"}, {"size": "3"}, {"size": "64"}, {"size": "64"}]}}}}}, {"name": "unknown_36", "op": "Const", "attr": {"value": {"tensor": {"dtype": "DT_FLOAT", "tensorShape": {"dim": [{"size": "64"}]}}}, "dtype": {"type": "DT_FLOAT"}}}, {"name": "StatefulPartitionedCall/transpose_56/perm", "op": "Const", "attr": {"value": {"tensor": {"dtype": "DT_INT32", "tensorShape": {"dim": [{"size": "4"}]}}}, "dtype": {"type": "DT_INT32"}}}, {"name": "StatefulPartitionedCall/onnx_tf_prefix_/model.6/Concat/axis", "op": "Const", "attr": {"dtype": {"type": "DT_INT32"}, "value": {"tensor": {"dtype": "DT_INT32", "tensorShape": {}}}}}, {"name": "StatefulPartitionedCall/transpose_58/perm", "op": "Const", "attr": {"value": {"tensor": {"dtype": "DT_INT32", "tensorShape": {"dim": [{"size": "4"}]}}}, "dtype": {"type": "DT_INT32"}}}, {"name": "StatefulPartitionedCall/split_19", "op": "Const", "attr": {"value": {"tensor": {"dtype": "DT_FLOAT", "tensorShape": {"dim": [{"size": "1"}, {"size": "1"}, {"size": "256"}, {"size": "128"}]}}}, "dtype": {"type": "DT_FLOAT"}}}, {"name": "unknown_38", "op": "Const", "attr": {"dtype": {"type": "DT_FLOAT"}, "value": {"tensor": {"dtype": "DT_FLOAT", "tensorShape": {"dim": [{"size": "128"}]}}}}}, {"name": "StatefulPartitionedCall/transpose_59/perm", "op": "Const", "attr": {"value": {"tensor": {"dtype": "DT_INT32", "tensorShape": {"dim": [{"size": "4"}]}}}, "dtype": {"type": "DT_INT32"}}}, {"name": "StatefulPartitionedCall/onnx_tf_prefix_/model.11/Concat/axis", "op": "Const", "attr": {"value": {"tensor": {"dtype": "DT_INT32", "tensorShape": {}}}, "dtype": {"type": "DT_INT32"}}}, {"name": "StatefulPartitionedCall/transpose_90/perm", "op": "Const", "attr": {"dtype": {"type": "DT_INT32"}, "value": {"tensor": {"dtype": "DT_INT32", "tensorShape": {"dim": [{"size": "4"}]}}}}}, {"name": "StatefulPartitionedCall/split_27", "op": "Const", "attr": {"dtype": {"type": "DT_FLOAT"}, "value": {"tensor": {"dtype": "DT_FLOAT", "tensorShape": {"dim": [{"size": "1"}, {"size": "1"}, {"size": "384"}, {"size": "128"}]}}}}}, {"name": "unknown_54", "op": "Const", "attr": {"dtype": {"type": "DT_FLOAT"}, "value": {"tensor": {"dtype": "DT_FLOAT", "tensorShape": {"dim": [{"size": "128"}]}}}}}, {"name": "StatefulPartitionedCall/transpose_91/perm", "op": "Const", "attr": {"dtype": {"type": "DT_INT32"}, "value": {"tensor": {"dtype": "DT_INT32", "tensorShape": {"dim": [{"size": "4"}]}}}}}, {"name": "StatefulPartitionedCall/onnx_tf_prefix_Constant_54", "op": "Const", "attr": {"dtype": {"type": "DT_INT64"}, "value": {"tensor": {"dtype": "DT_INT64", "tensorShape": {"dim": [{"size": "2"}]}}}}}, {"name": "StatefulPartitionedCall/onnx_tf_prefix_/model.12/Split/split_dim", "op": "Const", "attr": {"value": {"tensor": {"dtype": "DT_INT32", "tensorShape": {}}}, "dtype": {"type": "DT_INT32"}}}, {"name": "StatefulPartitionedCall/Const_18", "op": "Const", "attr": {"value": {"tensor": {"dtype": "DT_INT32", "tensorShape": {"dim": [{"size": "4"}, {"size": "2"}]}}}, "dtype": {"type": "DT_INT32"}}}, {"name": "StatefulPartitionedCall/transpose_93/perm", "op": "Const", "attr": {"dtype": {"type": "DT_INT32"}, "value": {"tensor": {"dtype": "DT_INT32", "tensorShape": {"dim": [{"size": "4"}]}}}}}, {"name": "StatefulPartitionedCall/split_28", "op": "Const", "attr": {"value": {"tensor": {"dtype": "DT_FLOAT", "tensorShape": {"dim": [{"size": "3"}, {"size": "3"}, {"size": "64"}, {"size": "64"}]}}}, "dtype": {"type": "DT_FLOAT"}}}, {"name": "unknown_56", "op": "Const", "attr": {"value": {"tensor": {"dtype": "DT_FLOAT", "tensorShape": {"dim": [{"size": "64"}]}}}, "dtype": {"type": "DT_FLOAT"}}}, {"name": "StatefulPartitionedCall/transpose_94/perm", "op": "Const", "attr": {"value": {"tensor": {"dtype": "DT_INT32", "tensorShape": {"dim": [{"size": "4"}]}}}, "dtype": {"type": "DT_INT32"}}}, {"name": "StatefulPartitionedCall/Const_19", "op": "Const", "attr": {"value": {"tensor": {"dtype": "DT_INT32", "tensorShape": {"dim": [{"size": "4"}, {"size": "2"}]}}}, "dtype": {"type": "DT_INT32"}}}, {"name": "StatefulPartitionedCall/transpose_96/perm", "op": "Const", "attr": {"value": {"tensor": {"dtype": "DT_INT32", "tensorShape": {"dim": [{"size": "4"}]}}}, "dtype": {"type": "DT_INT32"}}}, {"name": "StatefulPartitionedCall/split_29", "op": "Const", "attr": {"value": {"tensor": {"dtype": "DT_FLOAT", "tensorShape": {"dim": [{"size": "3"}, {"size": "3"}, {"size": "64"}, {"size": "64"}]}}}, "dtype": {"type": "DT_FLOAT"}}}, {"name": "unknown_58", "op": "Const", "attr": {"dtype": {"type": "DT_FLOAT"}, "value": {"tensor": {"dtype": "DT_FLOAT", "tensorShape": {"dim": [{"size": "64"}]}}}}}, {"name": "StatefulPartitionedCall/transpose_97/perm", "op": "Const", "attr": {"dtype": {"type": "DT_INT32"}, "value": {"tensor": {"dtype": "DT_INT32", "tensorShape": {"dim": [{"size": "4"}]}}}}}, {"name": "StatefulPartitionedCall/onnx_tf_prefix_/model.12/Concat/axis", "op": "Const", "attr": {"dtype": {"type": "DT_INT32"}, "value": {"tensor": {"dtype": "DT_INT32", "tensorShape": {}}}}}, {"name": "StatefulPartitionedCall/transpose_99/perm", "op": "Const", "attr": {"dtype": {"type": "DT_INT32"}, "value": {"tensor": {"dtype": "DT_INT32", "tensorShape": {"dim": [{"size": "4"}]}}}}}, {"name": "StatefulPartitionedCall/split_30", "op": "Const", "attr": {"value": {"tensor": {"dtype": "DT_FLOAT", "tensorShape": {"dim": [{"size": "1"}, {"size": "1"}, {"size": "192"}, {"size": "128"}]}}}, "dtype": {"type": "DT_FLOAT"}}}, {"name": "unknown_60", "op": "Const", "attr": {"value": {"tensor": {"dtype": "DT_FLOAT", "tensorShape": {"dim": [{"size": "128"}]}}}, "dtype": {"type": "DT_FLOAT"}}}, {"name": "StatefulPartitionedCall/transpose_100/perm", "op": "Const", "attr": {"dtype": {"type": "DT_INT32"}, "value": {"tensor": {"dtype": "DT_INT32", "tensorShape": {"dim": [{"size": "4"}]}}}}}, {"name": "StatefulPartitionedCall/transpose_101/perm", "op": "Const", "attr": {"value": {"tensor": {"dtype": "DT_INT32", "tensorShape": {"dim": [{"size": "4"}]}}}, "dtype": {"type": "DT_INT32"}}}, {"name": "StatefulPartitionedCall/Cast_3", "op": "Const", "attr": {"dtype": {"type": "DT_INT32"}, "value": {"tensor": {"dtype": "DT_INT32", "tensorShape": {"dim": [{"size": "2"}]}}}}}, {"name": "StatefulPartitionedCall/transpose_102/perm", "op": "Const", "attr": {"value": {"tensor": {"dtype": "DT_INT32", "tensorShape": {"dim": [{"size": "4"}]}}}, "dtype": {"type": "DT_INT32"}}}, {"name": "StatefulPartitionedCall/Const", "op": "Const", "attr": {"dtype": {"type": "DT_INT32"}, "value": {"tensor": {"dtype": "DT_INT32", "tensorShape": {"dim": [{"size": "4"}, {"size": "2"}]}}}}}, {"name": "StatefulPartitionedCall/transpose_1/perm", "op": "Const", "attr": {"value": {"tensor": {"dtype": "DT_INT32", "tensorShape": {"dim": [{"size": "4"}]}}}, "dtype": {"type": "DT_INT32"}}}, {"name": "StatefulPartitionedCall/split", "op": "Const", "attr": {"dtype": {"type": "DT_FLOAT"}, "value": {"tensor": {"dtype": "DT_FLOAT", "tensorShape": {"dim": [{"size": "3"}, {"size": "3"}, {"size": "3"}, {"size": "16"}]}}}}}, {"name": "unknown_0", "op": "Const", "attr": {"dtype": {"type": "DT_FLOAT"}, "value": {"tensor": {"dtype": "DT_FLOAT", "tensorShape": {"dim": [{"size": "16"}]}}}}}, {"name": "StatefulPartitionedCall/transpose_2/perm", "op": "Const", "attr": {"dtype": {"type": "DT_INT32"}, "value": {"tensor": {"dtype": "DT_INT32", "tensorShape": {"dim": [{"size": "4"}]}}}}}, {"name": "StatefulPartitionedCall/Const_1", "op": "Const", "attr": {"value": {"tensor": {"dtype": "DT_INT32", "tensorShape": {"dim": [{"size": "4"}, {"size": "2"}]}}}, "dtype": {"type": "DT_INT32"}}}, {"name": "StatefulPartitionedCall/transpose_4/perm", "op": "Const", "attr": {"dtype": {"type": "DT_INT32"}, "value": {"tensor": {"dtype": "DT_INT32", "tensorShape": {"dim": [{"size": "4"}]}}}}}, {"name": "StatefulPartitionedCall/split_1", "op": "Const", "attr": {"value": {"tensor": {"dtype": "DT_FLOAT", "tensorShape": {"dim": [{"size": "3"}, {"size": "3"}, {"size": "16"}, {"size": "32"}]}}}, "dtype": {"type": "DT_FLOAT"}}}, {"name": "unknown_2", "op": "Const", "attr": {"dtype": {"type": "DT_FLOAT"}, "value": {"tensor": {"dtype": "DT_FLOAT", "tensorShape": {"dim": [{"size": "32"}]}}}}}, {"name": "StatefulPartitionedCall/transpose_5/perm", "op": "Const", "attr": {"value": {"tensor": {"dtype": "DT_INT32", "tensorShape": {"dim": [{"size": "4"}]}}}, "dtype": {"type": "DT_INT32"}}}, {"name": "StatefulPartitionedCall/transpose_7/perm", "op": "Const", "attr": {"dtype": {"type": "DT_INT32"}, "value": {"tensor": {"dtype": "DT_INT32", "tensorShape": {"dim": [{"size": "4"}]}}}}}, {"name": "StatefulPartitionedCall/split_2", "op": "Const", "attr": {"dtype": {"type": "DT_FLOAT"}, "value": {"tensor": {"dtype": "DT_FLOAT", "tensorShape": {"dim": [{"size": "1"}, {"size": "1"}, {"size": "32"}, {"size": "32"}]}}}}}, {"name": "unknown_4", "op": "Const", "attr": {"value": {"tensor": {"dtype": "DT_FLOAT", "tensorShape": {"dim": [{"size": "32"}]}}}, "dtype": {"type": "DT_FLOAT"}}}, {"name": "StatefulPartitionedCall/transpose_8/perm", "op": "Const", "attr": {"value": {"tensor": {"dtype": "DT_INT32", "tensorShape": {"dim": [{"size": "4"}]}}}, "dtype": {"type": "DT_INT32"}}}, {"name": "StatefulPartitionedCall/onnx_tf_prefix_Constant_9", "op": "Const", "attr": {"dtype": {"type": "DT_INT64"}, "value": {"tensor": {"dtype": "DT_INT64", "tensorShape": {"dim": [{"size": "2"}]}}}}}, {"name": "StatefulPartitionedCall/onnx_tf_prefix_/model.2/Split/split_dim", "op": "Const", "attr": {"value": {"tensor": {"dtype": "DT_INT32", "tensorShape": {}}}, "dtype": {"type": "DT_INT32"}}}, {"name": "StatefulPartitionedCall/Const_2", "op": "Const", "attr": {"value": {"tensor": {"dtype": "DT_INT32", "tensorShape": {"dim": [{"size": "4"}, {"size": "2"}]}}}, "dtype": {"type": "DT_INT32"}}}, {"name": "StatefulPartitionedCall/transpose_10/perm", "op": "Const", "attr": {"value": {"tensor": {"dtype": "DT_INT32", "tensorShape": {"dim": [{"size": "4"}]}}}, "dtype": {"type": "DT_INT32"}}}, {"name": "StatefulPartitionedCall/split_3", "op": "Const", "attr": {"value": {"tensor": {"dtype": "DT_FLOAT", "tensorShape": {"dim": [{"size": "3"}, {"size": "3"}, {"size": "16"}, {"size": "16"}]}}}, "dtype": {"type": "DT_FLOAT"}}}, {"name": "unknown_6", "op": "Const", "attr": {"dtype": {"type": "DT_FLOAT"}, "value": {"tensor": {"dtype": "DT_FLOAT", "tensorShape": {"dim": [{"size": "16"}]}}}}}, {"name": "StatefulPartitionedCall/transpose_11/perm", "op": "Const", "attr": {"dtype": {"type": "DT_INT32"}, "value": {"tensor": {"dtype": "DT_INT32", "tensorShape": {"dim": [{"size": "4"}]}}}}}, {"name": "StatefulPartitionedCall/Const_3", "op": "Const", "attr": {"dtype": {"type": "DT_INT32"}, "value": {"tensor": {"dtype": "DT_INT32", "tensorShape": {"dim": [{"size": "4"}, {"size": "2"}]}}}}}, {"name": "StatefulPartitionedCall/transpose_13/perm", "op": "Const", "attr": {"dtype": {"type": "DT_INT32"}, "value": {"tensor": {"dtype": "DT_INT32", "tensorShape": {"dim": [{"size": "4"}]}}}}}, {"name": "StatefulPartitionedCall/split_4", "op": "Const", "attr": {"dtype": {"type": "DT_FLOAT"}, "value": {"tensor": {"dtype": "DT_FLOAT", "tensorShape": {"dim": [{"size": "3"}, {"size": "3"}, {"size": "16"}, {"size": "16"}]}}}}}, {"name": "unknown_8", "op": "Const", "attr": {"dtype": {"type": "DT_FLOAT"}, "value": {"tensor": {"dtype": "DT_FLOAT", "tensorShape": {"dim": [{"size": "16"}]}}}}}, {"name": "StatefulPartitionedCall/transpose_14/perm", "op": "Const", "attr": {"value": {"tensor": {"dtype": "DT_INT32", "tensorShape": {"dim": [{"size": "4"}]}}}, "dtype": {"type": "DT_INT32"}}}, {"name": "StatefulPartitionedCall/onnx_tf_prefix_/model.2/Concat/axis", "op": "Const", "attr": {"dtype": {"type": "DT_INT32"}, "value": {"tensor": {"dtype": "DT_INT32", "tensorShape": {}}}}}, {"name": "StatefulPartitionedCall/transpose_16/perm", "op": "Const", "attr": {"dtype": {"type": "DT_INT32"}, "value": {"tensor": {"dtype": "DT_INT32", "tensorShape": {"dim": [{"size": "4"}]}}}}}, {"name": "StatefulPartitionedCall/split_5", "op": "Const", "attr": {"value": {"tensor": {"dtype": "DT_FLOAT", "tensorShape": {"dim": [{"size": "1"}, {"size": "1"}, {"size": "48"}, {"size": "32"}]}}}, "dtype": {"type": "DT_FLOAT"}}}, {"name": "unknown_10", "op": "Const", "attr": {"dtype": {"type": "DT_FLOAT"}, "value": {"tensor": {"dtype": "DT_FLOAT", "tensorShape": {"dim": [{"size": "32"}]}}}}}, {"name": "StatefulPartitionedCall/transpose_17/perm", "op": "Const", "attr": {"value": {"tensor": {"dtype": "DT_INT32", "tensorShape": {"dim": [{"size": "4"}]}}}, "dtype": {"type": "DT_INT32"}}}, {"name": "StatefulPartitionedCall/Const_4", "op": "Const", "attr": {"value": {"tensor": {"dtype": "DT_INT32", "tensorShape": {"dim": [{"size": "4"}, {"size": "2"}]}}}, "dtype": {"type": "DT_INT32"}}}, {"name": "StatefulPartitionedCall/transpose_19/perm", "op": "Const", "attr": {"dtype": {"type": "DT_INT32"}, "value": {"tensor": {"dtype": "DT_INT32", "tensorShape": {"dim": [{"size": "4"}]}}}}}, {"name": "StatefulPartitionedCall/split_6", "op": "Const", "attr": {"value": {"tensor": {"dtype": "DT_FLOAT", "tensorShape": {"dim": [{"size": "3"}, {"size": "3"}, {"size": "32"}, {"size": "64"}]}}}, "dtype": {"type": "DT_FLOAT"}}}, {"name": "unknown_12", "op": "Const", "attr": {"dtype": {"type": "DT_FLOAT"}, "value": {"tensor": {"dtype": "DT_FLOAT", "tensorShape": {"dim": [{"size": "64"}]}}}}}, {"name": "StatefulPartitionedCall/transpose_20/perm", "op": "Const", "attr": {"dtype": {"type": "DT_INT32"}, "value": {"tensor": {"dtype": "DT_INT32", "tensorShape": {"dim": [{"size": "4"}]}}}}}, {"name": "StatefulPartitionedCall/transpose_22/perm", "op": "Const", "attr": {"dtype": {"type": "DT_INT32"}, "value": {"tensor": {"dtype": "DT_INT32", "tensorShape": {"dim": [{"size": "4"}]}}}}}, {"name": "StatefulPartitionedCall/split_7", "op": "Const", "attr": {"dtype": {"type": "DT_FLOAT"}, "value": {"tensor": {"dtype": "DT_FLOAT", "tensorShape": {"dim": [{"size": "1"}, {"size": "1"}, {"size": "64"}, {"size": "64"}]}}}}}, {"name": "unknown_14", "op": "Const", "attr": {"value": {"tensor": {"dtype": "DT_FLOAT", "tensorShape": {"dim": [{"size": "64"}]}}}, "dtype": {"type": "DT_FLOAT"}}}, {"name": "StatefulPartitionedCall/transpose_23/perm", "op": "Const", "attr": {"value": {"tensor": {"dtype": "DT_INT32", "tensorShape": {"dim": [{"size": "4"}]}}}, "dtype": {"type": "DT_INT32"}}}, {"name": "StatefulPartitionedCall/onnx_tf_prefix_/model.4/Split/split_dim", "op": "Const", "attr": {"dtype": {"type": "DT_INT32"}, "value": {"tensor": {"dtype": "DT_INT32", "tensorShape": {}}}}}, {"name": "StatefulPartitionedCall/Const_5", "op": "Const", "attr": {"value": {"tensor": {"dtype": "DT_INT32", "tensorShape": {"dim": [{"size": "4"}, {"size": "2"}]}}}, "dtype": {"type": "DT_INT32"}}}, {"name": "StatefulPartitionedCall/transpose_25/perm", "op": "Const", "attr": {"dtype": {"type": "DT_INT32"}, "value": {"tensor": {"dtype": "DT_INT32", "tensorShape": {"dim": [{"size": "4"}]}}}}}, {"name": "StatefulPartitionedCall/split_8", "op": "Const", "attr": {"dtype": {"type": "DT_FLOAT"}, "value": {"tensor": {"dtype": "DT_FLOAT", "tensorShape": {"dim": [{"size": "3"}, {"size": "3"}, {"size": "32"}, {"size": "32"}]}}}}}, {"name": "unknown_16", "op": "Const", "attr": {"value": {"tensor": {"dtype": "DT_FLOAT", "tensorShape": {"dim": [{"size": "32"}]}}}, "dtype": {"type": "DT_FLOAT"}}}, {"name": "StatefulPartitionedCall/transpose_26/perm", "op": "Const", "attr": {"dtype": {"type": "DT_INT32"}, "value": {"tensor": {"dtype": "DT_INT32", "tensorShape": {"dim": [{"size": "4"}]}}}}}, {"name": "StatefulPartitionedCall/Const_6", "op": "Const", "attr": {"dtype": {"type": "DT_INT32"}, "value": {"tensor": {"dtype": "DT_INT32", "tensorShape": {"dim": [{"size": "4"}, {"size": "2"}]}}}}}, {"name": "StatefulPartitionedCall/transpose_28/perm", "op": "Const", "attr": {"dtype": {"type": "DT_INT32"}, "value": {"tensor": {"dtype": "DT_INT32", "tensorShape": {"dim": [{"size": "4"}]}}}}}, {"name": "StatefulPartitionedCall/split_9", "op": "Const", "attr": {"dtype": {"type": "DT_FLOAT"}, "value": {"tensor": {"dtype": "DT_FLOAT", "tensorShape": {"dim": [{"size": "3"}, {"size": "3"}, {"size": "32"}, {"size": "32"}]}}}}}, {"name": "unknown_18", "op": "Const", "attr": {"dtype": {"type": "DT_FLOAT"}, "value": {"tensor": {"dtype": "DT_FLOAT", "tensorShape": {"dim": [{"size": "32"}]}}}}}, {"name": "StatefulPartitionedCall/transpose_29/perm", "op": "Const", "attr": {"value": {"tensor": {"dtype": "DT_INT32", "tensorShape": {"dim": [{"size": "4"}]}}}, "dtype": {"type": "DT_INT32"}}}, {"name": "StatefulPartitionedCall/Const_7", "op": "Const", "attr": {"dtype": {"type": "DT_INT32"}, "value": {"tensor": {"dtype": "DT_INT32", "tensorShape": {"dim": [{"size": "4"}, {"size": "2"}]}}}}}, {"name": "StatefulPartitionedCall/transpose_31/perm", "op": "Const", "attr": {"dtype": {"type": "DT_INT32"}, "value": {"tensor": {"dtype": "DT_INT32", "tensorShape": {"dim": [{"size": "4"}]}}}}}, {"name": "StatefulPartitionedCall/split_10", "op": "Const", "attr": {"value": {"tensor": {"dtype": "DT_FLOAT", "tensorShape": {"dim": [{"size": "3"}, {"size": "3"}, {"size": "32"}, {"size": "32"}]}}}, "dtype": {"type": "DT_FLOAT"}}}, {"name": "unknown_20", "op": "Const", "attr": {"dtype": {"type": "DT_FLOAT"}, "value": {"tensor": {"dtype": "DT_FLOAT", "tensorShape": {"dim": [{"size": "32"}]}}}}}, {"name": "StatefulPartitionedCall/transpose_32/perm", "op": "Const", "attr": {"dtype": {"type": "DT_INT32"}, "value": {"tensor": {"dtype": "DT_INT32", "tensorShape": {"dim": [{"size": "4"}]}}}}}, {"name": "StatefulPartitionedCall/Const_8", "op": "Const", "attr": {"dtype": {"type": "DT_INT32"}, "value": {"tensor": {"dtype": "DT_INT32", "tensorShape": {"dim": [{"size": "4"}, {"size": "2"}]}}}}}, {"name": "StatefulPartitionedCall/transpose_34/perm", "op": "Const", "attr": {"value": {"tensor": {"dtype": "DT_INT32", "tensorShape": {"dim": [{"size": "4"}]}}}, "dtype": {"type": "DT_INT32"}}}, {"name": "StatefulPartitionedCall/split_11", "op": "Const", "attr": {"dtype": {"type": "DT_FLOAT"}, "value": {"tensor": {"dtype": "DT_FLOAT", "tensorShape": {"dim": [{"size": "3"}, {"size": "3"}, {"size": "32"}, {"size": "32"}]}}}}}, {"name": "unknown_22", "op": "Const", "attr": {"value": {"tensor": {"dtype": "DT_FLOAT", "tensorShape": {"dim": [{"size": "32"}]}}}, "dtype": {"type": "DT_FLOAT"}}}, {"name": "StatefulPartitionedCall/transpose_35/perm", "op": "Const", "attr": {"value": {"tensor": {"dtype": "DT_INT32", "tensorShape": {"dim": [{"size": "4"}]}}}, "dtype": {"type": "DT_INT32"}}}, {"name": "StatefulPartitionedCall/onnx_tf_prefix_/model.4/Concat/axis", "op": "Const", "attr": {"value": {"tensor": {"dtype": "DT_INT32", "tensorShape": {}}}, "dtype": {"type": "DT_INT32"}}}, {"name": "StatefulPartitionedCall/transpose_37/perm", "op": "Const", "attr": {"value": {"tensor": {"dtype": "DT_INT32", "tensorShape": {"dim": [{"size": "4"}]}}}, "dtype": {"type": "DT_INT32"}}}, {"name": "StatefulPartitionedCall/split_12", "op": "Const", "attr": {"dtype": {"type": "DT_FLOAT"}, "value": {"tensor": {"dtype": "DT_FLOAT", "tensorShape": {"dim": [{"size": "1"}, {"size": "1"}, {"size": "128"}, {"size": "64"}]}}}}}, {"name": "unknown_24", "op": "Const", "attr": {"value": {"tensor": {"dtype": "DT_FLOAT", "tensorShape": {"dim": [{"size": "64"}]}}}, "dtype": {"type": "DT_FLOAT"}}}, {"name": "StatefulPartitionedCall/transpose_38/perm", "op": "Const", "attr": {"value": {"tensor": {"dtype": "DT_INT32", "tensorShape": {"dim": [{"size": "4"}]}}}, "dtype": {"type": "DT_INT32"}}}, {"name": "StatefulPartitionedCall/onnx_tf_prefix_/model.14/Concat/axis", "op": "Const", "attr": {"value": {"tensor": {"dtype": "DT_INT32", "tensorShape": {}}}, "dtype": {"type": "DT_INT32"}}}, {"name": "StatefulPartitionedCall/transpose_104/perm", "op": "Const", "attr": {"value": {"tensor": {"dtype": "DT_INT32", "tensorShape": {"dim": [{"size": "4"}]}}}, "dtype": {"type": "DT_INT32"}}}, {"name": "StatefulPartitionedCall/split_31", "op": "Const", "attr": {"dtype": {"type": "DT_FLOAT"}, "value": {"tensor": {"dtype": "DT_FLOAT", "tensorShape": {"dim": [{"size": "1"}, {"size": "1"}, {"size": "192"}, {"size": "64"}]}}}}}, {"name": "unknown_62", "op": "Const", "attr": {"dtype": {"type": "DT_FLOAT"}, "value": {"tensor": {"dtype": "DT_FLOAT", "tensorShape": {"dim": [{"size": "64"}]}}}}}, {"name": "StatefulPartitionedCall/transpose_105/perm", "op": "Const", "attr": {"value": {"tensor": {"dtype": "DT_INT32", "tensorShape": {"dim": [{"size": "4"}]}}}, "dtype": {"type": "DT_INT32"}}}, {"name": "StatefulPartitionedCall/onnx_tf_prefix_Constant_28", "op": "Const", "attr": {"dtype": {"type": "DT_INT64"}, "value": {"tensor": {"dtype": "DT_INT64", "tensorShape": {"dim": [{"size": "2"}]}}}}}, {"name": "StatefulPartitionedCall/onnx_tf_prefix_/model.15/Split/split_dim", "op": "Const", "attr": {"value": {"tensor": {"dtype": "DT_INT32", "tensorShape": {}}}, "dtype": {"type": "DT_INT32"}}}, {"name": "StatefulPartitionedCall/Const_21", "op": "Const", "attr": {"dtype": {"type": "DT_INT32"}, "value": {"tensor": {"dtype": "DT_INT32", "tensorShape": {"dim": [{"size": "4"}, {"size": "2"}]}}}}}, {"name": "StatefulPartitionedCall/transpose_107/perm", "op": "Const", "attr": {"value": {"tensor": {"dtype": "DT_INT32", "tensorShape": {"dim": [{"size": "4"}]}}}, "dtype": {"type": "DT_INT32"}}}, {"name": "StatefulPartitionedCall/split_32", "op": "Const", "attr": {"value": {"tensor": {"dtype": "DT_FLOAT", "tensorShape": {"dim": [{"size": "3"}, {"size": "3"}, {"size": "32"}, {"size": "32"}]}}}, "dtype": {"type": "DT_FLOAT"}}}, {"name": "unknown_64", "op": "Const", "attr": {"value": {"tensor": {"dtype": "DT_FLOAT", "tensorShape": {"dim": [{"size": "32"}]}}}, "dtype": {"type": "DT_FLOAT"}}}, {"name": "StatefulPartitionedCall/transpose_108/perm", "op": "Const", "attr": {"value": {"tensor": {"dtype": "DT_INT32", "tensorShape": {"dim": [{"size": "4"}]}}}, "dtype": {"type": "DT_INT32"}}}, {"name": "StatefulPartitionedCall/Const_22", "op": "Const", "attr": {"value": {"tensor": {"dtype": "DT_INT32", "tensorShape": {"dim": [{"size": "4"}, {"size": "2"}]}}}, "dtype": {"type": "DT_INT32"}}}, {"name": "StatefulPartitionedCall/transpose_110/perm", "op": "Const", "attr": {"dtype": {"type": "DT_INT32"}, "value": {"tensor": {"dtype": "DT_INT32", "tensorShape": {"dim": [{"size": "4"}]}}}}}, {"name": "StatefulPartitionedCall/split_33", "op": "Const", "attr": {"dtype": {"type": "DT_FLOAT"}, "value": {"tensor": {"dtype": "DT_FLOAT", "tensorShape": {"dim": [{"size": "3"}, {"size": "3"}, {"size": "32"}, {"size": "32"}]}}}}}, {"name": "unknown_66", "op": "Const", "attr": {"dtype": {"type": "DT_FLOAT"}, "value": {"tensor": {"dtype": "DT_FLOAT", "tensorShape": {"dim": [{"size": "32"}]}}}}}, {"name": "StatefulPartitionedCall/transpose_111/perm", "op": "Const", "attr": {"value": {"tensor": {"dtype": "DT_INT32", "tensorShape": {"dim": [{"size": "4"}]}}}, "dtype": {"type": "DT_INT32"}}}, {"name": "StatefulPartitionedCall/onnx_tf_prefix_/model.15/Concat/axis", "op": "Const", "attr": {"value": {"tensor": {"dtype": "DT_INT32", "tensorShape": {}}}, "dtype": {"type": "DT_INT32"}}}, {"name": "StatefulPartitionedCall/transpose_113/perm", "op": "Const", "attr": {"dtype": {"type": "DT_INT32"}, "value": {"tensor": {"dtype": "DT_INT32", "tensorShape": {"dim": [{"size": "4"}]}}}}}, {"name": "StatefulPartitionedCall/split_34", "op": "Const", "attr": {"dtype": {"type": "DT_FLOAT"}, "value": {"tensor": {"dtype": "DT_FLOAT", "tensorShape": {"dim": [{"size": "1"}, {"size": "1"}, {"size": "96"}, {"size": "64"}]}}}}}, {"name": "unknown_68", "op": "Const", "attr": {"value": {"tensor": {"dtype": "DT_FLOAT", "tensorShape": {"dim": [{"size": "64"}]}}}, "dtype": {"type": "DT_FLOAT"}}}, {"name": "StatefulPartitionedCall/transpose_114/perm", "op": "Const", "attr": {"value": {"tensor": {"dtype": "DT_INT32", "tensorShape": {"dim": [{"size": "4"}]}}}, "dtype": {"type": "DT_INT32"}}}, {"name": "StatefulPartitionedCall/Const_29", "op": "Const", "attr": {"dtype": {"type": "DT_INT32"}, "value": {"tensor": {"dtype": "DT_INT32", "tensorShape": {"dim": [{"size": "4"}, {"size": "2"}]}}}}}, {"name": "StatefulPartitionedCall/transpose_146/perm", "op": "Const", "attr": {"value": {"tensor": {"dtype": "DT_INT32", "tensorShape": {"dim": [{"size": "4"}]}}}, "dtype": {"type": "DT_INT32"}}}, {"name": "StatefulPartitionedCall/split_45", "op": "Const", "attr": {"value": {"tensor": {"dtype": "DT_FLOAT", "tensorShape": {"dim": [{"size": "3"}, {"size": "3"}, {"size": "64"}, {"size": "64"}]}}}, "dtype": {"type": "DT_FLOAT"}}}, {"name": "unknown_90", "op": "Const", "attr": {"value": {"tensor": {"dtype": "DT_FLOAT", "tensorShape": {"dim": [{"size": "64"}]}}}, "dtype": {"type": "DT_FLOAT"}}}, {"name": "StatefulPartitionedCall/transpose_147/perm", "op": "Const", "attr": {"dtype": {"type": "DT_INT32"}, "value": {"tensor": {"dtype": "DT_INT32", "tensorShape": {"dim": [{"size": "4"}]}}}}}, {"name": "StatefulPartitionedCall/transpose_149/perm", "op": "Const", "attr": {"value": {"tensor": {"dtype": "DT_INT32", "tensorShape": {"dim": [{"size": "4"}]}}}, "dtype": {"type": "DT_INT32"}}}, {"name": "unknown_92", "op": "Const", "attr": {"value": {"tensor": {"dtype": "DT_FLOAT", "tensorShape": {"dim": [{"size": "64"}]}}}, "dtype": {"type": "DT_FLOAT"}}}, {"name": "StatefulPartitionedCall/transpose_150/perm", "op": "Const", "attr": {"value": {"tensor": {"dtype": "DT_INT32", "tensorShape": {"dim": [{"size": "4"}]}}}, "dtype": {"type": "DT_INT32"}}}, {"name": "StatefulPartitionedCall/Const_30", "op": "Const", "attr": {"dtype": {"type": "DT_INT32"}, "value": {"tensor": {"dtype": "DT_INT32", "tensorShape": {"dim": [{"size": "4"}, {"size": "2"}]}}}}}, {"name": "StatefulPartitionedCall/transpose_152/perm", "op": "Const", "attr": {"dtype": {"type": "DT_INT32"}, "value": {"tensor": {"dtype": "DT_INT32", "tensorShape": {"dim": [{"size": "4"}]}}}}}, {"name": "StatefulPartitionedCall/split_47", "op": "Const", "attr": {"value": {"tensor": {"dtype": "DT_FLOAT", "tensorShape": {"dim": [{"size": "3"}, {"size": "3"}, {"size": "64"}, {"size": "64"}]}}}, "dtype": {"type": "DT_FLOAT"}}}, {"name": "unknown_94", "op": "Const", "attr": {"dtype": {"type": "DT_FLOAT"}, "value": {"tensor": {"dtype": "DT_FLOAT", "tensorShape": {"dim": [{"size": "64"}]}}}}}, {"name": "StatefulPartitionedCall/transpose_153/perm", "op": "Const", "attr": {"dtype": {"type": "DT_INT32"}, "value": {"tensor": {"dtype": "DT_INT32", "tensorShape": {"dim": [{"size": "4"}]}}}}}, {"name": "StatefulPartitionedCall/transpose_155/perm", "op": "Const", "attr": {"value": {"tensor": {"dtype": "DT_INT32", "tensorShape": {"dim": [{"size": "4"}]}}}, "dtype": {"type": "DT_INT32"}}}, {"name": "StatefulPartitionedCall/split_48", "op": "Const", "attr": {"value": {"tensor": {"dtype": "DT_FLOAT", "tensorShape": {"dim": [{"size": "1"}, {"size": "1"}, {"size": "64"}, {"size": "32"}]}}}, "dtype": {"type": "DT_FLOAT"}}}, {"name": "unknown_96", "op": "Const", "attr": {"value": {"tensor": {"dtype": "DT_FLOAT", "tensorShape": {"dim": [{"size": "32"}]}}}, "dtype": {"type": "DT_FLOAT"}}}, {"name": "StatefulPartitionedCall/transpose_156/perm", "op": "Const", "attr": {"value": {"tensor": {"dtype": "DT_INT32", "tensorShape": {"dim": [{"size": "4"}]}}}, "dtype": {"type": "DT_INT32"}}}, {"name": "StatefulPartitionedCall/assert_equal_1/Assert/AssertGuard/pivot_t/_161", "op": "Const", "attr": {"value": {"tensor": {"dtype": "DT_BOOL", "tensorShape": {}}}, "dtype": {"type": "DT_BOOL"}}}, {"name": "StatefulPartitionedCall/LogicalAnd", "op": "Const", "attr": {"value": {"tensor": {"dtype": "DT_BOOL", "tensorShape": {"dim": [{"size": "1"}]}}}, "dtype": {"type": "DT_BOOL"}}}, {"name": "StatefulPartitionedCall/assert_equal_1/y", "op": "Const", "attr": {"dtype": {"type": "DT_BOOL"}, "value": {"tensor": {"dtype": "DT_BOOL", "tensorShape": {}}}}}, {"name": "StatefulPartitionedCall/assert_equal_1/All", "op": "Const", "attr": {"dtype": {"type": "DT_BOOL"}, "value": {"tensor": {"dtype": "DT_BOOL", "tensorShape": {}}}}}, {"name": "images", "op": "Placeholder", "attr": {"dtype": {"type": "DT_FLOAT"}, "shape": {"shape": {"dim": [{"size": "1"}, {"size": "3"}, {"size": "640"}, {"size": "640"}]}}}}, {"name": "StatefulPartitionedCall/SparseToDense_6", "op": "SparseToDense", "input": ["StatefulPartitionedCall/Where_6", "StatefulPartitionedCall/Cast_10", "StatefulPartitionedCall/GatherV2_6", "StatefulPartitionedCall/zeros_6"], "attr": {"validate_indices": {"b": true}, "T": {"type": "DT_INT64"}, "Tindices": {"type": "DT_INT64"}}}, {"name": "StatefulPartitionedCall/SparseToDense_7", "op": "SparseToDense", "input": ["StatefulPartitionedCall/Where_7", "StatefulPartitionedCall/Cast_11", "StatefulPartitionedCall/GatherV2_7", "StatefulPartitionedCall/zeros_7"], "attr": {"validate_indices": {"b": true}, "T": {"type": "DT_INT64"}, "Tindices": {"type": "DT_INT64"}}}, {"name": "StatefulPartitionedCall/SparseToDense_8", "op": "SparseToDense", "input": ["StatefulPartitionedCall/ExpandDims", "StatefulPartitionedCall/Cast_16", "StatefulPartitionedCall/SelectV2_1", "StatefulPartitionedCall/zeros_8"], "attr": {"validate_indices": {"b": true}, "Tindices": {"type": "DT_INT64"}, "T": {"type": "DT_INT64"}}}, {"name": "StatefulPartitionedCall/SparseToDense_3", "op": "SparseToDense", "input": ["StatefulPartitionedCall/Where_3", "StatefulPartitionedCall/Cast_7", "StatefulPartitionedCall/GatherV2_3", "StatefulPartitionedCall/zeros_3"], "attr": {"Tindices": {"type": "DT_INT64"}, "validate_indices": {"b": true}, "T": {"type": "DT_INT64"}}}, {"name": "StatefulPartitionedCall/SparseToDense_4", "op": "SparseToDense", "input": ["StatefulPartitionedCall/Where_4", "StatefulPartitionedCall/Cast_8", "StatefulPartitionedCall/GatherV2_4", "StatefulPartitionedCall/zeros_4"], "attr": {"validate_indices": {"b": true}, "Tindices": {"type": "DT_INT64"}, "T": {"type": "DT_INT64"}}}, {"name": "StatefulPartitionedCall/SparseToDense_5", "op": "SparseToDense", "input": ["StatefulPartitionedCall/Where_5", "StatefulPartitionedCall/Cast_9", "StatefulPartitionedCall/GatherV2_5", "StatefulPartitionedCall/zeros_5"], "attr": {"validate_indices": {"b": true}, "Tindices": {"type": "DT_INT64"}, "T": {"type": "DT_INT64"}}}, {"name": "StatefulPartitionedCall/SparseToDense", "op": "SparseToDense", "input": ["StatefulPartitionedCall/Where", "StatefulPartitionedCall/Cast_4", "StatefulPartitionedCall/GatherV2", "StatefulPartitionedCall/zeros"], "attr": {"T": {"type": "DT_INT64"}, "validate_indices": {"b": true}, "Tindices": {"type": "DT_INT64"}}}, {"name": "StatefulPartitionedCall/SparseToDense_1", "op": "SparseToDense", "input": ["StatefulPartitionedCall/Where_1", "StatefulPartitionedCall/Cast_5", "StatefulPartitionedCall/GatherV2_1", "StatefulPartitionedCall/zeros_1"], "attr": {"T": {"type": "DT_INT64"}, "Tindices": {"type": "DT_INT64"}, "validate_indices": {"b": true}}}, {"name": "StatefulPartitionedCall/SparseToDense_2", "op": "SparseToDense", "input": ["StatefulPartitionedCall/Where_2", "StatefulPartitionedCall/Cast_6", "StatefulPartitionedCall/GatherV2_2", "StatefulPartitionedCall/zeros_2"], "attr": {"validate_indices": {"b": true}, "Tindices": {"type": "DT_INT64"}, "T": {"type": "DT_INT64"}}}, {"name": "StatefulPartitionedCall/assert_equal_1/Assert/AssertGuard/StatefulPartitionedCall/assert_equal_1/All/_162", "op": "Switch", "input": ["StatefulPartitionedCall/assert_equal_1/All", "StatefulPartitionedCall/assert_equal_1/All"], "attr": {"T": {"type": "DT_BOOL"}}}, {"name": "StatefulPartitionedCall/assert_equal_1/Assert/AssertGuard/StatefulPartitionedCall/LogicalAnd/_163", "op": "Switch", "input": ["StatefulPartitionedCall/LogicalAnd", "StatefulPartitionedCall/assert_equal_1/All"], "attr": {"T": {"type": "DT_BOOL"}}}, {"name": "StatefulPartitionedCall/assert_equal_1/Assert/AssertGuard/StatefulPartitionedCall/assert_equal_1/y/_164", "op": "Switch", "input": ["StatefulPartitionedCall/assert_equal_1/y", "StatefulPartitionedCall/assert_equal_1/All"], "attr": {"T": {"type": "DT_BOOL"}}}, {"name": "StatefulPartitionedCall/assert_equal_1/Assert/AssertGuard/switch_pred/_159", "op": "Switch", "input": ["StatefulPartitionedCall/assert_equal_1/All", "StatefulPartitionedCall/assert_equal_1/All"], "attr": {"T": {"type": "DT_BOOL"}}}, {"name": "StatefulPartitionedCall/Pad", "op": "Pad", "input": ["images", "StatefulPartitionedCall/Const"], "attr": {"Tpaddings": {"type": "DT_INT32"}, "T": {"type": "DT_FLOAT"}}}, {"name": "StatefulPartitionedCall/add_82", "op": "AddV2", "input": ["StatefulPartitionedCall/onnx_tf_prefix_/model.22/dfl/Constant", "StatefulPartitionedCall/SparseToDense_6"], "attr": {"T": {"type": "DT_INT64"}}}, {"name": "StatefulPartitionedCall/add_83", "op": "AddV2", "input": ["StatefulPartitionedCall/onnx_tf_prefix_/model.22/dfl/Constant_1", "StatefulPartitionedCall/SparseToDense_7"], "attr": {"T": {"type": "DT_INT64"}}}, {"name": "StatefulPartitionedCall/add_79", "op": "AddV2", "input": ["StatefulPartitionedCall/onnx_tf_prefix_/model.22/Constant_3", "StatefulPartitionedCall/SparseToDense_3"], "attr": {"T": {"type": "DT_INT64"}}}, {"name": "StatefulPartitionedCall/add_80", "op": "AddV2", "input": ["StatefulPartitionedCall/onnx_tf_prefix_/model.22/Constant_4", "StatefulPartitionedCall/SparseToDense_4"], "attr": {"T": {"type": "DT_INT64"}}}, {"name": "StatefulPartitionedCall/add_81", "op": "AddV2", "input": ["StatefulPartitionedCall/onnx_tf_prefix_/model.22/Constant_5", "StatefulPartitionedCall/SparseToDense_5"], "attr": {"T": {"type": "DT_INT64"}}}, {"name": "StatefulPartitionedCall/add_52", "op": "AddV2", "input": ["StatefulPartitionedCall/onnx_tf_prefix_/model.22/Constant", "StatefulPartitionedCall/SparseToDense"], "attr": {"T": {"type": "DT_INT64"}}}, {"name": "StatefulPartitionedCall/add_56", "op": "AddV2", "input": ["StatefulPartitionedCall/onnx_tf_prefix_/model.22/Constant_1", "StatefulPartitionedCall/SparseToDense_1"], "attr": {"T": {"type": "DT_INT64"}}}, {"name": "StatefulPartitionedCall/add_60", "op": "AddV2", "input": ["StatefulPartitionedCall/onnx_tf_prefix_/model.22/Constant_2", "StatefulPartitionedCall/SparseToDense_2"], "attr": {"T": {"type": "DT_INT64"}}}, {"name": "StatefulPartitionedCall/assert_equal_1/Assert/AssertGuard/pivot_f/_160", "op": "Identity", "input": ["StatefulPartitionedCall/assert_equal_1/Assert/AssertGuard/switch_pred/_159"], "attr": {"T": {"type": "DT_BOOL"}, "_has_manual_control_dependencies": {"b": true}}}, {"name": "StatefulPartitionedCall/transpose_1", "op": "Transpose", "input": ["StatefulPartitionedCall/Pad", "StatefulPartitionedCall/transpose_1/perm"], "attr": {"T": {"type": "DT_FLOAT"}, "Tperm": {"type": "DT_INT32"}}}, {"name": "Func/StatefulPartitionedCall/assert_equal_1/Assert/AssertGuard/else/_158/input/_174", "op": "Identity", "input": ["StatefulPartitionedCall/assert_equal_1/Assert/AssertGuard/StatefulPartitionedCall/assert_equal_1/All/_162", "^StatefulPartitionedCall/assert_equal_1/Assert/AssertGuard/pivot_f/_160"], "attr": {"T": {"type": "DT_BOOL"}}}, {"name": "Func/StatefulPartitionedCall/assert_equal_1/Assert/AssertGuard/else/_158/input/_175", "op": "Identity", "input": ["StatefulPartitionedCall/assert_equal_1/Assert/AssertGuard/StatefulPartitionedCall/LogicalAnd/_163", "^StatefulPartitionedCall/assert_equal_1/Assert/AssertGuard/pivot_f/_160"], "attr": {"T": {"type": "DT_BOOL"}}}, {"name": "Func/StatefulPartitionedCall/assert_equal_1/Assert/AssertGuard/else/_158/input/_176", "op": "Identity", "input": ["StatefulPartitionedCall/assert_equal_1/Assert/AssertGuard/StatefulPartitionedCall/assert_equal_1/y/_164", "^StatefulPartitionedCall/assert_equal_1/Assert/AssertGuard/pivot_f/_160"], "attr": {"T": {"type": "DT_BOOL"}}}, {"name": "StatefulPartitionedCall/convolution", "op": "Conv2D", "input": ["StatefulPartitionedCall/transpose_1", "StatefulPartitionedCall/split"], "device": "/device:CPU:0", "attr": {"T": {"type": "DT_FLOAT"}, "strides": {"list": {"i": ["1", "2", "2", "1"]}}, "padding": {"s": "VkFMSUQ="}, "use_cudnn_on_gpu": {"b": true}, "explicit_paddings": {"list": {}}, "dilations": {"list": {"i": ["1", "1", "1", "1"]}}, "data_format": {"s": "TkhXQw=="}}}, {"name": "StatefulPartitionedCall/assert_equal_1/Assert/AssertGuard/else/_158/assert_equal_1/Assert/AssertGuard/Assert", "op": "NoOp", "input": ["^Func/StatefulPartitionedCall/assert_equal_1/Assert/AssertGuard/else/_158/input/_174", "^Func/StatefulPartitionedCall/assert_equal_1/Assert/AssertGuard/else/_158/input/_175", "^Func/StatefulPartitionedCall/assert_equal_1/Assert/AssertGuard/else/_158/input/_176"], "attr": {"_has_manual_control_dependencies": {"b": true}}}, {"name": "StatefulPartitionedCall/Add", "op": "AddV2", "input": ["StatefulPartitionedCall/convolution", "unknown_0"], "attr": {"T": {"type": "DT_FLOAT"}}}, {"name": "StatefulPartitionedCall/assert_equal_1/Assert/AssertGuard/else/_158/assert_equal_1/Assert/AssertGuard/Identity_1", "op": "Identity", "input": ["Func/StatefulPartitionedCall/assert_equal_1/Assert/AssertGuard/else/_158/input/_174", "^StatefulPartitionedCall/assert_equal_1/Assert/AssertGuard/else/_158/assert_equal_1/Assert/AssertGuard/Assert"], "attr": {"T": {"type": "DT_BOOL"}}}, {"name": "StatefulPartitionedCall/assert_equal_1/Assert/AssertGuard/branch_executed/_166", "op": "Merge", "input": ["StatefulPartitionedCall/assert_equal_1/Assert/AssertGuard/pivot_t/_161", "StatefulPartitionedCall/assert_equal_1/Assert/AssertGuard/pivot_f/_160", "^StatefulPartitionedCall/assert_equal_1/Assert/AssertGuard/else/_158/assert_equal_1/Assert/AssertGuard/Assert"], "attr": {"_has_manual_control_dependencies": {"b": true}, "N": {"i": "2"}, "T": {"type": "DT_BOOL"}}}, {"name": "StatefulPartitionedCall/transpose_2", "op": "Transpose", "input": ["StatefulPartitionedCall/Add", "StatefulPartitionedCall/transpose_2/perm"], "attr": {"T": {"type": "DT_FLOAT"}, "Tperm": {"type": "DT_INT32"}}}, {"name": "StatefulPartitionedCall/assert_equal_1/Assert/AssertGuard/output/_165", "op": "Merge", "input": ["Func/StatefulPartitionedCall/assert_equal_1/Assert/AssertGuard/then/_157/output/_171", "StatefulPartitionedCall/assert_equal_1/Assert/AssertGuard/else/_158/assert_equal_1/Assert/AssertGuard/Identity_1"], "attr": {"N": {"i": "2"}, "T": {"type": "DT_BOOL"}}}, {"name": "StatefulPartitionedCall/onnx_tf_prefix_/model.0/act/Sigmoid", "op": "Sigmoid", "input": ["StatefulPartitionedCall/transpose_2"], "attr": {"T": {"type": "DT_FLOAT"}}}, {"name": "StatefulPartitionedCall/SelectV2_5", "op": "Const", "input": ["^StatefulPartitionedCall/assert_equal_1/Assert/AssertGuard/output/_165"], "attr": {"value": {"tensor": {"dtype": "DT_INT64", "tensorShape": {"dim": [{"size": "1"}]}}}, "dtype": {"type": "DT_INT64"}}}, {"name": "StatefulPartitionedCall/SelectV2_6", "op": "Const", "input": ["^StatefulPartitionedCall/assert_equal_1/Assert/AssertGuard/output/_165"], "attr": {"value": {"tensor": {"dtype": "DT_INT64", "tensorShape": {"dim": [{"size": "1"}]}}}, "dtype": {"type": "DT_INT64"}}}, {"name": "StatefulPartitionedCall/SelectV2_2", "op": "Const", "input": ["^StatefulPartitionedCall/assert_equal_1/Assert/AssertGuard/output/_165"], "attr": {"value": {"tensor": {"dtype": "DT_INT64", "tensorShape": {"dim": [{"size": "1"}]}}}, "dtype": {"type": "DT_INT64"}}}, {"name": "StatefulPartitionedCall/onnx_tf_prefix_/model.0/act/Mul", "op": "Mul", "input": ["StatefulPartitionedCall/transpose_2", "StatefulPartitionedCall/onnx_tf_prefix_/model.0/act/Sigmoid"], "attr": {"T": {"type": "DT_FLOAT"}}}, {"name": "StatefulPartitionedCall/SparseToDense_10", "op": "SparseToDense", "input": ["StatefulPartitionedCall/ExpandDims_1", "StatefulPartitionedCall/Cast_18", "StatefulPartitionedCall/SelectV2_5", "StatefulPartitionedCall/zeros_9"], "attr": {"T": {"type": "DT_INT64"}, "Tindices": {"type": "DT_INT64"}, "validate_indices": {"b": true}}}, {"name": "StatefulPartitionedCall/SparseToDense_11", "op": "SparseToDense", "input": ["StatefulPartitionedCall/ExpandDims_1", "StatefulPartitionedCall/Cast_18", "StatefulPartitionedCall/SelectV2_6", "StatefulPartitionedCall/Const_59"], "attr": {"T": {"type": "DT_INT64"}, "validate_indices": {"b": true}, "Tindices": {"type": "DT_INT64"}}}, {"name": "StatefulPartitionedCall/SparseToDense_9", "op": "SparseToDense", "input": ["StatefulPartitionedCall/ExpandDims", "StatefulPartitionedCall/Cast_16", "StatefulPartitionedCall/SelectV2_2", "StatefulPartitionedCall/Const_57"], "attr": {"Tindices": {"type": "DT_INT64"}, "T": {"type": "DT_INT64"}, "validate_indices": {"b": true}}}, {"name": "StatefulPartitionedCall/Pad_1", "op": "Pad", "input": ["StatefulPartitionedCall/onnx_tf_prefix_/model.0/act/Mul", "StatefulPartitionedCall/Const_1"], "attr": {"Tpaddings": {"type": "DT_INT32"}, "T": {"type": "DT_FLOAT"}}}, {"name": "StatefulPartitionedCall/Equal_9", "op": "Equal", "input": ["StatefulPartitionedCall/SparseToDense_11", "StatefulPartitionedCall/Const_60"], "attr": {"incompatible_shape_error": {"b": true}, "T": {"type": "DT_INT64"}}}, {"name": "StatefulPartitionedCall/Equal_8", "op": "Equal", "input": ["StatefulPartitionedCall/SparseToDense_9", "StatefulPartitionedCall/Const_58"], "attr": {"incompatible_shape_error": {"b": true}, "T": {"type": "DT_INT64"}}}, {"name": "StatefulPartitionedCall/transpose_4", "op": "Transpose", "input": ["StatefulPartitionedCall/Pad_1", "StatefulPartitionedCall/transpose_4/perm"], "attr": {"Tperm": {"type": "DT_INT32"}, "T": {"type": "DT_FLOAT"}}}, {"name": "StatefulPartitionedCall/SelectV2_7", "op": "SelectV2", "input": ["StatefulPartitionedCall/Equal_9", "StatefulPartitionedCall/Shape_17", "StatefulPartitionedCall/SparseToDense_11"], "attr": {"T": {"type": "DT_INT64"}}}, {"name": "StatefulPartitionedCall/SelectV2_3", "op": "SelectV2", "input": ["StatefulPartitionedCall/Equal_8", "StatefulPartitionedCall/Shape_16", "StatefulPartitionedCall/SparseToDense_9"], "attr": {"T": {"type": "DT_INT64"}}}, {"name": "StatefulPartitionedCall/convolution_1", "op": "Conv2D", "input": ["StatefulPartitionedCall/transpose_4", "StatefulPartitionedCall/split_1"], "device": "/device:CPU:0", "attr": {"dilations": {"list": {"i": ["1", "1", "1", "1"]}}, "explicit_paddings": {"list": {}}, "padding": {"s": "VkFMSUQ="}, "strides": {"list": {"i": ["1", "2", "2", "1"]}}, "use_cudnn_on_gpu": {"b": true}, "data_format": {"s": "TkhXQw=="}, "T": {"type": "DT_FLOAT"}}}, {"name": "StatefulPartitionedCall/Add_1", "op": "AddV2", "input": ["StatefulPartitionedCall/convolution_1", "unknown_2"], "attr": {"T": {"type": "DT_FLOAT"}}}, {"name": "StatefulPartitionedCall/transpose_5", "op": "Transpose", "input": ["StatefulPartitionedCall/Add_1", "StatefulPartitionedCall/transpose_5/perm"], "attr": {"Tperm": {"type": "DT_INT32"}, "T": {"type": "DT_FLOAT"}}}, {"name": "StatefulPartitionedCall/onnx_tf_prefix_/model.1/act/Sigmoid", "op": "Sigmoid", "input": ["StatefulPartitionedCall/transpose_5"], "attr": {"T": {"type": "DT_FLOAT"}}}, {"name": "StatefulPartitionedCall/onnx_tf_prefix_/model.1/act/Mul", "op": "Mul", "input": ["StatefulPartitionedCall/transpose_5", "StatefulPartitionedCall/onnx_tf_prefix_/model.1/act/Sigmoid"], "attr": {"T": {"type": "DT_FLOAT"}}}, {"name": "StatefulPartitionedCall/transpose_7", "op": "Transpose", "input": ["StatefulPartitionedCall/onnx_tf_prefix_/model.1/act/Mul", "StatefulPartitionedCall/transpose_7/perm"], "attr": {"T": {"type": "DT_FLOAT"}, "Tperm": {"type": "DT_INT32"}}}, {"name": "StatefulPartitionedCall/convolution_2", "op": "Conv2D", "input": ["StatefulPartitionedCall/transpose_7", "StatefulPartitionedCall/split_2"], "device": "/device:CPU:0", "attr": {"data_format": {"s": "TkhXQw=="}, "use_cudnn_on_gpu": {"b": true}, "padding": {"s": "VkFMSUQ="}, "strides": {"list": {"i": ["1", "1", "1", "1"]}}, "T": {"type": "DT_FLOAT"}, "explicit_paddings": {"list": {}}, "dilations": {"list": {"i": ["1", "1", "1", "1"]}}}}, {"name": "StatefulPartitionedCall/Add_2", "op": "AddV2", "input": ["StatefulPartitionedCall/convolution_2", "unknown_4"], "attr": {"T": {"type": "DT_FLOAT"}}}, {"name": "StatefulPartitionedCall/transpose_8", "op": "Transpose", "input": ["StatefulPartitionedCall/Add_2", "StatefulPartitionedCall/transpose_8/perm"], "attr": {"Tperm": {"type": "DT_INT32"}, "T": {"type": "DT_FLOAT"}}}, {"name": "StatefulPartitionedCall/onnx_tf_prefix_/model.2/cv1/act/Sigmoid", "op": "Sigmoid", "input": ["StatefulPartitionedCall/transpose_8"], "attr": {"T": {"type": "DT_FLOAT"}}}, {"name": "StatefulPartitionedCall/onnx_tf_prefix_/model.2/cv1/act/Mul", "op": "Mul", "input": ["StatefulPartitionedCall/transpose_8", "StatefulPartitionedCall/onnx_tf_prefix_/model.2/cv1/act/Sigmoid"], "attr": {"T": {"type": "DT_FLOAT"}}}, {"name": "StatefulPartitionedCall/onnx_tf_prefix_/model.2/Split", "op": "SplitV", "input": ["StatefulPartitionedCall/onnx_tf_prefix_/model.2/cv1/act/Mul", "StatefulPartitionedCall/onnx_tf_prefix_Constant_9", "StatefulPartitionedCall/onnx_tf_prefix_/model.2/Split/split_dim"], "attr": {"num_split": {"i": "2"}, "T": {"type": "DT_FLOAT"}, "Tlen": {"type": "DT_INT64"}}}, {"name": "StatefulPartitionedCall/Pad_2", "op": "Pad", "input": ["StatefulPartitionedCall/onnx_tf_prefix_/model.2/Split:1", "StatefulPartitionedCall/Const_2"], "attr": {"Tpaddings": {"type": "DT_INT32"}, "T": {"type": "DT_FLOAT"}}}, {"name": "StatefulPartitionedCall/transpose_10", "op": "Transpose", "input": ["StatefulPartitionedCall/Pad_2", "StatefulPartitionedCall/transpose_10/perm"], "attr": {"Tperm": {"type": "DT_INT32"}, "T": {"type": "DT_FLOAT"}}}, {"name": "StatefulPartitionedCall/convolution_3", "op": "Conv2D", "input": ["StatefulPartitionedCall/transpose_10", "StatefulPartitionedCall/split_3"], "device": "/device:CPU:0", "attr": {"padding": {"s": "VkFMSUQ="}, "explicit_paddings": {"list": {}}, "strides": {"list": {"i": ["1", "1", "1", "1"]}}, "T": {"type": "DT_FLOAT"}, "data_format": {"s": "TkhXQw=="}, "dilations": {"list": {"i": ["1", "1", "1", "1"]}}, "use_cudnn_on_gpu": {"b": true}}}, {"name": "StatefulPartitionedCall/Add_3", "op": "AddV2", "input": ["StatefulPartitionedCall/convolution_3", "unknown_6"], "attr": {"T": {"type": "DT_FLOAT"}}}, {"name": "StatefulPartitionedCall/transpose_11", "op": "Transpose", "input": ["StatefulPartitionedCall/Add_3", "StatefulPartitionedCall/transpose_11/perm"], "attr": {"Tperm": {"type": "DT_INT32"}, "T": {"type": "DT_FLOAT"}}}, {"name": "StatefulPartitionedCall/onnx_tf_prefix_/model.2/m.0/cv1/act/Sigmoid", "op": "Sigmoid", "input": ["StatefulPartitionedCall/transpose_11"], "attr": {"T": {"type": "DT_FLOAT"}}}, {"name": "StatefulPartitionedCall/onnx_tf_prefix_/model.2/m.0/cv1/act/Mul", "op": "Mul", "input": ["StatefulPartitionedCall/transpose_11", "StatefulPartitionedCall/onnx_tf_prefix_/model.2/m.0/cv1/act/Sigmoid"], "attr": {"T": {"type": "DT_FLOAT"}}}, {"name": "StatefulPartitionedCall/Pad_3", "op": "Pad", "input": ["StatefulPartitionedCall/onnx_tf_prefix_/model.2/m.0/cv1/act/Mul", "StatefulPartitionedCall/Const_3"], "attr": {"Tpaddings": {"type": "DT_INT32"}, "T": {"type": "DT_FLOAT"}}}, {"name": "StatefulPartitionedCall/transpose_13", "op": "Transpose", "input": ["StatefulPartitionedCall/Pad_3", "StatefulPartitionedCall/transpose_13/perm"], "attr": {"Tperm": {"type": "DT_INT32"}, "T": {"type": "DT_FLOAT"}}}, {"name": "StatefulPartitionedCall/convolution_4", "op": "Conv2D", "input": ["StatefulPartitionedCall/transpose_13", "StatefulPartitionedCall/split_4"], "device": "/device:CPU:0", "attr": {"data_format": {"s": "TkhXQw=="}, "explicit_paddings": {"list": {}}, "dilations": {"list": {"i": ["1", "1", "1", "1"]}}, "T": {"type": "DT_FLOAT"}, "use_cudnn_on_gpu": {"b": true}, "strides": {"list": {"i": ["1", "1", "1", "1"]}}, "padding": {"s": "VkFMSUQ="}}}, {"name": "StatefulPartitionedCall/Add_4", "op": "AddV2", "input": ["StatefulPartitionedCall/convolution_4", "unknown_8"], "attr": {"T": {"type": "DT_FLOAT"}}}, {"name": "StatefulPartitionedCall/transpose_14", "op": "Transpose", "input": ["StatefulPartitionedCall/Add_4", "StatefulPartitionedCall/transpose_14/perm"], "attr": {"Tperm": {"type": "DT_INT32"}, "T": {"type": "DT_FLOAT"}}}, {"name": "StatefulPartitionedCall/onnx_tf_prefix_/model.2/m.0/cv2/act/Sigmoid", "op": "Sigmoid", "input": ["StatefulPartitionedCall/transpose_14"], "attr": {"T": {"type": "DT_FLOAT"}}}, {"name": "StatefulPartitionedCall/onnx_tf_prefix_/model.2/m.0/cv2/act/Mul", "op": "Mul", "input": ["StatefulPartitionedCall/transpose_14", "StatefulPartitionedCall/onnx_tf_prefix_/model.2/m.0/cv2/act/Sigmoid"], "attr": {"T": {"type": "DT_FLOAT"}}}, {"name": "StatefulPartitionedCall/onnx_tf_prefix_/model.2/m.0/Add", "op": "AddV2", "input": ["StatefulPartitionedCall/onnx_tf_prefix_/model.2/Split:1", "StatefulPartitionedCall/onnx_tf_prefix_/model.2/m.0/cv2/act/Mul"], "attr": {"T": {"type": "DT_FLOAT"}}}, {"name": "StatefulPartitionedCall/onnx_tf_prefix_/model.2/Concat", "op": "ConcatV2", "input": ["StatefulPartitionedCall/onnx_tf_prefix_/model.2/Split", "StatefulPartitionedCall/onnx_tf_prefix_/model.2/Split:1", "StatefulPartitionedCall/onnx_tf_prefix_/model.2/m.0/Add", "StatefulPartitionedCall/onnx_tf_prefix_/model.2/Concat/axis"], "attr": {"T": {"type": "DT_FLOAT"}, "Tidx": {"type": "DT_INT32"}, "N": {"i": "3"}}}, {"name": "StatefulPartitionedCall/transpose_16", "op": "Transpose", "input": ["StatefulPartitionedCall/onnx_tf_prefix_/model.2/Concat", "StatefulPartitionedCall/transpose_16/perm"], "attr": {"T": {"type": "DT_FLOAT"}, "Tperm": {"type": "DT_INT32"}}}, {"name": "StatefulPartitionedCall/convolution_5", "op": "Conv2D", "input": ["StatefulPartitionedCall/transpose_16", "StatefulPartitionedCall/split_5"], "device": "/device:CPU:0", "attr": {"strides": {"list": {"i": ["1", "1", "1", "1"]}}, "dilations": {"list": {"i": ["1", "1", "1", "1"]}}, "explicit_paddings": {"list": {}}, "T": {"type": "DT_FLOAT"}, "use_cudnn_on_gpu": {"b": true}, "data_format": {"s": "TkhXQw=="}, "padding": {"s": "VkFMSUQ="}}}, {"name": "StatefulPartitionedCall/Add_5", "op": "AddV2", "input": ["StatefulPartitionedCall/convolution_5", "unknown_10"], "attr": {"T": {"type": "DT_FLOAT"}}}, {"name": "StatefulPartitionedCall/transpose_17", "op": "Transpose", "input": ["StatefulPartitionedCall/Add_5", "StatefulPartitionedCall/transpose_17/perm"], "attr": {"T": {"type": "DT_FLOAT"}, "Tperm": {"type": "DT_INT32"}}}, {"name": "StatefulPartitionedCall/onnx_tf_prefix_/model.2/cv2/act/Sigmoid", "op": "Sigmoid", "input": ["StatefulPartitionedCall/transpose_17"], "attr": {"T": {"type": "DT_FLOAT"}}}, {"name": "StatefulPartitionedCall/onnx_tf_prefix_/model.2/cv2/act/Mul", "op": "Mul", "input": ["StatefulPartitionedCall/transpose_17", "StatefulPartitionedCall/onnx_tf_prefix_/model.2/cv2/act/Sigmoid"], "attr": {"T": {"type": "DT_FLOAT"}}}, {"name": "StatefulPartitionedCall/Pad_4", "op": "Pad", "input": ["StatefulPartitionedCall/onnx_tf_prefix_/model.2/cv2/act/Mul", "StatefulPartitionedCall/Const_4"], "attr": {"T": {"type": "DT_FLOAT"}, "Tpaddings": {"type": "DT_INT32"}}}, {"name": "StatefulPartitionedCall/transpose_19", "op": "Transpose", "input": ["StatefulPartitionedCall/Pad_4", "StatefulPartitionedCall/transpose_19/perm"], "attr": {"Tperm": {"type": "DT_INT32"}, "T": {"type": "DT_FLOAT"}}}, {"name": "StatefulPartitionedCall/convolution_6", "op": "Conv2D", "input": ["StatefulPartitionedCall/transpose_19", "StatefulPartitionedCall/split_6"], "device": "/device:CPU:0", "attr": {"explicit_paddings": {"list": {}}, "data_format": {"s": "TkhXQw=="}, "strides": {"list": {"i": ["1", "2", "2", "1"]}}, "T": {"type": "DT_FLOAT"}, "dilations": {"list": {"i": ["1", "1", "1", "1"]}}, "use_cudnn_on_gpu": {"b": true}, "padding": {"s": "VkFMSUQ="}}}, {"name": "StatefulPartitionedCall/Add_6", "op": "AddV2", "input": ["StatefulPartitionedCall/convolution_6", "unknown_12"], "attr": {"T": {"type": "DT_FLOAT"}}}, {"name": "StatefulPartitionedCall/transpose_20", "op": "Transpose", "input": ["StatefulPartitionedCall/Add_6", "StatefulPartitionedCall/transpose_20/perm"], "attr": {"T": {"type": "DT_FLOAT"}, "Tperm": {"type": "DT_INT32"}}}, {"name": "StatefulPartitionedCall/onnx_tf_prefix_/model.3/act/Sigmoid", "op": "Sigmoid", "input": ["StatefulPartitionedCall/transpose_20"], "attr": {"T": {"type": "DT_FLOAT"}}}, {"name": "StatefulPartitionedCall/onnx_tf_prefix_/model.3/act/Mul", "op": "Mul", "input": ["StatefulPartitionedCall/transpose_20", "StatefulPartitionedCall/onnx_tf_prefix_/model.3/act/Sigmoid"], "attr": {"T": {"type": "DT_FLOAT"}}}, {"name": "StatefulPartitionedCall/transpose_22", "op": "Transpose", "input": ["StatefulPartitionedCall/onnx_tf_prefix_/model.3/act/Mul", "StatefulPartitionedCall/transpose_22/perm"], "attr": {"Tperm": {"type": "DT_INT32"}, "T": {"type": "DT_FLOAT"}}}, {"name": "StatefulPartitionedCall/convolution_7", "op": "Conv2D", "input": ["StatefulPartitionedCall/transpose_22", "StatefulPartitionedCall/split_7"], "device": "/device:CPU:0", "attr": {"use_cudnn_on_gpu": {"b": true}, "explicit_paddings": {"list": {}}, "padding": {"s": "VkFMSUQ="}, "dilations": {"list": {"i": ["1", "1", "1", "1"]}}, "data_format": {"s": "TkhXQw=="}, "strides": {"list": {"i": ["1", "1", "1", "1"]}}, "T": {"type": "DT_FLOAT"}}}, {"name": "StatefulPartitionedCall/Add_7", "op": "AddV2", "input": ["StatefulPartitionedCall/convolution_7", "unknown_14"], "attr": {"T": {"type": "DT_FLOAT"}}}, {"name": "StatefulPartitionedCall/transpose_23", "op": "Transpose", "input": ["StatefulPartitionedCall/Add_7", "StatefulPartitionedCall/transpose_23/perm"], "attr": {"Tperm": {"type": "DT_INT32"}, "T": {"type": "DT_FLOAT"}}}, {"name": "StatefulPartitionedCall/onnx_tf_prefix_/model.4/cv1/act/Sigmoid", "op": "Sigmoid", "input": ["StatefulPartitionedCall/transpose_23"], "attr": {"T": {"type": "DT_FLOAT"}}}, {"name": "StatefulPartitionedCall/onnx_tf_prefix_/model.4/cv1/act/Mul", "op": "Mul", "input": ["StatefulPartitionedCall/transpose_23", "StatefulPartitionedCall/onnx_tf_prefix_/model.4/cv1/act/Sigmoid"], "attr": {"T": {"type": "DT_FLOAT"}}}, {"name": "StatefulPartitionedCall/onnx_tf_prefix_/model.4/Split", "op": "SplitV", "input": ["StatefulPartitionedCall/onnx_tf_prefix_/model.4/cv1/act/Mul", "StatefulPartitionedCall/onnx_tf_prefix_Constant_28", "StatefulPartitionedCall/onnx_tf_prefix_/model.4/Split/split_dim"], "attr": {"Tlen": {"type": "DT_INT64"}, "T": {"type": "DT_FLOAT"}, "num_split": {"i": "2"}}}, {"name": "StatefulPartitionedCall/Pad_5", "op": "Pad", "input": ["StatefulPartitionedCall/onnx_tf_prefix_/model.4/Split:1", "StatefulPartitionedCall/Const_5"], "attr": {"T": {"type": "DT_FLOAT"}, "Tpaddings": {"type": "DT_INT32"}}}, {"name": "StatefulPartitionedCall/transpose_25", "op": "Transpose", "input": ["StatefulPartitionedCall/Pad_5", "StatefulPartitionedCall/transpose_25/perm"], "attr": {"T": {"type": "DT_FLOAT"}, "Tperm": {"type": "DT_INT32"}}}, {"name": "StatefulPartitionedCall/convolution_8", "op": "Conv2D", "input": ["StatefulPartitionedCall/transpose_25", "StatefulPartitionedCall/split_8"], "device": "/device:CPU:0", "attr": {"dilations": {"list": {"i": ["1", "1", "1", "1"]}}, "data_format": {"s": "TkhXQw=="}, "explicit_paddings": {"list": {}}, "T": {"type": "DT_FLOAT"}, "strides": {"list": {"i": ["1", "1", "1", "1"]}}, "use_cudnn_on_gpu": {"b": true}, "padding": {"s": "VkFMSUQ="}}}, {"name": "StatefulPartitionedCall/Add_8", "op": "AddV2", "input": ["StatefulPartitionedCall/convolution_8", "unknown_16"], "attr": {"T": {"type": "DT_FLOAT"}}}, {"name": "StatefulPartitionedCall/transpose_26", "op": "Transpose", "input": ["StatefulPartitionedCall/Add_8", "StatefulPartitionedCall/transpose_26/perm"], "attr": {"T": {"type": "DT_FLOAT"}, "Tperm": {"type": "DT_INT32"}}}, {"name": "StatefulPartitionedCall/onnx_tf_prefix_/model.4/m.0/cv1/act/Sigmoid", "op": "Sigmoid", "input": ["StatefulPartitionedCall/transpose_26"], "attr": {"T": {"type": "DT_FLOAT"}}}, {"name": "StatefulPartitionedCall/onnx_tf_prefix_/model.4/m.0/cv1/act/Mul", "op": "Mul", "input": ["StatefulPartitionedCall/transpose_26", "StatefulPartitionedCall/onnx_tf_prefix_/model.4/m.0/cv1/act/Sigmoid"], "attr": {"T": {"type": "DT_FLOAT"}}}, {"name": "StatefulPartitionedCall/Pad_6", "op": "Pad", "input": ["StatefulPartitionedCall/onnx_tf_prefix_/model.4/m.0/cv1/act/Mul", "StatefulPartitionedCall/Const_6"], "attr": {"Tpaddings": {"type": "DT_INT32"}, "T": {"type": "DT_FLOAT"}}}, {"name": "StatefulPartitionedCall/transpose_28", "op": "Transpose", "input": ["StatefulPartitionedCall/Pad_6", "StatefulPartitionedCall/transpose_28/perm"], "attr": {"T": {"type": "DT_FLOAT"}, "Tperm": {"type": "DT_INT32"}}}, {"name": "StatefulPartitionedCall/convolution_9", "op": "Conv2D", "input": ["StatefulPartitionedCall/transpose_28", "StatefulPartitionedCall/split_9"], "device": "/device:CPU:0", "attr": {"padding": {"s": "VkFMSUQ="}, "strides": {"list": {"i": ["1", "1", "1", "1"]}}, "dilations": {"list": {"i": ["1", "1", "1", "1"]}}, "data_format": {"s": "TkhXQw=="}, "use_cudnn_on_gpu": {"b": true}, "explicit_paddings": {"list": {}}, "T": {"type": "DT_FLOAT"}}}, {"name": "StatefulPartitionedCall/Add_9", "op": "AddV2", "input": ["StatefulPartitionedCall/convolution_9", "unknown_18"], "attr": {"T": {"type": "DT_FLOAT"}}}, {"name": "StatefulPartitionedCall/transpose_29", "op": "Transpose", "input": ["StatefulPartitionedCall/Add_9", "StatefulPartitionedCall/transpose_29/perm"], "attr": {"T": {"type": "DT_FLOAT"}, "Tperm": {"type": "DT_INT32"}}}, {"name": "StatefulPartitionedCall/onnx_tf_prefix_/model.4/m.0/cv2/act/Sigmoid", "op": "Sigmoid", "input": ["StatefulPartitionedCall/transpose_29"], "attr": {"T": {"type": "DT_FLOAT"}}}, {"name": "StatefulPartitionedCall/onnx_tf_prefix_/model.4/m.0/cv2/act/Mul", "op": "Mul", "input": ["StatefulPartitionedCall/transpose_29", "StatefulPartitionedCall/onnx_tf_prefix_/model.4/m.0/cv2/act/Sigmoid"], "attr": {"T": {"type": "DT_FLOAT"}}}, {"name": "StatefulPartitionedCall/onnx_tf_prefix_/model.4/m.0/Add", "op": "AddV2", "input": ["StatefulPartitionedCall/onnx_tf_prefix_/model.4/Split:1", "StatefulPartitionedCall/onnx_tf_prefix_/model.4/m.0/cv2/act/Mul"], "attr": {"T": {"type": "DT_FLOAT"}}}, {"name": "StatefulPartitionedCall/Pad_7", "op": "Pad", "input": ["StatefulPartitionedCall/onnx_tf_prefix_/model.4/m.0/Add", "StatefulPartitionedCall/Const_7"], "attr": {"T": {"type": "DT_FLOAT"}, "Tpaddings": {"type": "DT_INT32"}}}, {"name": "StatefulPartitionedCall/transpose_31", "op": "Transpose", "input": ["StatefulPartitionedCall/Pad_7", "StatefulPartitionedCall/transpose_31/perm"], "attr": {"T": {"type": "DT_FLOAT"}, "Tperm": {"type": "DT_INT32"}}}, {"name": "StatefulPartitionedCall/convolution_10", "op": "Conv2D", "input": ["StatefulPartitionedCall/transpose_31", "StatefulPartitionedCall/split_10"], "device": "/device:CPU:0", "attr": {"dilations": {"list": {"i": ["1", "1", "1", "1"]}}, "data_format": {"s": "TkhXQw=="}, "explicit_paddings": {"list": {}}, "strides": {"list": {"i": ["1", "1", "1", "1"]}}, "use_cudnn_on_gpu": {"b": true}, "T": {"type": "DT_FLOAT"}, "padding": {"s": "VkFMSUQ="}}}, {"name": "StatefulPartitionedCall/Add_10", "op": "AddV2", "input": ["StatefulPartitionedCall/convolution_10", "unknown_20"], "attr": {"T": {"type": "DT_FLOAT"}}}, {"name": "StatefulPartitionedCall/transpose_32", "op": "Transpose", "input": ["StatefulPartitionedCall/Add_10", "StatefulPartitionedCall/transpose_32/perm"], "attr": {"Tperm": {"type": "DT_INT32"}, "T": {"type": "DT_FLOAT"}}}, {"name": "StatefulPartitionedCall/onnx_tf_prefix_/model.4/m.1/cv1/act/Sigmoid", "op": "Sigmoid", "input": ["StatefulPartitionedCall/transpose_32"], "attr": {"T": {"type": "DT_FLOAT"}}}, {"name": "StatefulPartitionedCall/onnx_tf_prefix_/model.4/m.1/cv1/act/Mul", "op": "Mul", "input": ["StatefulPartitionedCall/transpose_32", "StatefulPartitionedCall/onnx_tf_prefix_/model.4/m.1/cv1/act/Sigmoid"], "attr": {"T": {"type": "DT_FLOAT"}}}, {"name": "StatefulPartitionedCall/Pad_8", "op": "Pad", "input": ["StatefulPartitionedCall/onnx_tf_prefix_/model.4/m.1/cv1/act/Mul", "StatefulPartitionedCall/Const_8"], "attr": {"Tpaddings": {"type": "DT_INT32"}, "T": {"type": "DT_FLOAT"}}}, {"name": "StatefulPartitionedCall/transpose_34", "op": "Transpose", "input": ["StatefulPartitionedCall/Pad_8", "StatefulPartitionedCall/transpose_34/perm"], "attr": {"T": {"type": "DT_FLOAT"}, "Tperm": {"type": "DT_INT32"}}}, {"name": "StatefulPartitionedCall/convolution_11", "op": "Conv2D", "input": ["StatefulPartitionedCall/transpose_34", "StatefulPartitionedCall/split_11"], "device": "/device:CPU:0", "attr": {"strides": {"list": {"i": ["1", "1", "1", "1"]}}, "padding": {"s": "VkFMSUQ="}, "T": {"type": "DT_FLOAT"}, "use_cudnn_on_gpu": {"b": true}, "data_format": {"s": "TkhXQw=="}, "dilations": {"list": {"i": ["1", "1", "1", "1"]}}, "explicit_paddings": {"list": {}}}}, {"name": "StatefulPartitionedCall/Add_11", "op": "AddV2", "input": ["StatefulPartitionedCall/convolution_11", "unknown_22"], "attr": {"T": {"type": "DT_FLOAT"}}}, {"name": "StatefulPartitionedCall/transpose_35", "op": "Transpose", "input": ["StatefulPartitionedCall/Add_11", "StatefulPartitionedCall/transpose_35/perm"], "attr": {"Tperm": {"type": "DT_INT32"}, "T": {"type": "DT_FLOAT"}}}, {"name": "StatefulPartitionedCall/onnx_tf_prefix_/model.4/m.1/cv2/act/Sigmoid", "op": "Sigmoid", "input": ["StatefulPartitionedCall/transpose_35"], "attr": {"T": {"type": "DT_FLOAT"}}}, {"name": "StatefulPartitionedCall/onnx_tf_prefix_/model.4/m.1/cv2/act/Mul", "op": "Mul", "input": ["StatefulPartitionedCall/transpose_35", "StatefulPartitionedCall/onnx_tf_prefix_/model.4/m.1/cv2/act/Sigmoid"], "attr": {"T": {"type": "DT_FLOAT"}}}, {"name": "StatefulPartitionedCall/onnx_tf_prefix_/model.4/m.1/Add", "op": "AddV2", "input": ["StatefulPartitionedCall/onnx_tf_prefix_/model.4/m.0/Add", "StatefulPartitionedCall/onnx_tf_prefix_/model.4/m.1/cv2/act/Mul"], "attr": {"T": {"type": "DT_FLOAT"}}}, {"name": "StatefulPartitionedCall/onnx_tf_prefix_/model.4/Concat", "op": "ConcatV2", "input": ["StatefulPartitionedCall/onnx_tf_prefix_/model.4/Split", "StatefulPartitionedCall/onnx_tf_prefix_/model.4/Split:1", "StatefulPartitionedCall/onnx_tf_prefix_/model.4/m.0/Add", "StatefulPartitionedCall/onnx_tf_prefix_/model.4/m.1/Add", "StatefulPartitionedCall/onnx_tf_prefix_/model.4/Concat/axis"], "attr": {"Tidx": {"type": "DT_INT32"}, "N": {"i": "4"}, "T": {"type": "DT_FLOAT"}}}, {"name": "StatefulPartitionedCall/transpose_37", "op": "Transpose", "input": ["StatefulPartitionedCall/onnx_tf_prefix_/model.4/Concat", "StatefulPartitionedCall/transpose_37/perm"], "attr": {"T": {"type": "DT_FLOAT"}, "Tperm": {"type": "DT_INT32"}}}, {"name": "StatefulPartitionedCall/convolution_12", "op": "Conv2D", "input": ["StatefulPartitionedCall/transpose_37", "StatefulPartitionedCall/split_12"], "device": "/device:CPU:0", "attr": {"use_cudnn_on_gpu": {"b": true}, "dilations": {"list": {"i": ["1", "1", "1", "1"]}}, "explicit_paddings": {"list": {}}, "T": {"type": "DT_FLOAT"}, "padding": {"s": "VkFMSUQ="}, "data_format": {"s": "TkhXQw=="}, "strides": {"list": {"i": ["1", "1", "1", "1"]}}}}, {"name": "StatefulPartitionedCall/Add_12", "op": "AddV2", "input": ["StatefulPartitionedCall/convolution_12", "unknown_24"], "attr": {"T": {"type": "DT_FLOAT"}}}, {"name": "StatefulPartitionedCall/transpose_38", "op": "Transpose", "input": ["StatefulPartitionedCall/Add_12", "StatefulPartitionedCall/transpose_38/perm"], "attr": {"Tperm": {"type": "DT_INT32"}, "T": {"type": "DT_FLOAT"}}}, {"name": "StatefulPartitionedCall/onnx_tf_prefix_/model.4/cv2/act/Sigmoid", "op": "Sigmoid", "input": ["StatefulPartitionedCall/transpose_38"], "attr": {"T": {"type": "DT_FLOAT"}}}, {"name": "StatefulPartitionedCall/onnx_tf_prefix_/model.4/cv2/act/Mul", "op": "Mul", "input": ["StatefulPartitionedCall/transpose_38", "StatefulPartitionedCall/onnx_tf_prefix_/model.4/cv2/act/Sigmoid"], "attr": {"T": {"type": "DT_FLOAT"}}}, {"name": "StatefulPartitionedCall/Pad_9", "op": "Pad", "input": ["StatefulPartitionedCall/onnx_tf_prefix_/model.4/cv2/act/Mul", "StatefulPartitionedCall/Const_9"], "attr": {"Tpaddings": {"type": "DT_INT32"}, "T": {"type": "DT_FLOAT"}}}, {"name": "StatefulPartitionedCall/transpose_40", "op": "Transpose", "input": ["StatefulPartitionedCall/Pad_9", "StatefulPartitionedCall/transpose_40/perm"], "attr": {"T": {"type": "DT_FLOAT"}, "Tperm": {"type": "DT_INT32"}}}, {"name": "StatefulPartitionedCall/convolution_13", "op": "Conv2D", "input": ["StatefulPartitionedCall/transpose_40", "StatefulPartitionedCall/split_13"], "device": "/device:CPU:0", "attr": {"data_format": {"s": "TkhXQw=="}, "padding": {"s": "VkFMSUQ="}, "use_cudnn_on_gpu": {"b": true}, "strides": {"list": {"i": ["1", "2", "2", "1"]}}, "dilations": {"list": {"i": ["1", "1", "1", "1"]}}, "explicit_paddings": {"list": {}}, "T": {"type": "DT_FLOAT"}}}, {"name": "StatefulPartitionedCall/Add_13", "op": "AddV2", "input": ["StatefulPartitionedCall/convolution_13", "unknown_26"], "attr": {"T": {"type": "DT_FLOAT"}}}, {"name": "StatefulPartitionedCall/transpose_41", "op": "Transpose", "input": ["StatefulPartitionedCall/Add_13", "StatefulPartitionedCall/transpose_41/perm"], "attr": {"Tperm": {"type": "DT_INT32"}, "T": {"type": "DT_FLOAT"}}}, {"name": "StatefulPartitionedCall/onnx_tf_prefix_/model.5/act/Sigmoid", "op": "Sigmoid", "input": ["StatefulPartitionedCall/transpose_41"], "attr": {"T": {"type": "DT_FLOAT"}}}, {"name": "StatefulPartitionedCall/onnx_tf_prefix_/model.5/act/Mul", "op": "Mul", "input": ["StatefulPartitionedCall/transpose_41", "StatefulPartitionedCall/onnx_tf_prefix_/model.5/act/Sigmoid"], "attr": {"T": {"type": "DT_FLOAT"}}}, {"name": "StatefulPartitionedCall/transpose_43", "op": "Transpose", "input": ["StatefulPartitionedCall/onnx_tf_prefix_/model.5/act/Mul", "StatefulPartitionedCall/transpose_43/perm"], "attr": {"Tperm": {"type": "DT_INT32"}, "T": {"type": "DT_FLOAT"}}}, {"name": "StatefulPartitionedCall/convolution_14", "op": "Conv2D", "input": ["StatefulPartitionedCall/transpose_43", "StatefulPartitionedCall/split_14"], "device": "/device:CPU:0", "attr": {"data_format": {"s": "TkhXQw=="}, "explicit_paddings": {"list": {}}, "dilations": {"list": {"i": ["1", "1", "1", "1"]}}, "strides": {"list": {"i": ["1", "1", "1", "1"]}}, "padding": {"s": "VkFMSUQ="}, "T": {"type": "DT_FLOAT"}, "use_cudnn_on_gpu": {"b": true}}}, {"name": "StatefulPartitionedCall/Add_14", "op": "AddV2", "input": ["StatefulPartitionedCall/convolution_14", "unknown_28"], "attr": {"T": {"type": "DT_FLOAT"}}}, {"name": "StatefulPartitionedCall/transpose_44", "op": "Transpose", "input": ["StatefulPartitionedCall/Add_14", "StatefulPartitionedCall/transpose_44/perm"], "attr": {"Tperm": {"type": "DT_INT32"}, "T": {"type": "DT_FLOAT"}}}, {"name": "StatefulPartitionedCall/onnx_tf_prefix_/model.6/cv1/act/Sigmoid", "op": "Sigmoid", "input": ["StatefulPartitionedCall/transpose_44"], "attr": {"T": {"type": "DT_FLOAT"}}}, {"name": "StatefulPartitionedCall/onnx_tf_prefix_/model.6/cv1/act/Mul", "op": "Mul", "input": ["StatefulPartitionedCall/transpose_44", "StatefulPartitionedCall/onnx_tf_prefix_/model.6/cv1/act/Sigmoid"], "attr": {"T": {"type": "DT_FLOAT"}}}, {"name": "StatefulPartitionedCall/onnx_tf_prefix_/model.6/Split", "op": "SplitV", "input": ["StatefulPartitionedCall/onnx_tf_prefix_/model.6/cv1/act/Mul", "StatefulPartitionedCall/onnx_tf_prefix_Constant_54", "StatefulPartitionedCall/onnx_tf_prefix_/model.6/Split/split_dim"], "attr": {"T": {"type": "DT_FLOAT"}, "num_split": {"i": "2"}, "Tlen": {"type": "DT_INT64"}}}, {"name": "StatefulPartitionedCall/Pad_10", "op": "Pad", "input": ["StatefulPartitionedCall/onnx_tf_prefix_/model.6/Split:1", "StatefulPartitionedCall/Const_10"], "attr": {"T": {"type": "DT_FLOAT"}, "Tpaddings": {"type": "DT_INT32"}}}, {"name": "StatefulPartitionedCall/transpose_46", "op": "Transpose", "input": ["StatefulPartitionedCall/Pad_10", "StatefulPartitionedCall/transpose_46/perm"], "attr": {"Tperm": {"type": "DT_INT32"}, "T": {"type": "DT_FLOAT"}}}, {"name": "StatefulPartitionedCall/convolution_15", "op": "Conv2D", "input": ["StatefulPartitionedCall/transpose_46", "StatefulPartitionedCall/split_15"], "device": "/device:CPU:0", "attr": {"padding": {"s": "VkFMSUQ="}, "strides": {"list": {"i": ["1", "1", "1", "1"]}}, "T": {"type": "DT_FLOAT"}, "explicit_paddings": {"list": {}}, "data_format": {"s": "TkhXQw=="}, "dilations": {"list": {"i": ["1", "1", "1", "1"]}}, "use_cudnn_on_gpu": {"b": true}}}, {"name": "StatefulPartitionedCall/Add_15", "op": "AddV2", "input": ["StatefulPartitionedCall/convolution_15", "unknown_30"], "attr": {"T": {"type": "DT_FLOAT"}}}, {"name": "StatefulPartitionedCall/transpose_47", "op": "Transpose", "input": ["StatefulPartitionedCall/Add_15", "StatefulPartitionedCall/transpose_47/perm"], "attr": {"Tperm": {"type": "DT_INT32"}, "T": {"type": "DT_FLOAT"}}}, {"name": "StatefulPartitionedCall/onnx_tf_prefix_/model.6/m.0/cv1/act/Sigmoid", "op": "Sigmoid", "input": ["StatefulPartitionedCall/transpose_47"], "attr": {"T": {"type": "DT_FLOAT"}}}, {"name": "StatefulPartitionedCall/onnx_tf_prefix_/model.6/m.0/cv1/act/Mul", "op": "Mul", "input": ["StatefulPartitionedCall/transpose_47", "StatefulPartitionedCall/onnx_tf_prefix_/model.6/m.0/cv1/act/Sigmoid"], "attr": {"T": {"type": "DT_FLOAT"}}}, {"name": "StatefulPartitionedCall/Pad_11", "op": "Pad", "input": ["StatefulPartitionedCall/onnx_tf_prefix_/model.6/m.0/cv1/act/Mul", "StatefulPartitionedCall/Const_11"], "attr": {"T": {"type": "DT_FLOAT"}, "Tpaddings": {"type": "DT_INT32"}}}, {"name": "StatefulPartitionedCall/transpose_49", "op": "Transpose", "input": ["StatefulPartitionedCall/Pad_11", "StatefulPartitionedCall/transpose_49/perm"], "attr": {"Tperm": {"type": "DT_INT32"}, "T": {"type": "DT_FLOAT"}}}, {"name": "StatefulPartitionedCall/convolution_16", "op": "Conv2D", "input": ["StatefulPartitionedCall/transpose_49", "StatefulPartitionedCall/split_16"], "device": "/device:CPU:0", "attr": {"strides": {"list": {"i": ["1", "1", "1", "1"]}}, "T": {"type": "DT_FLOAT"}, "dilations": {"list": {"i": ["1", "1", "1", "1"]}}, "explicit_paddings": {"list": {}}, "data_format": {"s": "TkhXQw=="}, "use_cudnn_on_gpu": {"b": true}, "padding": {"s": "VkFMSUQ="}}}, {"name": "StatefulPartitionedCall/Add_16", "op": "AddV2", "input": ["StatefulPartitionedCall/convolution_16", "unknown_32"], "attr": {"T": {"type": "DT_FLOAT"}}}, {"name": "StatefulPartitionedCall/transpose_50", "op": "Transpose", "input": ["StatefulPartitionedCall/Add_16", "StatefulPartitionedCall/transpose_50/perm"], "attr": {"Tperm": {"type": "DT_INT32"}, "T": {"type": "DT_FLOAT"}}}, {"name": "StatefulPartitionedCall/onnx_tf_prefix_/model.6/m.0/cv2/act/Sigmoid", "op": "Sigmoid", "input": ["StatefulPartitionedCall/transpose_50"], "attr": {"T": {"type": "DT_FLOAT"}}}, {"name": "StatefulPartitionedCall/onnx_tf_prefix_/model.6/m.0/cv2/act/Mul", "op": "Mul", "input": ["StatefulPartitionedCall/transpose_50", "StatefulPartitionedCall/onnx_tf_prefix_/model.6/m.0/cv2/act/Sigmoid"], "attr": {"T": {"type": "DT_FLOAT"}}}, {"name": "StatefulPartitionedCall/onnx_tf_prefix_/model.6/m.0/Add", "op": "AddV2", "input": ["StatefulPartitionedCall/onnx_tf_prefix_/model.6/Split:1", "StatefulPartitionedCall/onnx_tf_prefix_/model.6/m.0/cv2/act/Mul"], "attr": {"T": {"type": "DT_FLOAT"}}}, {"name": "StatefulPartitionedCall/Pad_12", "op": "Pad", "input": ["StatefulPartitionedCall/onnx_tf_prefix_/model.6/m.0/Add", "StatefulPartitionedCall/Const_12"], "attr": {"T": {"type": "DT_FLOAT"}, "Tpaddings": {"type": "DT_INT32"}}}, {"name": "StatefulPartitionedCall/transpose_52", "op": "Transpose", "input": ["StatefulPartitionedCall/Pad_12", "StatefulPartitionedCall/transpose_52/perm"], "attr": {"T": {"type": "DT_FLOAT"}, "Tperm": {"type": "DT_INT32"}}}, {"name": "StatefulPartitionedCall/convolution_17", "op": "Conv2D", "input": ["StatefulPartitionedCall/transpose_52", "StatefulPartitionedCall/split_17"], "device": "/device:CPU:0", "attr": {"explicit_paddings": {"list": {}}, "padding": {"s": "VkFMSUQ="}, "data_format": {"s": "TkhXQw=="}, "dilations": {"list": {"i": ["1", "1", "1", "1"]}}, "strides": {"list": {"i": ["1", "1", "1", "1"]}}, "use_cudnn_on_gpu": {"b": true}, "T": {"type": "DT_FLOAT"}}}, {"name": "StatefulPartitionedCall/Add_17", "op": "AddV2", "input": ["StatefulPartitionedCall/convolution_17", "unknown_34"], "attr": {"T": {"type": "DT_FLOAT"}}}, {"name": "StatefulPartitionedCall/transpose_53", "op": "Transpose", "input": ["StatefulPartitionedCall/Add_17", "StatefulPartitionedCall/transpose_53/perm"], "attr": {"T": {"type": "DT_FLOAT"}, "Tperm": {"type": "DT_INT32"}}}, {"name": "StatefulPartitionedCall/onnx_tf_prefix_/model.6/m.1/cv1/act/Sigmoid", "op": "Sigmoid", "input": ["StatefulPartitionedCall/transpose_53"], "attr": {"T": {"type": "DT_FLOAT"}}}, {"name": "StatefulPartitionedCall/onnx_tf_prefix_/model.6/m.1/cv1/act/Mul", "op": "Mul", "input": ["StatefulPartitionedCall/transpose_53", "StatefulPartitionedCall/onnx_tf_prefix_/model.6/m.1/cv1/act/Sigmoid"], "attr": {"T": {"type": "DT_FLOAT"}}}, {"name": "StatefulPartitionedCall/Pad_13", "op": "Pad", "input": ["StatefulPartitionedCall/onnx_tf_prefix_/model.6/m.1/cv1/act/Mul", "StatefulPartitionedCall/Const_13"], "attr": {"Tpaddings": {"type": "DT_INT32"}, "T": {"type": "DT_FLOAT"}}}, {"name": "StatefulPartitionedCall/transpose_55", "op": "Transpose", "input": ["StatefulPartitionedCall/Pad_13", "StatefulPartitionedCall/transpose_55/perm"], "attr": {"Tperm": {"type": "DT_INT32"}, "T": {"type": "DT_FLOAT"}}}, {"name": "StatefulPartitionedCall/convolution_18", "op": "Conv2D", "input": ["StatefulPartitionedCall/transpose_55", "StatefulPartitionedCall/split_18"], "device": "/device:CPU:0", "attr": {"T": {"type": "DT_FLOAT"}, "data_format": {"s": "TkhXQw=="}, "padding": {"s": "VkFMSUQ="}, "dilations": {"list": {"i": ["1", "1", "1", "1"]}}, "strides": {"list": {"i": ["1", "1", "1", "1"]}}, "use_cudnn_on_gpu": {"b": true}, "explicit_paddings": {"list": {}}}}, {"name": "StatefulPartitionedCall/Add_18", "op": "AddV2", "input": ["StatefulPartitionedCall/convolution_18", "unknown_36"], "attr": {"T": {"type": "DT_FLOAT"}}}, {"name": "StatefulPartitionedCall/transpose_56", "op": "Transpose", "input": ["StatefulPartitionedCall/Add_18", "StatefulPartitionedCall/transpose_56/perm"], "attr": {"T": {"type": "DT_FLOAT"}, "Tperm": {"type": "DT_INT32"}}}, {"name": "StatefulPartitionedCall/onnx_tf_prefix_/model.6/m.1/cv2/act/Sigmoid", "op": "Sigmoid", "input": ["StatefulPartitionedCall/transpose_56"], "attr": {"T": {"type": "DT_FLOAT"}}}, {"name": "StatefulPartitionedCall/onnx_tf_prefix_/model.6/m.1/cv2/act/Mul", "op": "Mul", "input": ["StatefulPartitionedCall/transpose_56", "StatefulPartitionedCall/onnx_tf_prefix_/model.6/m.1/cv2/act/Sigmoid"], "attr": {"T": {"type": "DT_FLOAT"}}}, {"name": "StatefulPartitionedCall/onnx_tf_prefix_/model.6/m.1/Add", "op": "AddV2", "input": ["StatefulPartitionedCall/onnx_tf_prefix_/model.6/m.0/Add", "StatefulPartitionedCall/onnx_tf_prefix_/model.6/m.1/cv2/act/Mul"], "attr": {"T": {"type": "DT_FLOAT"}}}, {"name": "StatefulPartitionedCall/onnx_tf_prefix_/model.6/Concat", "op": "ConcatV2", "input": ["StatefulPartitionedCall/onnx_tf_prefix_/model.6/Split", "StatefulPartitionedCall/onnx_tf_prefix_/model.6/Split:1", "StatefulPartitionedCall/onnx_tf_prefix_/model.6/m.0/Add", "StatefulPartitionedCall/onnx_tf_prefix_/model.6/m.1/Add", "StatefulPartitionedCall/onnx_tf_prefix_/model.6/Concat/axis"], "attr": {"N": {"i": "4"}, "T": {"type": "DT_FLOAT"}, "Tidx": {"type": "DT_INT32"}}}, {"name": "StatefulPartitionedCall/transpose_58", "op": "Transpose", "input": ["StatefulPartitionedCall/onnx_tf_prefix_/model.6/Concat", "StatefulPartitionedCall/transpose_58/perm"], "attr": {"Tperm": {"type": "DT_INT32"}, "T": {"type": "DT_FLOAT"}}}, {"name": "StatefulPartitionedCall/convolution_19", "op": "Conv2D", "input": ["StatefulPartitionedCall/transpose_58", "StatefulPartitionedCall/split_19"], "device": "/device:CPU:0", "attr": {"padding": {"s": "VkFMSUQ="}, "T": {"type": "DT_FLOAT"}, "strides": {"list": {"i": ["1", "1", "1", "1"]}}, "dilations": {"list": {"i": ["1", "1", "1", "1"]}}, "use_cudnn_on_gpu": {"b": true}, "data_format": {"s": "TkhXQw=="}, "explicit_paddings": {"list": {}}}}, {"name": "StatefulPartitionedCall/Add_19", "op": "AddV2", "input": ["StatefulPartitionedCall/convolution_19", "unknown_38"], "attr": {"T": {"type": "DT_FLOAT"}}}, {"name": "StatefulPartitionedCall/transpose_59", "op": "Transpose", "input": ["StatefulPartitionedCall/Add_19", "StatefulPartitionedCall/transpose_59/perm"], "attr": {"Tperm": {"type": "DT_INT32"}, "T": {"type": "DT_FLOAT"}}}, {"name": "StatefulPartitionedCall/onnx_tf_prefix_/model.6/cv2/act/Sigmoid", "op": "Sigmoid", "input": ["StatefulPartitionedCall/transpose_59"], "attr": {"T": {"type": "DT_FLOAT"}}}, {"name": "StatefulPartitionedCall/onnx_tf_prefix_/model.6/cv2/act/Mul", "op": "Mul", "input": ["StatefulPartitionedCall/transpose_59", "StatefulPartitionedCall/onnx_tf_prefix_/model.6/cv2/act/Sigmoid"], "attr": {"T": {"type": "DT_FLOAT"}}}, {"name": "StatefulPartitionedCall/Pad_14", "op": "Pad", "input": ["StatefulPartitionedCall/onnx_tf_prefix_/model.6/cv2/act/Mul", "StatefulPartitionedCall/Const_14"], "attr": {"Tpaddings": {"type": "DT_INT32"}, "T": {"type": "DT_FLOAT"}}}, {"name": "StatefulPartitionedCall/transpose_61", "op": "Transpose", "input": ["StatefulPartitionedCall/Pad_14", "StatefulPartitionedCall/transpose_61/perm"], "attr": {"Tperm": {"type": "DT_INT32"}, "T": {"type": "DT_FLOAT"}}}, {"name": "StatefulPartitionedCall/convolution_20", "op": "Conv2D", "input": ["StatefulPartitionedCall/transpose_61", "StatefulPartitionedCall/split_20"], "device": "/device:CPU:0", "attr": {"use_cudnn_on_gpu": {"b": true}, "explicit_paddings": {"list": {}}, "dilations": {"list": {"i": ["1", "1", "1", "1"]}}, "strides": {"list": {"i": ["1", "2", "2", "1"]}}, "T": {"type": "DT_FLOAT"}, "padding": {"s": "VkFMSUQ="}, "data_format": {"s": "TkhXQw=="}}}, {"name": "StatefulPartitionedCall/Add_20", "op": "AddV2", "input": ["StatefulPartitionedCall/convolution_20", "unknown_40"], "attr": {"T": {"type": "DT_FLOAT"}}}, {"name": "StatefulPartitionedCall/transpose_62", "op": "Transpose", "input": ["StatefulPartitionedCall/Add_20", "StatefulPartitionedCall/transpose_62/perm"], "attr": {"T": {"type": "DT_FLOAT"}, "Tperm": {"type": "DT_INT32"}}}, {"name": "StatefulPartitionedCall/onnx_tf_prefix_/model.7/act/Sigmoid", "op": "Sigmoid", "input": ["StatefulPartitionedCall/transpose_62"], "attr": {"T": {"type": "DT_FLOAT"}}}, {"name": "StatefulPartitionedCall/onnx_tf_prefix_/model.7/act/Mul", "op": "Mul", "input": ["StatefulPartitionedCall/transpose_62", "StatefulPartitionedCall/onnx_tf_prefix_/model.7/act/Sigmoid"], "attr": {"T": {"type": "DT_FLOAT"}}}, {"name": "StatefulPartitionedCall/transpose_64", "op": "Transpose", "input": ["StatefulPartitionedCall/onnx_tf_prefix_/model.7/act/Mul", "StatefulPartitionedCall/transpose_64/perm"], "attr": {"Tperm": {"type": "DT_INT32"}, "T": {"type": "DT_FLOAT"}}}, {"name": "StatefulPartitionedCall/convolution_21", "op": "Conv2D", "input": ["StatefulPartitionedCall/transpose_64", "StatefulPartitionedCall/split_21"], "device": "/device:CPU:0", "attr": {"padding": {"s": "VkFMSUQ="}, "strides": {"list": {"i": ["1", "1", "1", "1"]}}, "use_cudnn_on_gpu": {"b": true}, "T": {"type": "DT_FLOAT"}, "explicit_paddings": {"list": {}}, "data_format": {"s": "TkhXQw=="}, "dilations": {"list": {"i": ["1", "1", "1", "1"]}}}}, {"name": "StatefulPartitionedCall/Add_21", "op": "AddV2", "input": ["StatefulPartitionedCall/convolution_21", "unknown_42"], "attr": {"T": {"type": "DT_FLOAT"}}}, {"name": "StatefulPartitionedCall/transpose_65", "op": "Transpose", "input": ["StatefulPartitionedCall/Add_21", "StatefulPartitionedCall/transpose_65/perm"], "attr": {"Tperm": {"type": "DT_INT32"}, "T": {"type": "DT_FLOAT"}}}, {"name": "StatefulPartitionedCall/onnx_tf_prefix_/model.8/cv1/act/Sigmoid", "op": "Sigmoid", "input": ["StatefulPartitionedCall/transpose_65"], "attr": {"T": {"type": "DT_FLOAT"}}}, {"name": "StatefulPartitionedCall/onnx_tf_prefix_/model.8/cv1/act/Mul", "op": "Mul", "input": ["StatefulPartitionedCall/transpose_65", "StatefulPartitionedCall/onnx_tf_prefix_/model.8/cv1/act/Sigmoid"], "attr": {"T": {"type": "DT_FLOAT"}}}, {"name": "StatefulPartitionedCall/onnx_tf_prefix_/model.8/Split", "op": "SplitV", "input": ["StatefulPartitionedCall/onnx_tf_prefix_/model.8/cv1/act/Mul", "StatefulPartitionedCall/onnx_tf_prefix_Constant_80", "StatefulPartitionedCall/onnx_tf_prefix_/model.8/Split/split_dim"], "attr": {"num_split": {"i": "2"}, "Tlen": {"type": "DT_INT64"}, "T": {"type": "DT_FLOAT"}}}, {"name": "StatefulPartitionedCall/Pad_15", "op": "Pad", "input": ["StatefulPartitionedCall/onnx_tf_prefix_/model.8/Split:1", "StatefulPartitionedCall/Const_15"], "attr": {"Tpaddings": {"type": "DT_INT32"}, "T": {"type": "DT_FLOAT"}}}, {"name": "StatefulPartitionedCall/transpose_67", "op": "Transpose", "input": ["StatefulPartitionedCall/Pad_15", "StatefulPartitionedCall/transpose_67/perm"], "attr": {"T": {"type": "DT_FLOAT"}, "Tperm": {"type": "DT_INT32"}}}, {"name": "StatefulPartitionedCall/convolution_22", "op": "Conv2D", "input": ["StatefulPartitionedCall/transpose_67", "StatefulPartitionedCall/split_22"], "device": "/device:CPU:0", "attr": {"explicit_paddings": {"list": {}}, "dilations": {"list": {"i": ["1", "1", "1", "1"]}}, "padding": {"s": "VkFMSUQ="}, "data_format": {"s": "TkhXQw=="}, "T": {"type": "DT_FLOAT"}, "use_cudnn_on_gpu": {"b": true}, "strides": {"list": {"i": ["1", "1", "1", "1"]}}}}, {"name": "StatefulPartitionedCall/Add_22", "op": "AddV2", "input": ["StatefulPartitionedCall/convolution_22", "unknown_44"], "attr": {"T": {"type": "DT_FLOAT"}}}, {"name": "StatefulPartitionedCall/transpose_68", "op": "Transpose", "input": ["StatefulPartitionedCall/Add_22", "StatefulPartitionedCall/transpose_68/perm"], "attr": {"T": {"type": "DT_FLOAT"}, "Tperm": {"type": "DT_INT32"}}}, {"name": "StatefulPartitionedCall/onnx_tf_prefix_/model.8/m.0/cv1/act/Sigmoid", "op": "Sigmoid", "input": ["StatefulPartitionedCall/transpose_68"], "attr": {"T": {"type": "DT_FLOAT"}}}, {"name": "StatefulPartitionedCall/onnx_tf_prefix_/model.8/m.0/cv1/act/Mul", "op": "Mul", "input": ["StatefulPartitionedCall/transpose_68", "StatefulPartitionedCall/onnx_tf_prefix_/model.8/m.0/cv1/act/Sigmoid"], "attr": {"T": {"type": "DT_FLOAT"}}}, {"name": "StatefulPartitionedCall/Pad_16", "op": "Pad", "input": ["StatefulPartitionedCall/onnx_tf_prefix_/model.8/m.0/cv1/act/Mul", "StatefulPartitionedCall/Const_16"], "attr": {"Tpaddings": {"type": "DT_INT32"}, "T": {"type": "DT_FLOAT"}}}, {"name": "StatefulPartitionedCall/transpose_70", "op": "Transpose", "input": ["StatefulPartitionedCall/Pad_16", "StatefulPartitionedCall/transpose_70/perm"], "attr": {"Tperm": {"type": "DT_INT32"}, "T": {"type": "DT_FLOAT"}}}, {"name": "StatefulPartitionedCall/convolution_23", "op": "Conv2D", "input": ["StatefulPartitionedCall/transpose_70", "StatefulPartitionedCall/split_23"], "device": "/device:CPU:0", "attr": {"use_cudnn_on_gpu": {"b": true}, "explicit_paddings": {"list": {}}, "data_format": {"s": "TkhXQw=="}, "T": {"type": "DT_FLOAT"}, "padding": {"s": "VkFMSUQ="}, "strides": {"list": {"i": ["1", "1", "1", "1"]}}, "dilations": {"list": {"i": ["1", "1", "1", "1"]}}}}, {"name": "StatefulPartitionedCall/Add_23", "op": "AddV2", "input": ["StatefulPartitionedCall/convolution_23", "unknown_46"], "attr": {"T": {"type": "DT_FLOAT"}}}, {"name": "StatefulPartitionedCall/transpose_71", "op": "Transpose", "input": ["StatefulPartitionedCall/Add_23", "StatefulPartitionedCall/transpose_71/perm"], "attr": {"Tperm": {"type": "DT_INT32"}, "T": {"type": "DT_FLOAT"}}}, {"name": "StatefulPartitionedCall/onnx_tf_prefix_/model.8/m.0/cv2/act/Sigmoid", "op": "Sigmoid", "input": ["StatefulPartitionedCall/transpose_71"], "attr": {"T": {"type": "DT_FLOAT"}}}, {"name": "StatefulPartitionedCall/onnx_tf_prefix_/model.8/m.0/cv2/act/Mul", "op": "Mul", "input": ["StatefulPartitionedCall/transpose_71", "StatefulPartitionedCall/onnx_tf_prefix_/model.8/m.0/cv2/act/Sigmoid"], "attr": {"T": {"type": "DT_FLOAT"}}}, {"name": "StatefulPartitionedCall/onnx_tf_prefix_/model.8/m.0/Add", "op": "AddV2", "input": ["StatefulPartitionedCall/onnx_tf_prefix_/model.8/Split:1", "StatefulPartitionedCall/onnx_tf_prefix_/model.8/m.0/cv2/act/Mul"], "attr": {"T": {"type": "DT_FLOAT"}}}, {"name": "StatefulPartitionedCall/onnx_tf_prefix_/model.8/Concat", "op": "ConcatV2", "input": ["StatefulPartitionedCall/onnx_tf_prefix_/model.8/Split", "StatefulPartitionedCall/onnx_tf_prefix_/model.8/Split:1", "StatefulPartitionedCall/onnx_tf_prefix_/model.8/m.0/Add", "StatefulPartitionedCall/onnx_tf_prefix_/model.8/Concat/axis"], "attr": {"T": {"type": "DT_FLOAT"}, "Tidx": {"type": "DT_INT32"}, "N": {"i": "3"}}}, {"name": "StatefulPartitionedCall/transpose_73", "op": "Transpose", "input": ["StatefulPartitionedCall/onnx_tf_prefix_/model.8/Concat", "StatefulPartitionedCall/transpose_73/perm"], "attr": {"T": {"type": "DT_FLOAT"}, "Tperm": {"type": "DT_INT32"}}}, {"name": "StatefulPartitionedCall/convolution_24", "op": "Conv2D", "input": ["StatefulPartitionedCall/transpose_73", "StatefulPartitionedCall/split_24"], "device": "/device:CPU:0", "attr": {"strides": {"list": {"i": ["1", "1", "1", "1"]}}, "explicit_paddings": {"list": {}}, "dilations": {"list": {"i": ["1", "1", "1", "1"]}}, "padding": {"s": "VkFMSUQ="}, "use_cudnn_on_gpu": {"b": true}, "data_format": {"s": "TkhXQw=="}, "T": {"type": "DT_FLOAT"}}}, {"name": "StatefulPartitionedCall/Add_24", "op": "AddV2", "input": ["StatefulPartitionedCall/convolution_24", "unknown_48"], "attr": {"T": {"type": "DT_FLOAT"}}}, {"name": "StatefulPartitionedCall/transpose_74", "op": "Transpose", "input": ["StatefulPartitionedCall/Add_24", "StatefulPartitionedCall/transpose_74/perm"], "at…
ist": {"i": ["1", "1", "1", "1"]}}, "T": {"type": "DT_FLOAT"}, "explicit_paddings": {"list": {}}, "use_cudnn_on_gpu": {"b": true}, "strides": {"list": {"i": ["1", "1", "1", "1"]}}}}, {"name": "StatefulPartitionedCall/convolution_74", "op": "Conv2D", "input": ["StatefulPartitionedCall/transpose_236", "StatefulPartitionedCall/split_75"], "device": "/device:CPU:0", "attr": {"explicit_paddings": {"list": {}}, "use_cudnn_on_gpu": {"b": true}, "data_format": {"s": "TkhXQw=="}, "strides": {"list": {"i": ["1", "1", "1", "1"]}}, "T": {"type": "DT_FLOAT"}, "dilations": {"list": {"i": ["1", "1", "1", "1"]}}, "padding": {"s": "VkFMSUQ="}}}, {"name": "StatefulPartitionedCall/convolution_56", "op": "Conv2D", "input": ["StatefulPartitionedCall/transpose_182", "StatefulPartitionedCall/split_57"], "device": "/device:CPU:0", "attr": {"T": {"type": "DT_FLOAT"}, "explicit_paddings": {"list": {}}, "use_cudnn_on_gpu": {"b": true}, "padding": {"s": "VkFMSUQ="}, "dilations": {"list": {"i": ["1", "1", "1", "1"]}}, "data_format": {"s": "TkhXQw=="}, "strides": {"list": {"i": ["1", "1", "1", "1"]}}}}, {"name": "StatefulPartitionedCall/Add_75", "op": "AddV2", "input": ["StatefulPartitionedCall/convolution_71", "unknown_144"], "attr": {"T": {"type": "DT_FLOAT"}}}, {"name": "StatefulPartitionedCall/Add_78", "op": "AddV2", "input": ["StatefulPartitionedCall/convolution_74", "unknown_150"], "attr": {"T": {"type": "DT_FLOAT"}}}, {"name": "StatefulPartitionedCall/Add_59", "op": "AddV2", "input": ["StatefulPartitionedCall/convolution_56", "unknown_114"], "attr": {"T": {"type": "DT_FLOAT"}}}, {"name": "StatefulPartitionedCall/transpose_228", "op": "Transpose", "input": ["StatefulPartitionedCall/Add_75", "StatefulPartitionedCall/transpose_228/perm"], "attr": {"Tperm": {"type": "DT_INT32"}, "T": {"type": "DT_FLOAT"}}}, {"name": "StatefulPartitionedCall/transpose_237", "op": "Transpose", "input": ["StatefulPartitionedCall/Add_78", "StatefulPartitionedCall/transpose_237/perm"], "attr": {"Tperm": {"type": "DT_INT32"}, "T": {"type": "DT_FLOAT"}}}, {"name": "StatefulPartitionedCall/transpose_183", "op": "Transpose", "input": ["StatefulPartitionedCall/Add_59", "StatefulPartitionedCall/transpose_183/perm"], "attr": {"Tperm": {"type": "DT_INT32"}, "T": {"type": "DT_FLOAT"}}}, {"name": "StatefulPartitionedCall/onnx_tf_prefix_/model.22/Concat_3", "op": "ConcatV2", "input": ["StatefulPartitionedCall/transpose_228", "StatefulPartitionedCall/transpose_237", "StatefulPartitionedCall/onnx_tf_prefix_/model.22/Concat_3/axis"], "attr": {"N": {"i": "2"}, "T": {"type": "DT_FLOAT"}, "Tidx": {"type": "DT_INT32"}}}, {"name": "StatefulPartitionedCall/onnx_tf_prefix_/model.22/Reshape_2", "op": "Reshape", "input": ["StatefulPartitionedCall/transpose_183", "StatefulPartitionedCall/add_60"], "attr": {"T": {"type": "DT_FLOAT"}, "Tshape": {"type": "DT_INT64"}}}, {"name": "StatefulPartitionedCall/onnx_tf_prefix_/model.22/Reshape_5", "op": "Reshape", "input": ["StatefulPartitionedCall/onnx_tf_prefix_/model.22/Concat_3", "StatefulPartitionedCall/add_81"], "attr": {"Tshape": {"type": "DT_INT64"}, "T": {"type": "DT_FLOAT"}}}, {"name": "StatefulPartitionedCall/onnx_tf_prefix_/model.22/Concat", "op": "ConcatV2", "input": ["StatefulPartitionedCall/onnx_tf_prefix_/model.22/Reshape", "StatefulPartitionedCall/onnx_tf_prefix_/model.22/Reshape_1", "StatefulPartitionedCall/onnx_tf_prefix_/model.22/Reshape_2", "StatefulPartitionedCall/onnx_tf_prefix_/model.22/Concat/axis"], "attr": {"N": {"i": "3"}, "T": {"type": "DT_FLOAT"}, "Tidx": {"type": "DT_INT32"}}}, {"name": "StatefulPartitionedCall/onnx_tf_prefix_/model.22/Concat_4", "op": "ConcatV2", "input": ["StatefulPartitionedCall/onnx_tf_prefix_/model.22/Reshape_3", "StatefulPartitionedCall/onnx_tf_prefix_/model.22/Reshape_4", "StatefulPartitionedCall/onnx_tf_prefix_/model.22/Reshape_5", "StatefulPartitionedCall/onnx_tf_prefix_/model.22/Concat_4/axis"], "attr": {"N": {"i": "3"}, "T": {"type": "DT_FLOAT"}, "Tidx": {"type": "DT_INT32"}}}, {"name": "StatefulPartitionedCall/onnx_tf_prefix_/model.22/Split", "op": "SplitV", "input": ["StatefulPartitionedCall/onnx_tf_prefix_/model.22/Concat_4", "StatefulPartitionedCall/onnx_tf_prefix_Constant_263", "StatefulPartitionedCall/onnx_tf_prefix_/model.22/Split/split_dim"], "attr": {"Tlen": {"type": "DT_INT64"}, "T": {"type": "DT_FLOAT"}, "num_split": {"i": "2"}}}, {"name": "StatefulPartitionedCall/onnx_tf_prefix_/model.22/dfl/Reshape", "op": "Reshape", "input": ["StatefulPartitionedCall/onnx_tf_prefix_/model.22/Split", "StatefulPartitionedCall/add_82"], "attr": {"Tshape": {"type": "DT_INT64"}, "T": {"type": "DT_FLOAT"}}}, {"name": "StatefulPartitionedCall/onnx_tf_prefix_/model.22/Sigmoid", "op": "Sigmoid", "input": ["StatefulPartitionedCall/onnx_tf_prefix_/model.22/Split:1"], "attr": {"T": {"type": "DT_FLOAT"}}}, {"name": "StatefulPartitionedCall/onnx_tf_prefix_/model.22/dfl/Transpose", "op": "Transpose", "input": ["StatefulPartitionedCall/onnx_tf_prefix_/model.22/dfl/Reshape", "StatefulPartitionedCall/onnx_tf_prefix_/model.22/dfl/Transpose/perm"], "attr": {"T": {"type": "DT_FLOAT"}, "Tperm": {"type": "DT_INT32"}}}, {"name": "StatefulPartitionedCall/transpose_238", "op": "Transpose", "input": ["StatefulPartitionedCall/onnx_tf_prefix_/model.22/dfl/Transpose", "StatefulPartitionedCall/concat_76"], "attr": {"T": {"type": "DT_FLOAT"}, "Tperm": {"type": "DT_INT32"}}}, {"name": "StatefulPartitionedCall/Softmax", "op": "Softmax", "input": ["StatefulPartitionedCall/transpose_238"], "attr": {"T": {"type": "DT_FLOAT"}}}, {"name": "StatefulPartitionedCall/onnx_tf_prefix_/model.22/dfl/Softmax", "op": "Transpose", "input": ["StatefulPartitionedCall/Softmax", "StatefulPartitionedCall/concat_77"], "attr": {"T": {"type": "DT_FLOAT"}, "Tperm": {"type": "DT_INT32"}}}, {"name": "StatefulPartitionedCall/transpose_240", "op": "Transpose", "input": ["StatefulPartitionedCall/onnx_tf_prefix_/model.22/dfl/Softmax", "StatefulPartitionedCall/transpose_240/perm"], "attr": {"T": {"type": "DT_FLOAT"}, "Tperm": {"type": "DT_INT32"}}}, {"name": "StatefulPartitionedCall/convolution_75", "op": "Conv2D", "input": ["StatefulPartitionedCall/transpose_240", "StatefulPartitionedCall/split_76"], "device": "/device:CPU:0", "attr": {"T": {"type": "DT_FLOAT"}, "strides": {"list": {"i": ["1", "1", "1", "1"]}}, "use_cudnn_on_gpu": {"b": true}, "padding": {"s": "VkFMSUQ="}, "explicit_paddings": {"list": {}}, "dilations": {"list": {"i": ["1", "1", "1", "1"]}}, "data_format": {"s": "TkhXQw=="}}}, {"name": "StatefulPartitionedCall/transpose_241", "op": "Transpose", "input": ["StatefulPartitionedCall/convolution_75", "StatefulPartitionedCall/transpose_241/perm"], "attr": {"Tperm": {"type": "DT_INT32"}, "T": {"type": "DT_FLOAT"}}}, {"name": "StatefulPartitionedCall/onnx_tf_prefix_/model.22/dfl/Reshape_1", "op": "Reshape", "input": ["StatefulPartitionedCall/transpose_241", "StatefulPartitionedCall/add_83"], "attr": {"T": {"type": "DT_FLOAT"}, "Tshape": {"type": "DT_INT64"}}}, {"name": "StatefulPartitionedCall/onnx_tf_prefix_/model.22/Slice_1", "op": "StridedSlice", "input": ["StatefulPartitionedCall/onnx_tf_prefix_/model.22/dfl/Reshape_1", "StatefulPartitionedCall/SparseToDense_10", "StatefulPartitionedCall/SelectV2_7", "StatefulPartitionedCall/ones_1"], "attr": {"ellipsis_mask": {"i": "0"}, "end_mask": {"i": "0"}, "shrink_axis_mask": {"i": "0"}, "Index": {"type": "DT_INT64"}, "T": {"type": "DT_FLOAT"}, "begin_mask": {"i": "0"}, "new_axis_mask": {"i": "0"}}}, {"name": "StatefulPartitionedCall/onnx_tf_prefix_/model.22/Slice", "op": "StridedSlice", "input": ["StatefulPartitionedCall/onnx_tf_prefix_/model.22/dfl/Reshape_1", "StatefulPartitionedCall/SparseToDense_8", "StatefulPartitionedCall/SelectV2_3", "StatefulPartitionedCall/ones"], "attr": {"new_axis_mask": {"i": "0"}, "end_mask": {"i": "0"}, "Index": {"type": "DT_INT64"}, "ellipsis_mask": {"i": "0"}, "T": {"type": "DT_FLOAT"}, "shrink_axis_mask": {"i": "0"}, "begin_mask": {"i": "0"}}}, {"name": "StatefulPartitionedCall/onnx_tf_prefix_/model.22/Add_1", "op": "AddV2", "input": ["StatefulPartitionedCall/onnx_tf_prefix_/model.22/Constant_13", "StatefulPartitionedCall/onnx_tf_prefix_/model.22/Slice_1"], "attr": {"T": {"type": "DT_FLOAT"}}}, {"name": "StatefulPartitionedCall/onnx_tf_prefix_/model.22/Sub", "op": "Sub", "input": ["StatefulPartitionedCall/onnx_tf_prefix_/model.22/Constant_12", "StatefulPartitionedCall/onnx_tf_prefix_/model.22/Slice"], "attr": {"T": {"type": "DT_FLOAT"}}}, {"name": "StatefulPartitionedCall/onnx_tf_prefix_/model.22/Add_2", "op": "AddV2", "input": ["StatefulPartitionedCall/onnx_tf_prefix_/model.22/Sub", "StatefulPartitionedCall/onnx_tf_prefix_/model.22/Add_1"], "attr": {"T": {"type": "DT_FLOAT"}}}, {"name": "StatefulPartitionedCall/onnx_tf_prefix_/model.22/Sub_1", "op": "Sub", "input": ["StatefulPartitionedCall/onnx_tf_prefix_/model.22/Add_1", "StatefulPartitionedCall/onnx_tf_prefix_/model.22/Sub"], "attr": {"T": {"type": "DT_FLOAT"}}}, {"name": "StatefulPartitionedCall/onnx_tf_prefix_/model.22/Div_1", "op": "Mul", "input": ["StatefulPartitionedCall/onnx_tf_prefix_/model.22/Add_2", "ConstantFolding/StatefulPartitionedCall/onnx_tf_prefix_/model.22/Div_1_recip"], "attr": {"T": {"type": "DT_FLOAT"}}}, {"name": "StatefulPartitionedCall/onnx_tf_prefix_/model.22/Concat_5", "op": "ConcatV2", "input": ["StatefulPartitionedCall/onnx_tf_prefix_/model.22/Div_1", "StatefulPartitionedCall/onnx_tf_prefix_/model.22/Sub_1", "StatefulPartitionedCall/onnx_tf_prefix_/model.22/Concat_5/axis"], "attr": {"Tidx": {"type": "DT_INT32"}, "T": {"type": "DT_FLOAT"}, "N": {"i": "2"}}}, {"name": "StatefulPartitionedCall/onnx_tf_prefix_/model.22/Mul_2", "op": "Mul", "input": ["StatefulPartitionedCall/onnx_tf_prefix_/model.22/Concat_5", "StatefulPartitionedCall/onnx_tf_prefix_/model.22/Constant_15"], "attr": {"T": {"type": "DT_FLOAT"}}}, {"name": "StatefulPartitionedCall/onnx_tf_prefix_/model.22/Concat_6", "op": "ConcatV2", "input": ["StatefulPartitionedCall/onnx_tf_prefix_/model.22/Mul_2", "StatefulPartitionedCall/onnx_tf_prefix_/model.22/Sigmoid", "StatefulPartitionedCall/onnx_tf_prefix_/model.22/Concat", "StatefulPartitionedCall/onnx_tf_prefix_/model.22/Concat_6/axis"], "attr": {"Tidx": {"type": "DT_INT32"}, "N": {"i": "3"}, "T": {"type": "DT_FLOAT"}}}, {"name": "Identity", "op": "Identity", "input": ["StatefulPartitionedCall/onnx_tf_prefix_/model.22/Concat_6", "^StatefulPartitionedCall/assert_equal_1/Assert/AssertGuard/branch_executed/_166"], "attr": {"T": {"type": "DT_FLOAT"}}}], "library": {}, "versions": {"producer": 1286}}, "weightsManifest": [{"paths": ["group1-shard1of4.bin", "group1-shard2of4.bin", "group1-shard3of4.bin", "group1-shard4of4.bin"], "weights": [{"name": "ConstantFolding/StatefulPartitionedCall/onnx_tf_prefix_/model.22/Div_1_recip", "shape": [], "dtype": "float32"}, {"name": "StatefulPartitionedCall/onnx_tf_prefix_/model.22/Constant_13", "shape": [1, 2, 8400], "dtype": "float32"}, {"name": "StatefulPartitionedCall/zeros_9", "shape": [], "dtype": "int32"}, {"name": "StatefulPartitionedCall/Const_60", "shape": [], "dtype": "int32"}, {"name": "StatefulPartitionedCall/Shape_17", "shape": [3], "dtype": "int32"}, {"name": "StatefulPartitionedCall/ExpandDims_1", "shape": [1, 1], "dtype": "int32"}, {"name": "StatefulPartitionedCall/Cast_18", "shape": [1], "dtype": "int32"}, {"name": "StatefulPartitionedCall/Const_59", "shape": [], "dtype": "int32"}, {"name": "StatefulPartitionedCall/ones_1", "shape": [3], "dtype": "int32"}, {"name": "StatefulPartitionedCall/onnx_tf_prefix_/model.22/Constant_12", "shape": [1, 2, 8400], "dtype": "float32"}, {"name": "StatefulPartitionedCall/onnx_tf_prefix_/model.22/dfl/Constant", "shape": [4], "dtype": "int32"}, {"name": "StatefulPartitionedCall/Where_6", "shape": [0, 1], "dtype": "int32"}, {"name": "StatefulPartitionedCall/Cast_10", "shape": [1], "dtype": "int32"}, {"name": "StatefulPartitionedCall/GatherV2_6", "shape": [0], "dtype": "int32"}, {"name": "StatefulPartitionedCall/zeros_6", "shape": [], "dtype": "int32"}, {"name": "StatefulPartitionedCall/onnx_tf_prefix_/model.22/dfl/Transpose/perm", "shape": [4], "dtype": "int32"}, {"name": "StatefulPartitionedCall/concat_76", "shape": [4], "dtype": "int32"}, {"name": "StatefulPartitionedCall/concat_77", "shape": [4], "dtype": "int32"}, {"name": "StatefulPartitionedCall/transpose_240/perm", "shape": [4], "dtype": "int32"}, {"name": "StatefulPartitionedCall/split_76", "shape": [1, 1, 16, 1], "dtype": "float32"}, {"name": "StatefulPartitionedCall/transpose_241/perm", "shape": [4], "dtype": "int32"}, {"name": "StatefulPartitionedCall/onnx_tf_prefix_/model.22/dfl/Constant_1", "shape": [3], "dtype": "int32"}, {"name": "StatefulPartitionedCall/Where_7", "shape": [0, 1], "dtype": "int32"}, {"name": "StatefulPartitionedCall/Cast_11", "shape": [1], "dtype": "int32"}, {"name": "StatefulPartitionedCall/GatherV2_7", "shape": [0], "dtype": "int32"}, {"name": "StatefulPartitionedCall/zeros_7", "shape": [], "dtype": "int32"}, {"name": "StatefulPartitionedCall/SelectV2_1", "shape": [1], "dtype": "int32"}, {"name": "StatefulPartitionedCall/zeros_8", "shape": [], "dtype": "int32"}, {"name": "StatefulPartitionedCall/Const_58", "shape": [], "dtype": "int32"}, {"name": "StatefulPartitionedCall/Shape_16", "shape": [3], "dtype": "int32"}, {"name": "StatefulPartitionedCall/ExpandDims", "shape": [1, 1], "dtype": "int32"}, {"name": "StatefulPartitionedCall/Cast_16", "shape": [1], "dtype": "int32"}, {"name": "Func/StatefulPartitionedCall/assert_equal_1/Assert/AssertGuard/then/_157/output/_171", "shape": [], "dtype": "bool"}, {"name": "StatefulPartitionedCall/Const_57", "shape": [], "dtype": "int32"}, {"name": "StatefulPartitionedCall/ones", "shape": [3], "dtype": "int32"}, {"name": "StatefulPartitionedCall/onnx_tf_prefix_/model.22/Concat_5/axis", "shape": [], "dtype": "int32"}, {"name": "StatefulPartitionedCall/onnx_tf_prefix_/model.22/Constant_15", "shape": [1, 8400], "dtype": "float32"}, {"name": "StatefulPartitionedCall/Const_40", "shape": [4, 2], "dtype": "int32"}, {"name": "StatefulPartitionedCall/transpose_185/perm", "shape": [4], "dtype": "int32"}, {"name": "StatefulPartitionedCall/split_58", "shape": [3, 3, 64, 64], "dtype": "float32"}, {"name": "unknown_116", "shape": [64], "dtype": "float32"}, {"name": "StatefulPartitionedCall/transpose_186/perm", "shape": [4], "dtype": "int32"}, {"name": "StatefulPartitionedCall/Const_41", "shape": [4, 2], "dtype": "int32"}, {"name": "StatefulPartitionedCall/transpose_188/perm", "shape": [4], "dtype": "int32"}, {"name": "StatefulPartitionedCall/split_59", "shape": [3, 3, 64, 64], "dtype": "float32"}, {"name": "unknown_118", "shape": [64], "dtype": "float32"}, {"name": "StatefulPartitionedCall/transpose_189/perm", "shape": [4], "dtype": "int32"}, {"name": "StatefulPartitionedCall/transpose_191/perm", "shape": [4], "dtype": "int32"}, {"name": "StatefulPartitionedCall/split_60", "shape": [1, 1, 64, 64], "dtype": "float32"}, {"name": "unknown_120", "shape": [64], "dtype": "float32"}, {"name": "StatefulPartitionedCall/transpose_192/perm", "shape": [4], "dtype": "int32"}, {"name": "StatefulPartitionedCall/Const_42", "shape": [4, 2], "dtype": "int32"}, {"name": "StatefulPartitionedCall/transpose_194/perm", "shape": [4], "dtype": "int32"}, {"name": "StatefulPartitionedCall/split_61", "shape": [3, 3, 64, 80], "dtype": "float32"}, {"name": "unknown_122", "shape": [80], "dtype": "float32"}, {"name": "StatefulPartitionedCall/transpose_195/perm", "shape": [4], "dtype": "int32"}, {"name": "StatefulPartitionedCall/Const_43", "shape": [4, 2], "dtype": "int32"}, {"name": "StatefulPartitionedCall/transpose_197/perm", "shape": [4], "dtype": "int32"}, {"name": "StatefulPartitionedCall/split_62", "shape": [3, 3, 80, 80], "dtype": "float32"}, {"name": "unknown_124", "shape": [80], "dtype": "float32"}, {"name": "StatefulPartitionedCall/transpose_198/perm", "shape": [4], "dtype": "int32"}, {"name": "StatefulPartitionedCall/transpose_200/perm", "shape": [4], "dtype": "int32"}, {"name": "StatefulPartitionedCall/split_63", "shape": [1, 1, 80, 80], "dtype": "float32"}, {"name": "unknown_126", "shape": [80], "dtype": "float32"}, {"name": "StatefulPartitionedCall/transpose_201/perm", "shape": [4], "dtype": "int32"}, {"name": "StatefulPartitionedCall/onnx_tf_prefix_/model.22/Concat_1/axis", "shape": [], "dtype": "int32"}, {"name": "StatefulPartitionedCall/onnx_tf_prefix_/model.22/Constant_3", "shape": [3], "dtype": "int32"}, {"name": "StatefulPartitionedCall/Where_3", "shape": [0, 1], "dtype": "int32"}, {"name": "StatefulPartitionedCall/Cast_7", "shape": [1], "dtype": "int32"}, {"name": "StatefulPartitionedCall/GatherV2_3", "shape": [0], "dtype": "int32"}, {"name": "StatefulPartitionedCall/zeros_3", "shape": [], "dtype": "int32"}, {"name": "StatefulPartitionedCall/Const_44", "shape": [4, 2], "dtype": "int32"}, {"name": "StatefulPartitionedCall/transpose_203/perm", "shape": [4], "dtype": "int32"}, {"name": "StatefulPartitionedCall/split_64", "shape": [3, 3, 128, 64], "dtype": "float32"}, {"name": "unknown_128", "shape": [64], "dtype": "float32"}, {"name": "StatefulPartitionedCall/transpose_204/perm", "shape": [4], "dtype": "int32"}, {"name": "StatefulPartitionedCall/Const_45", "shape": [4, 2], "dtype": "int32"}, {"name": "StatefulPartitionedCall/transpose_206/perm", "shape": [4], "dtype": "int32"}, {"name": "StatefulPartitionedCall/split_65", "shape": [3, 3, 64, 64], "dtype": "float32"}, {"name": "unknown_130", "shape": [64], "dtype": "float32"}, {"name": "StatefulPartitionedCall/transpose_207/perm", "shape": [4], "dtype": "int32"}, {"name": "StatefulPartitionedCall/transpose_209/perm", "shape": [4], "dtype": "int32"}, {"name": "StatefulPartitionedCall/split_66", "shape": [1, 1, 64, 64], "dtype": "float32"}, {"name": "unknown_132", "shape": [64], "dtype": "float32"}, {"name": "StatefulPartitionedCall/transpose_210/perm", "shape": [4], "dtype": "int32"}, {"name": "StatefulPartitionedCall/Const_46", "shape": [4, 2], "dtype": "int32"}, {"name": "StatefulPartitionedCall/transpose_212/perm", "shape": [4], "dtype": "int32"}, {"name": "StatefulPartitionedCall/split_67", "shape": [3, 3, 128, 80], "dtype": "float32"}, {"name": "unknown_134", "shape": [80], "dtype": "float32"}, {"name": "StatefulPartitionedCall/transpose_213/perm", "shape": [4], "dtype": "int32"}, {"name": "StatefulPartitionedCall/Const_47", "shape": [4, 2], "dtype": "int32"}, {"name": "StatefulPartitionedCall/transpose_215/perm", "shape": [4], "dtype": "int32"}, {"name": "StatefulPartitionedCall/split_68", "shape": [3, 3, 80, 80], "dtype": "float32"}, {"name": "unknown_136", "shape": [80], "dtype": "float32"}, {"name": "StatefulPartitionedCall/transpose_216/perm", "shape": [4], "dtype": "int32"}, {"name": "StatefulPartitionedCall/transpose_218/perm", "shape": [4], "dtype": "int32"}, {"name": "StatefulPartitionedCall/split_69", "shape": [1, 1, 80, 80], "dtype": "float32"}, {"name": "unknown_138", "shape": [80], "dtype": "float32"}, {"name": "StatefulPartitionedCall/transpose_219/perm", "shape": [4], "dtype": "int32"}, {"name": "StatefulPartitionedCall/onnx_tf_prefix_/model.22/Concat_2/axis", "shape": [], "dtype": "int32"}, {"name": "StatefulPartitionedCall/onnx_tf_prefix_/model.22/Constant_4", "shape": [3], "dtype": "int32"}, {"name": "StatefulPartitionedCall/Where_4", "shape": [0, 1], "dtype": "int32"}, {"name": "StatefulPartitionedCall/Cast_8", "shape": [1], "dtype": "int32"}, {"name": "StatefulPartitionedCall/GatherV2_4", "shape": [0], "dtype": "int32"}, {"name": "StatefulPartitionedCall/zeros_4", "shape": [], "dtype": "int32"}, {"name": "StatefulPartitionedCall/Const_48", "shape": [4, 2], "dtype": "int32"}, {"name": "StatefulPartitionedCall/transpose_221/perm", "shape": [4], "dtype": "int32"}, {"name": "StatefulPartitionedCall/split_70", "shape": [3, 3, 256, 64], "dtype": "float32"}, {"name": "unknown_140", "shape": [64], "dtype": "float32"}, {"name": "StatefulPartitionedCall/transpose_222/perm", "shape": [4], "dtype": "int32"}, {"name": "StatefulPartitionedCall/Const_49", "shape": [4, 2], "dtype": "int32"}, {"name": "StatefulPartitionedCall/transpose_224/perm", "shape": [4], "dtype": "int32"}, {"name": "StatefulPartitionedCall/split_71", "shape": [3, 3, 64, 64], "dtype": "float32"}, {"name": "unknown_142", "shape": [64], "dtype": "float32"}, {"name": "StatefulPartitionedCall/transpose_225/perm", "shape": [4], "dtype": "int32"}, {"name": "StatefulPartitionedCall/transpose_227/perm", "shape": [4], "dtype": "int32"}, {"name": "StatefulPartitionedCall/split_72", "shape": [1, 1, 64, 64], "dtype": "float32"}, {"name": "unknown_144", "shape": [64], "dtype": "float32"}, {"name": "StatefulPartitionedCall/transpose_228/perm", "shape": [4], "dtype": "int32"}, {"name": "StatefulPartitionedCall/Const_50", "shape": [4, 2], "dtype": "int32"}, {"name": "StatefulPartitionedCall/transpose_230/perm", "shape": [4], "dtype": "int32"}, {"name": "StatefulPartitionedCall/split_73", "shape": [3, 3, 256, 80], "dtype": "float32"}, {"name": "unknown_146", "shape": [80], "dtype": "float32"}, {"name": "StatefulPartitionedCall/transpose_231/perm", "shape": [4], "dtype": "int32"}, {"name": "StatefulPartitionedCall/Const_51", "shape": [4, 2], "dtype": "int32"}, {"name": "StatefulPartitionedCall/transpose_233/perm", "shape": [4], "dtype": "int32"}, {"name": "StatefulPartitionedCall/split_74", "shape": [3, 3, 80, 80], "dtype": "float32"}, {"name": "unknown_148", "shape": [80], "dtype": "float32"}, {"name": "StatefulPartitionedCall/transpose_234/perm", "shape": [4], "dtype": "int32"}, {"name": "StatefulPartitionedCall/transpose_236/perm", "shape": [4], "dtype": "int32"}, {"name": "StatefulPartitionedCall/split_75", "shape": [1, 1, 80, 80], "dtype": "float32"}, {"name": "unknown_150", "shape": [80], "dtype": "float32"}, {"name": "StatefulPartitionedCall/transpose_237/perm", "shape": [4], "dtype": "int32"}, {"name": "StatefulPartitionedCall/onnx_tf_prefix_/model.22/Concat_3/axis", "shape": [], "dtype": "int32"}, {"name": "StatefulPartitionedCall/onnx_tf_prefix_/model.22/Constant_5", "shape": [3], "dtype": "int32"}, {"name": "StatefulPartitionedCall/Where_5", "shape": [0, 1], "dtype": "int32"}, {"name": "StatefulPartitionedCall/Cast_9", "shape": [1], "dtype": "int32"}, {"name": "StatefulPartitionedCall/GatherV2_5", "shape": [0], "dtype": "int32"}, {"name": "StatefulPartitionedCall/zeros_5", "shape": [], "dtype": "int32"}, {"name": "StatefulPartitionedCall/onnx_tf_prefix_/model.22/Concat_4/axis", "shape": [], "dtype": "int32"}, {"name": "StatefulPartitionedCall/onnx_tf_prefix_Constant_263", "shape": [2], "dtype": "int32"}, {"name": "StatefulPartitionedCall/onnx_tf_prefix_/model.22/Split/split_dim", "shape": [], "dtype": "int32"}, {"name": "StatefulPartitionedCall/Const_31", "shape": [4, 2], "dtype": "int32"}, {"name": "StatefulPartitionedCall/transpose_158/perm", "shape": [4], "dtype": "int32"}, {"name": "StatefulPartitionedCall/split_49", "shape": [3, 3, 64, 32], "dtype": "float32"}, {"name": "unknown_98", "shape": [32], "dtype": "float32"}, {"name": "StatefulPartitionedCall/transpose_159/perm", "shape": [4], "dtype": "int32"}, {"name": "StatefulPartitionedCall/Const_32", "shape": [4, 2], "dtype": "int32"}, {"name": "StatefulPartitionedCall/transpose_161/perm", "shape": [4], "dtype": "int32"}, {"name": "StatefulPartitionedCall/split_50", "shape": [3, 3, 32, 32], "dtype": "float32"}, {"name": "unknown_100", "shape": [32], "dtype": "float32"}, {"name": "StatefulPartitionedCall/transpose_162/perm", "shape": [4], "dtype": "int32"}, {"name": "StatefulPartitionedCall/transpose_164/perm", "shape": [4], "dtype": "int32"}, {"name": "StatefulPartitionedCall/split_51", "shape": [1, 1, 32, 32], "dtype": "float32"}, {"name": "unknown_102", "shape": [32], "dtype": "float32"}, {"name": "StatefulPartitionedCall/transpose_165/perm", "shape": [4], "dtype": "int32"}, {"name": "StatefulPartitionedCall/onnx_tf_prefix_/model.22/Constant", "shape": [3], "dtype": "int32"}, {"name": "StatefulPartitionedCall/Where", "shape": [0, 1], "dtype": "int32"}, {"name": "StatefulPartitionedCall/Cast_4", "shape": [1], "dtype": "int32"}, {"name": "StatefulPartitionedCall/GatherV2", "shape": [0], "dtype": "int32"}, {"name": "StatefulPartitionedCall/zeros", "shape": [], "dtype": "int32"}, {"name": "StatefulPartitionedCall/Const_34", "shape": [4, 2], "dtype": "int32"}, {"name": "StatefulPartitionedCall/transpose_167/perm", "shape": [4], "dtype": "int32"}, {"name": "StatefulPartitionedCall/split_52", "shape": [3, 3, 128, 32], "dtype": "float32"}, {"name": "unknown_104", "shape": [32], "dtype": "float32"}, {"name": "StatefulPartitionedCall/transpose_168/perm", "shape": [4], "dtype": "int32"}, {"name": "StatefulPartitionedCall/Const_35", "shape": [4, 2], "dtype": "int32"}, {"name": "StatefulPartitionedCall/transpose_170/perm", "shape": [4], "dtype": "int32"}, {"name": "StatefulPartitionedCall/split_53", "shape": [3, 3, 32, 32], "dtype": "float32"}, {"name": "unknown_106", "shape": [32], "dtype": "float32"}, {"name": "StatefulPartitionedCall/transpose_171/perm", "shape": [4], "dtype": "int32"}, {"name": "StatefulPartitionedCall/transpose_173/perm", "shape": [4], "dtype": "int32"}, {"name": "StatefulPartitionedCall/split_54", "shape": [1, 1, 32, 32], "dtype": "float32"}, {"name": "unknown_108", "shape": [32], "dtype": "float32"}, {"name": "StatefulPartitionedCall/transpose_174/perm", "shape": [4], "dtype": "int32"}, {"name": "StatefulPartitionedCall/onnx_tf_prefix_/model.22/Constant_1", "shape": [3], "dtype": "int32"}, {"name": "StatefulPartitionedCall/Where_1", "shape": [0, 1], "dtype": "int32"}, {"name": "StatefulPartitionedCall/Cast_5", "shape": [1], "dtype": "int32"}, {"name": "StatefulPartitionedCall/GatherV2_1", "shape": [0], "dtype": "int32"}, {"name": "StatefulPartitionedCall/zeros_1", "shape": [], "dtype": "int32"}, {"name": "StatefulPartitionedCall/Const_23", "shape": [4, 2], "dtype": "int32"}, {"name": "StatefulPartitionedCall/transpose_116/perm", "shape": [4], "dtype": "int32"}, {"name": "StatefulPartitionedCall/split_35", "shape": [3, 3, 64, 64], "dtype": "float32"}, {"name": "unknown_70", "shape": [64], "dtype": "float32"}, {"name": "StatefulPartitionedCall/transpose_117/perm", "shape": [4], "dtype": "int32"}, {"name": "StatefulPartitionedCall/onnx_tf_prefix_/model.17/Concat/axis", "shape": [], "dtype": "int32"}, {"name": "StatefulPartitionedCall/transpose_119/perm", "shape": [4], "dtype": "int32"}, {"name": "StatefulPartitionedCall/split_36", "shape": [1, 1, 192, 128], "dtype": "float32"}, {"name": "unknown_72", "shape": [128], "dtype": "float32"}, {"name": "StatefulPartitionedCall/transpose_120/perm", "shape": [4], "dtype": "int32"}, {"name": "StatefulPartitionedCall/onnx_tf_prefix_/model.18/Split/split_dim", "shape": [], "dtype": "int32"}, {"name": "StatefulPartitionedCall/Const_24", "shape": [4, 2], "dtype": "int32"}, {"name": "StatefulPartitionedCall/transpose_122/perm", "shape": [4], "dtype": "int32"}, {"name": "StatefulPartitionedCall/split_37", "shape": [3, 3, 64, 64], "dtype": "float32"}, {"name": "unknown_74", "shape": [64], "dtype": "float32"}, {"name": "StatefulPartitionedCall/transpose_123/perm", "shape": [4], "dtype": "int32"}, {"name": "StatefulPartitionedCall/Const_25", "shape": [4, 2], "dtype": "int32"}, {"name": "StatefulPartitionedCall/transpose_125/perm", "shape": [4], "dtype": "int32"}, {"name": "StatefulPartitionedCall/split_38", "shape": [3, 3, 64, 64], "dtype": "float32"}, {"name": "unknown_76", "shape": [64], "dtype": "float32"}, {"name": "StatefulPartitionedCall/transpose_126/perm", "shape": [4], "dtype": "int32"}, {"name": "StatefulPartitionedCall/onnx_tf_prefix_/model.18/Concat/axis", "shape": [], "dtype": "int32"}, {"name": "StatefulPartitionedCall/transpose_128/perm", "shape": [4], "dtype": "int32"}, {"name": "StatefulPartitionedCall/split_39", "shape": [1, 1, 192, 128], "dtype": "float32"}, {"name": "unknown_78", "shape": [128], "dtype": "float32"}, {"name": "StatefulPartitionedCall/transpose_129/perm", "shape": [4], "dtype": "int32"}, {"name": "StatefulPartitionedCall/Const_26", "shape": [4, 2], "dtype": "int32"}, {"name": "StatefulPartitionedCall/transpose_131/perm", "shape": [4], "dtype": "int32"}, {"name": "StatefulPartitionedCall/split_40", "shape": [3, 3, 128, 128], "dtype": "float32"}, {"name": "unknown_80", "shape": [128], "dtype": "float32"}, {"name": "StatefulPartitionedCall/transpose_132/perm", "shape": [4], "dtype": "int32"}, {"name": "StatefulPartitionedCall/onnx_tf_prefix_/model.20/Concat/axis", "shape": [], "dtype": "int32"}, {"name": "StatefulPartitionedCall/transpose_134/perm", "shape": [4], "dtype": "int32"}, {"name": "StatefulPartitionedCall/split_41", "shape": [1, 1, 384, 256], "dtype": "float32"}, {"name": "unknown_82", "shape": [256], "dtype": "float32"}, {"name": "StatefulPartitionedCall/transpose_135/perm", "shape": [4], "dtype": "int32"}, {"name": "StatefulPartitionedCall/onnx_tf_prefix_/model.21/Split/split_dim", "shape": [], "dtype": "int32"}, {"name": "StatefulPartitionedCall/Const_27", "shape": [4, 2], "dtype": "int32"}, {"name": "StatefulPartitionedCall/transpose_137/perm", "shape": [4], "dtype": "int32"}, {"name": "StatefulPartitionedCall/split_42", "shape": [3, 3, 128, 128], "dtype": "float32"}, {"name": "unknown_84", "shape": [128], "dtype": "float32"}, {"name": "StatefulPartitionedCall/transpose_138/perm", "shape": [4], "dtype": "int32"}, {"name": "StatefulPartitionedCall/Const_28", "shape": [4, 2], "dtype": "int32"}, {"name": "StatefulPartitionedCall/transpose_140/perm", "shape": [4], "dtype": "int32"}, {"name": "StatefulPartitionedCall/split_43", "shape": [3, 3, 128, 128], "dtype": "float32"}, {"name": "unknown_86", "shape": [128], "dtype": "float32"}, {"name": "StatefulPartitionedCall/transpose_141/perm", "shape": [4], "dtype": "int32"}, {"name": "StatefulPartitionedCall/onnx_tf_prefix_/model.21/Concat/axis", "shape": [], "dtype": "int32"}, {"name": "StatefulPartitionedCall/transpose_143/perm", "shape": [4], "dtype": "int32"}, {"name": "StatefulPartitionedCall/split_44", "shape": [1, 1, 384, 256], "dtype": "float32"}, {"name": "unknown_88", "shape": [256], "dtype": "float32"}, {"name": "StatefulPartitionedCall/transpose_144/perm", "shape": [4], "dtype": "int32"}, {"name": "StatefulPartitionedCall/Const_37", "shape": [4, 2], "dtype": "int32"}, {"name": "StatefulPartitionedCall/transpose_176/perm", "shape": [4], "dtype": "int32"}, {"name": "StatefulPartitionedCall/split_55", "shape": [3, 3, 256, 32], "dtype": "float32"}, {"name": "unknown_110", "shape": [32], "dtype": "float32"}, {"name": "StatefulPartitionedCall/transpose_177/perm", "shape": [4], "dtype": "int32"}, {"name": "StatefulPartitionedCall/Const_38", "shape": [4, 2], "dtype": "int32"}, {"name": "StatefulPartitionedCall/transpose_179/perm", "shape": [4], "dtype": "int32"}, {"name": "StatefulPartitionedCall/split_56", "shape": [3, 3, 32, 32], "dtype": "float32"}, {"name": "unknown_112", "shape": [32], "dtype": "float32"}, {"name": "StatefulPartitionedCall/transpose_180/perm", "shape": [4], "dtype": "int32"}, {"name": "StatefulPartitionedCall/transpose_182/perm", "shape": [4], "dtype": "int32"}, {"name": "StatefulPartitionedCall/split_57", "shape": [1, 1, 32, 32], "dtype": "float32"}, {"name": "unknown_114", "shape": [32], "dtype": "float32"}, {"name": "StatefulPartitionedCall/transpose_183/perm", "shape": [4], "dtype": "int32"}, {"name": "StatefulPartitionedCall/onnx_tf_prefix_/model.22/Constant_2", "shape": [3], "dtype": "int32"}, {"name": "StatefulPartitionedCall/Where_2", "shape": [0, 1], "dtype": "int32"}, {"name": "StatefulPartitionedCall/Cast_6", "shape": [1], "dtype": "int32"}, {"name": "StatefulPartitionedCall/GatherV2_2", "shape": [0], "dtype": "int32"}, {"name": "StatefulPartitionedCall/zeros_2", "shape": [], "dtype": "int32"}, {"name": "StatefulPartitionedCall/onnx_tf_prefix_/model.22/Concat/axis", "shape": [], "dtype": "int32"}, {"name": "StatefulPartitionedCall/onnx_tf_prefix_/model.22/Concat_6/axis", "shape": [], "dtype": "int32"}, {"name": "StatefulPartitionedCall/conv2d_transpose/input_sizes", "shape": [4], "dtype": "int32"}, {"name": "StatefulPartitionedCall/split_46", "shape": [2, 2, 64, 64], "dtype": "float32"}, {"name": "StatefulPartitionedCall/transpose_79/perm", "shape": [4], "dtype": "int32"}, {"name": "StatefulPartitionedCall/transpose_81/perm", "shape": [4], "dtype": "int32"}, {"name": "StatefulPartitionedCall/Const_14", "shape": [4, 2], "dtype": "int32"}, {"name": "StatefulPartitionedCall/transpose_61/perm", "shape": [4], "dtype": "int32"}, {"name": "StatefulPartitionedCall/split_20", "shape": [3, 3, 128, 256], "dtype": "float32"}, {"name": "unknown_40", "shape": [256], "dtype": "float32"}, {"name": "StatefulPartitionedCall/transpose_62/perm", "shape": [4], "dtype": "int32"}, {"name": "StatefulPartitionedCall/transpose_64/perm", "shape": [4], "dtype": "int32"}, {"name": "StatefulPartitionedCall/split_21", "shape": [1, 1, 256, 256], "dtype": "float32"}, {"name": "unknown_42", "shape": [256], "dtype": "float32"}, {"name": "StatefulPartitionedCall/transpose_65/perm", "shape": [4], "dtype": "int32"}, {"name": "StatefulPartitionedCall/onnx_tf_prefix_Constant_80", "shape": [2], "dtype": "int32"}, {"name": "StatefulPartitionedCall/onnx_tf_prefix_/model.8/Split/split_dim", "shape": [], "dtype": "int32"}, {"name": "StatefulPartitionedCall/Const_15", "shape": [4, 2], "dtype": "int32"}, {"name": "StatefulPartitionedCall/transpose_67/perm", "shape": [4], "dtype": "int32"}, {"name": "StatefulPartitionedCall/split_22", "shape": [3, 3, 128, 128], "dtype": "float32"}, {"name": "unknown_44", "shape": [128], "dtype": "float32"}, {"name": "StatefulPartitionedCall/transpose_68/perm", "shape": [4], "dtype": "int32"}, {"name": "StatefulPartitionedCall/Const_16", "shape": [4, 2], "dtype": "int32"}, {"name": "StatefulPartitionedCall/transpose_70/perm", "shape": [4], "dtype": "int32"}, {"name": "StatefulPartitionedCall/split_23", "shape": [3, 3, 128, 128], "dtype": "float32"}, {"name": "unknown_46", "shape": [128], "dtype": "float32"}, {"name": "StatefulPartitionedCall/transpose_71/perm", "shape": [4], "dtype": "int32"}, {"name": "StatefulPartitionedCall/onnx_tf_prefix_/model.8/Concat/axis", "shape": [], "dtype": "int32"}, {"name": "StatefulPartitionedCall/transpose_73/perm", "shape": [4], "dtype": "int32"}, {"name": "StatefulPartitionedCall/split_24", "shape": [1, 1, 384, 256], "dtype": "float32"}, {"name": "unknown_48", "shape": [256], "dtype": "float32"}, {"name": "StatefulPartitionedCall/transpose_74/perm", "shape": [4], "dtype": "int32"}, {"name": "StatefulPartitionedCall/transpose_76/perm", "shape": [4], "dtype": "int32"}, {"name": "StatefulPartitionedCall/split_25", "shape": [1, 1, 256, 128], "dtype": "float32"}, {"name": "unknown_50", "shape": [128], "dtype": "float32"}, {"name": "StatefulPartitionedCall/transpose_77/perm", "shape": [4], "dtype": "int32"}, {"name": "StatefulPartitionedCall/transpose_78/perm", "shape": [4], "dtype": "int32"}, {"name": "StatefulPartitionedCall/transpose_83/perm", "shape": [4], "dtype": "int32"}, {"name": "StatefulPartitionedCall/onnx_tf_prefix_/model.9/Concat/axis", "shape": [], "dtype": "int32"}, {"name": "StatefulPartitionedCall/transpose_85/perm", "shape": [4], "dtype": "int32"}, {"name": "StatefulPartitionedCall/split_26", "shape": [1, 1, 512, 256], "dtype": "float32"}, {"name": "unknown_52", "shape": [256], "dtype": "float32"}, {"name": "StatefulPartitionedCall/transpose_86/perm", "shape": [4], "dtype": "int32"}, {"name": "StatefulPartitionedCall/transpose_87/perm", "shape": [4], "dtype": "int32"}, {"name": "StatefulPartitionedCall/Cast_1", "shape": [2], "dtype": "int32"}, {"name": "StatefulPartitionedCall/transpose_88/perm", "shape": [4], "dtype": "int32"}, {"name": "StatefulPartitionedCall/Const_9", "shape": [4, 2], "dtype": "int32"}, {"name": "StatefulPartitionedCall/transpose_40/perm", "shape": [4], "dtype": "int32"}, {"name": "StatefulPartitionedCall/split_13", "shape": [3, 3, 64, 128], "dtype": "float32"}, {"name": "unknown_26", "shape": [128], "dtype": "float32"}, {"name": "StatefulPartitionedCall/transpose_41/perm", "shape": [4], "dtype": "int32"}, {"name": "StatefulPartitionedCall/transpose_43/perm", "shape": [4], "dtype": "int32"}, {"name": "StatefulPartitionedCall/split_14", "shape": [1, 1, 128, 128], "dtype": "float32"}, {"name": "unknown_28", "shape": [128], "dtype": "float32"}, {"name": "StatefulPartitionedCall/transpose_44/perm", "shape": [4], "dtype": "int32"}, {"name": "StatefulPartitionedCall/onnx_tf_prefix_/model.6/Split/split_dim", "shape": [], "dtype": "int32"}, {"name": "StatefulPartitionedCall/Const_10", "shape": [4, 2], "dtype": "int32"}, {"name": "StatefulPartitionedCall/transpose_46/perm", "shape": [4], "dtype": "int32"}, {"name": "StatefulPartitionedCall/split_15", "shape": [3, 3, 64, 64], "dtype": "float32"}, {"name": "unknown_30", "shape": [64], "dtype": "float32"}, {"name": "StatefulPartitionedCall/transpose_47/perm", "shape": [4], "dtype": "int32"}, {"name": "StatefulPartitionedCall/Const_11", "shape": [4, 2], "dtype": "int32"}, {"name": "StatefulPartitionedCall/transpose_49/perm", "shape": [4], "dtype": "int32"}, {"name": "StatefulPartitionedCall/split_16", "shape": [3, 3, 64, 64], "dtype": "float32"}, {"name": "unknown_32", "shape": [64], "dtype": "float32"}, {"name": "StatefulPartitionedCall/transpose_50/perm", "shape": [4], "dtype": "int32"}, {"name": "StatefulPartitionedCall/Const_12", "shape": [4, 2], "dtype": "int32"}, {"name": "StatefulPartitionedCall/transpose_52/perm", "shape": [4], "dtype": "int32"}, {"name": "StatefulPartitionedCall/split_17", "shape": [3, 3, 64, 64], "dtype": "float32"}, {"name": "unknown_34", "shape": [64], "dtype": "float32"}, {"name": "StatefulPartitionedCall/transpose_53/perm", "shape": [4], "dtype": "int32"}, {"name": "StatefulPartitionedCall/Const_13", "shape": [4, 2], "dtype": "int32"}, {"name": "StatefulPartitionedCall/transpose_55/perm", "shape": [4], "dtype": "int32"}, {"name": "StatefulPartitionedCall/split_18", "shape": [3, 3, 64, 64], "dtype": "float32"}, {"name": "unknown_36", "shape": [64], "dtype": "float32"}, {"name": "StatefulPartitionedCall/transpose_56/perm", "shape": [4], "dtype": "int32"}, {"name": "StatefulPartitionedCall/onnx_tf_prefix_/model.6/Concat/axis", "shape": [], "dtype": "int32"}, {"name": "StatefulPartitionedCall/transpose_58/perm", "shape": [4], "dtype": "int32"}, {"name": "StatefulPartitionedCall/split_19", "shape": [1, 1, 256, 128], "dtype": "float32"}, {"name": "unknown_38", "shape": [128], "dtype": "float32"}, {"name": "StatefulPartitionedCall/transpose_59/perm", "shape": [4], "dtype": "int32"}, {"name": "StatefulPartitionedCall/onnx_tf_prefix_/model.11/Concat/axis", "shape": [], "dtype": "int32"}, {"name": "StatefulPartitionedCall/transpose_90/perm", "shape": [4], "dtype": "int32"}, {"name": "StatefulPartitionedCall/split_27", "shape": [1, 1, 384, 128], "dtype": "float32"}, {"name": "unknown_54", "shape": [128], "dtype": "float32"}, {"name": "StatefulPartitionedCall/transpose_91/perm", "shape": [4], "dtype": "int32"}, {"name": "StatefulPartitionedCall/onnx_tf_prefix_Constant_54", "shape": [2], "dtype": "int32"}, {"name": "StatefulPartitionedCall/onnx_tf_prefix_/model.12/Split/split_dim", "shape": [], "dtype": "int32"}, {"name": "StatefulPartitionedCall/Const_18", "shape": [4, 2], "dtype": "int32"}, {"name": "StatefulPartitionedCall/transpose_93/perm", "shape": [4], "dtype": "int32"}, {"name": "StatefulPartitionedCall/split_28", "shape": [3, 3, 64, 64], "dtype": "float32"}, {"name": "unknown_56", "shape": [64], "dtype": "float32"}, {"name": "StatefulPartitionedCall/transpose_94/perm", "shape": [4], "dtype": "int32"}, {"name": "StatefulPartitionedCall/Const_19", "shape": [4, 2], "dtype": "int32"}, {"name": "StatefulPartitionedCall/transpose_96/perm", "shape": [4], "dtype": "int32"}, {"name": "StatefulPartitionedCall/split_29", "shape": [3, 3, 64, 64], "dtype": "float32"}, {"name": "unknown_58", "shape": [64], "dtype": "float32"}, {"name": "StatefulPartitionedCall/transpose_97/perm", "shape": [4], "dtype": "int32"}, {"name": "StatefulPartitionedCall/onnx_tf_prefix_/model.12/Concat/axis", "shape": [], "dtype": "int32"}, {"name": "StatefulPartitionedCall/transpose_99/perm", "shape": [4], "dtype": "int32"}, {"name": "StatefulPartitionedCall/split_30", "shape": [1, 1, 192, 128], "dtype": "float32"}, {"name": "unknown_60", "shape": [128], "dtype": "float32"}, {"name": "StatefulPartitionedCall/transpose_100/perm", "shape": [4], "dtype": "int32"}, {"name": "StatefulPartitionedCall/transpose_101/perm", "shape": [4], "dtype": "int32"}, {"name": "StatefulPartitionedCall/Cast_3", "shape": [2], "dtype": "int32"}, {"name": "StatefulPartitionedCall/transpose_102/perm", "shape": [4], "dtype": "int32"}, {"name": "StatefulPartitionedCall/Const", "shape": [4, 2], "dtype": "int32"}, {"name": "StatefulPartitionedCall/transpose_1/perm", "shape": [4], "dtype": "int32"}, {"name": "StatefulPartitionedCall/split", "shape": [3, 3, 3, 16], "dtype": "float32"}, {"name": "unknown_0", "shape": [16], "dtype": "float32"}, {"name": "StatefulPartitionedCall/transpose_2/perm", "shape": [4], "dtype": "int32"}, {"name": "StatefulPartitionedCall/Const_1", "shape": [4, 2], "dtype": "int32"}, {"name": "StatefulPartitionedCall/transpose_4/perm", "shape": [4], "dtype": "int32"}, {"name": "StatefulPartitionedCall/split_1", "shape": [3, 3, 16, 32], "dtype": "float32"}, {"name": "unknown_2", "shape": [32], "dtype": "float32"}, {"name": "StatefulPartitionedCall/transpose_5/perm", "shape": [4], "dtype": "int32"}, {"name": "StatefulPartitionedCall/transpose_7/perm", "shape": [4], "dtype": "int32"}, {"name": "StatefulPartitionedCall/split_2", "shape": [1, 1, 32, 32], "dtype": "float32"}, {"name": "unknown_4", "shape": [32], "dtype": "float32"}, {"name": "StatefulPartitionedCall/transpose_8/perm", "shape": [4], "dtype": "int32"}, {"name": "StatefulPartitionedCall/onnx_tf_prefix_Constant_9", "shape": [2], "dtype": "int32"}, {"name": "StatefulPartitionedCall/onnx_tf_prefix_/model.2/Split/split_dim", "shape": [], "dtype": "int32"}, {"name": "StatefulPartitionedCall/Const_2", "shape": [4, 2], "dtype": "int32"}, {"name": "StatefulPartitionedCall/transpose_10/perm", "shape": [4], "dtype": "int32"}, {"name": "StatefulPartitionedCall/split_3", "shape": [3, 3, 16, 16], "dtype": "float32"}, {"name": "unknown_6", "shape": [16], "dtype": "float32"}, {"name": "StatefulPartitionedCall/transpose_11/perm", "shape": [4], "dtype": "int32"}, {"name": "StatefulPartitionedCall/Const_3", "shape": [4, 2], "dtype": "int32"}, {"name": "StatefulPartitionedCall/transpose_13/perm", "shape": [4], "dtype": "int32"}, {"name": "StatefulPartitionedCall/split_4", "shape": [3, 3, 16, 16], "dtype": "float32"}, {"name": "unknown_8", "shape": [16], "dtype": "float32"}, {"name": "StatefulPartitionedCall/transpose_14/perm", "shape": [4], "dtype": "int32"}, {"name": "StatefulPartitionedCall/onnx_tf_prefix_/model.2/Concat/axis", "shape": [], "dtype": "int32"}, {"name": "StatefulPartitionedCall/transpose_16/perm", "shape": [4], "dtype": "int32"}, {"name": "StatefulPartitionedCall/split_5", "shape": [1, 1, 48, 32], "dtype": "float32"}, {"name": "unknown_10", "shape": [32], "dtype": "float32"}, {"name": "StatefulPartitionedCall/transpose_17/perm", "shape": [4], "dtype": "int32"}, {"name": "StatefulPartitionedCall/Const_4", "shape": [4, 2], "dtype": "int32"}, {"name": "StatefulPartitionedCall/transpose_19/perm", "shape": [4], "dtype": "int32"}, {"name": "StatefulPartitionedCall/split_6", "shape": [3, 3, 32, 64], "dtype": "float32"}, {"name": "unknown_12", "shape": [64], "dtype": "float32"}, {"name": "StatefulPartitionedCall/transpose_20/perm", "shape": [4], "dtype": "int32"}, {"name": "StatefulPartitionedCall/transpose_22/perm", "shape": [4], "dtype": "int32"}, {"name": "StatefulPartitionedCall/split_7", "shape": [1, 1, 64, 64], "dtype": "float32"}, {"name": "unknown_14", "shape": [64], "dtype": "float32"}, {"name": "StatefulPartitionedCall/transpose_23/perm", "shape": [4], "dtype": "int32"}, {"name": "StatefulPartitionedCall/onnx_tf_prefix_/model.4/Split/split_dim", "shape": [], "dtype": "int32"}, {"name": "StatefulPartitionedCall/Const_5", "shape": [4, 2], "dtype": "int32"}, {"name": "StatefulPartitionedCall/transpose_25/perm", "shape": [4], "dtype": "int32"}, {"name": "StatefulPartitionedCall/split_8", "shape": [3, 3, 32, 32], "dtype": "float32"}, {"name": "unknown_16", "shape": [32], "dtype": "float32"}, {"name": "StatefulPartitionedCall/transpose_26/perm", "shape": [4], "dtype": "int32"}, {"name": "StatefulPartitionedCall/Const_6", "shape": [4, 2], "dtype": "int32"}, {"name": "StatefulPartitionedCall/transpose_28/perm", "shape": [4], "dtype": "int32"}, {"name": "StatefulPartitionedCall/split_9", "shape": [3, 3, 32, 32], "dtype": "float32"}, {"name": "unknown_18", "shape": [32], "dtype": "float32"}, {"name": "StatefulPartitionedCall/transpose_29/perm", "shape": [4], "dtype": "int32"}, {"name": "StatefulPartitionedCall/Const_7", "shape": [4, 2], "dtype": "int32"}, {"name": "StatefulPartitionedCall/transpose_31/perm", "shape": [4], "dtype": "int32"}, {"name": "StatefulPartitionedCall/split_10", "shape": [3, 3, 32, 32], "dtype": "float32"}, {"name": "unknown_20", "shape": [32], "dtype": "float32"}, {"name": "StatefulPartitionedCall/transpose_32/perm", "shape": [4], "dtype": "int32"}, {"name": "StatefulPartitionedCall/Const_8", "shape": [4, 2], "dtype": "int32"}, {"name": "StatefulPartitionedCall/transpose_34/perm", "shape": [4], "dtype": "int32"}, {"name": "StatefulPartitionedCall/split_11", "shape": [3, 3, 32, 32], "dtype": "float32"}, {"name": "unknown_22", "shape": [32], "dtype": "float32"}, {"name": "StatefulPartitionedCall/transpose_35/perm", "shape": [4], "dtype": "int32"}, {"name": "StatefulPartitionedCall/onnx_tf_prefix_/model.4/Concat/axis", "shape": [], "dtype": "int32"}, {"name": "StatefulPartitionedCall/transpose_37/perm", "shape": [4], "dtype": "int32"}, {"name": "StatefulPartitionedCall/split_12", "shape": [1, 1, 128, 64], "dtype": "float32"}, {"name": "unknown_24", "shape": [64], "dtype": "float32"}, {"name": "StatefulPartitionedCall/transpose_38/perm", "shape": [4], "dtype": "int32"}, {"name": "StatefulPartitionedCall/onnx_tf_prefix_/model.14/Concat/axis", "shape": [], "dtype": "int32"}, {"name": "StatefulPartitionedCall/transpose_104/perm", "shape": [4], "dtype": "int32"}, {"name": "StatefulPartitionedCall/split_31", "shape": [1, 1, 192, 64], "dtype": "float32"}, {"name": "unknown_62", "shape": [64], "dtype": "float32"}, {"name": "StatefulPartitionedCall/transpose_105/perm", "shape": [4], "dtype": "int32"}, {"name": "StatefulPartitionedCall/onnx_tf_prefix_Constant_28", "shape": [2], "dtype": "int32"}, {"name": "StatefulPartitionedCall/onnx_tf_prefix_/model.15/Split/split_dim", "shape": [], "dtype": "int32"}, {"name": "StatefulPartitionedCall/Const_21", "shape": [4, 2], "dtype": "int32"}, {"name": "StatefulPartitionedCall/transpose_107/perm", "shape": [4], "dtype": "int32"}, {"name": "StatefulPartitionedCall/split_32", "shape": [3, 3, 32, 32], "dtype": "float32"}, {"name": "unknown_64", "shape": [32], "dtype": "float32"}, {"name": "StatefulPartitionedCall/transpose_108/perm", "shape": [4], "dtype": "int32"}, {"name": "StatefulPartitionedCall/Const_22", "shape": [4, 2], "dtype": "int32"}, {"name": "StatefulPartitionedCall/transpose_110/perm", "shape": [4], "dtype": "int32"}, {"name": "StatefulPartitionedCall/split_33", "shape": [3, 3, 32, 32], "dtype": "float32"}, {"name": "unknown_66", "shape": [32], "dtype": "float32"}, {"name": "StatefulPartitionedCall/transpose_111/perm", "shape": [4], "dtype": "int32"}, {"name": "StatefulPartitionedCall/onnx_tf_prefix_/model.15/Concat/axis", "shape": [], "dtype": "int32"}, {"name": "StatefulPartitionedCall/transpose_113/perm", "shape": [4], "dtype": "int32"}, {"name": "StatefulPartitionedCall/split_34", "shape": [1, 1, 96, 64], "dtype": "float32"}, {"name": "unknown_68", "shape": [64], "dtype": "float32"}, {"name": "StatefulPartitionedCall/transpose_114/perm", "shape": [4], "dtype": "int32"}, {"name": "StatefulPartitionedCall/Const_29", "shape": [4, 2], "dtype": "int32"}, {"name": "StatefulPartitionedCall/transpose_146/perm", "shape": [4], "dtype": "int32"}, {"name": "StatefulPartitionedCall/split_45", "shape": [3, 3, 64, 64], "dtype": "float32"}, {"name": "unknown_90", "shape": [64], "dtype": "float32"}, {"name": "StatefulPartitionedCall/transpose_147/perm", "shape": [4], "dtype": "int32"}, {"name": "StatefulPartitionedCall/transpose_149/perm", "shape": [4], "dtype": "int32"}, {"name": "unknown_92", "shape": [64], "dtype": "float32"}, {"name": "StatefulPartitionedCall/transpose_150/perm", "shape": [4], "dtype": "int32"}, {"name": "StatefulPartitionedCall/Const_30", "shape": [4, 2], "dtype": "int32"}, {"name": "StatefulPartitionedCall/transpose_152/perm", "shape": [4], "dtype": "int32"}, {"name": "StatefulPartitionedCall/split_47", "shape": [3, 3, 64, 64], "dtype": "float32"}, {"name": "unknown_94", "shape": [64], "dtype": "float32"}, {"name": "StatefulPartitionedCall/transpose_153/perm", "shape": [4], "dtype": "int32"}, {"name": "StatefulPartitionedCall/transpose_155/perm", "shape": [4], "dtype": "int32"}, {"name": "StatefulPartitionedCall/split_48", "shape": [1, 1, 64, 32], "dtype": "float32"}, {"name": "unknown_96", "shape": [32], "dtype": "float32"}, {"name": "StatefulPartitionedCall/transpose_156/perm", "shape": [4], "dtype": "int32"}, {"name": "StatefulPartitionedCall/assert_equal_1/Assert/AssertGuard/pivot_t/_161", "shape": [], "dtype": "bool"}, {"name": "StatefulPartitionedCall/LogicalAnd", "shape": [1], "dtype": "bool"}, {"name": "StatefulPartitionedCall/assert_equal_1/y", "shape": [], "dtype": "bool"}, {"name": "StatefulPartitionedCall/assert_equal_1/All", "shape": [], "dtype": "bool"}, {"name": "StatefulPartitionedCall/SelectV2_5", "shape": [1], "dtype": "int32"}, {"name": "StatefulPartitionedCall/SelectV2_6", "shape": [1], "dtype": "int32"}, {"name": "StatefulPartitionedCall/SelectV2_2", "shape": [1], "dtype": "int32"}]}]}