{"format": "graph-model", "generatedBy": "2.11.0", "convertedBy": "TensorFlow.js Converter v4.2.0", "signature": {"outputs": {"Identity:0": {"name": "Identity:0"}, "Identity_1:0": {"name": "Identity_1:0"}}}, "modelTopology": {"node": [{"name": "ConstantFolding/PartitionedCall/model_253/tf.math.divide/truediv_recip", "op": "Const", "attr": {"dtype": {"type": "DT_FLOAT"}, "value": {"tensor": {"dtype": "DT_FLOAT", "tensorShape": {"dim": [{"size": "1"}, {"size": "1"}, {"size": "1"}]}}}}}, {"name": "1031", "op": "Const", "attr": {"dtype": {"type": "DT_FLOAT"}, "value": {"tensor": {"dtype": "DT_FLOAT", "tensorShape": {"dim": [{"size": "1"}, {"size": "2"}, {"size": "8400"}]}}}}}, {"name": "1017", "op": "Const", "attr": {"value": {"tensor": {"dtype": "DT_INT64", "tensorShape": {"dim": [{"size": "3"}]}}}, "dtype": {"type": "DT_INT64"}}}, {"name": "1019", "op": "Const", "attr": {"dtype": {"type": "DT_INT64"}, "value": {"tensor": {"dtype": "DT_INT64", "tensorShape": {"dim": [{"size": "3"}]}}}}}, {"name": "PartitionedCall/model_253/tf.strided_slice_1/ones_like", "op": "Const", "attr": {"dtype": {"type": "DT_INT64"}, "value": {"tensor": {"dtype": "DT_INT64", "tensorShape": {"dim": [{"size": "3"}]}}}}}, {"name": "1033", "op": "Const", "attr": {"value": {"tensor": {"dtype": "DT_FLOAT", "tensorShape": {"dim": [{"size": "1"}, {"size": "2"}, {"size": "8400"}]}}}, "dtype": {"type": "DT_FLOAT"}}}, {"name": "PartitionedCall/model_253/tf.reshape_12/Reshape/shape", "op": "Const", "attr": {"value": {"tensor": {"dtype": "DT_INT32", "tensorShape": {"dim": [{"size": "4"}]}}}, "dtype": {"type": "DT_INT32"}}}, {"name": "PartitionedCall/model_253/tf.compat.v1.transpose_7/transpose/perm", "op": "Const", "attr": {"value": {"tensor": {"dtype": "DT_INT32", "tensorShape": {"dim": [{"size": "4"}]}}}, "dtype": {"type": "DT_INT32"}}}, {"name": "PartitionedCall/model_253/tf.nn.softmax_1/concat", "op": "Const", "attr": {"dtype": {"type": "DT_INT32"}, "value": {"tensor": {"dtype": "DT_INT32", "tensorShape": {"dim": [{"size": "4"}]}}}}}, {"name": "PartitionedCall/model_253/tf.nn.softmax_1/concat_1", "op": "Const", "attr": {"value": {"tensor": {"dtype": "DT_INT32", "tensorShape": {"dim": [{"size": "4"}]}}}, "dtype": {"type": "DT_INT32"}}}, {"name": "PartitionedCall/model_253/tf.compat.v1.transpose_9/transpose/perm", "op": "Const", "attr": {"dtype": {"type": "DT_INT32"}, "value": {"tensor": {"dtype": "DT_INT32", "tensorShape": {"dim": [{"size": "4"}]}}}}}, {"name": "1013", "op": "Const", "attr": {"dtype": {"type": "DT_FLOAT"}, "value": {"tensor": {"dtype": "DT_FLOAT", "tensorShape": {"dim": [{"size": "1"}, {"size": "1"}, {"size": "16"}, {"size": "1"}]}}}}}, {"name": "PartitionedCall/model_253/tf.compat.v1.transpose_10/transpose/perm", "op": "Const", "attr": {"dtype": {"type": "DT_INT32"}, "value": {"tensor": {"dtype": "DT_INT32", "tensorShape": {"dim": [{"size": "4"}]}}}}}, {"name": "PartitionedCall/model_253/tf.reshape_14/Reshape/shape", "op": "Const", "attr": {"dtype": {"type": "DT_INT32"}, "value": {"tensor": {"dtype": "DT_INT32", "tensorShape": {"dim": [{"size": "3"}]}}}}}, {"name": "1021", "op": "Const", "attr": {"dtype": {"type": "DT_INT64"}, "value": {"tensor": {"dtype": "DT_INT64", "tensorShape": {"dim": [{"size": "3"}]}}}}}, {"name": "1023", "op": "Const", "attr": {"dtype": {"type": "DT_INT64"}, "value": {"tensor": {"dtype": "DT_INT64", "tensorShape": {"dim": [{"size": "3"}]}}}}}, {"name": "PartitionedCall/model_253/tf.strided_slice/ones_like", "op": "Const", "attr": {"value": {"tensor": {"dtype": "DT_INT64", "tensorShape": {"dim": [{"size": "3"}]}}}, "dtype": {"type": "DT_INT64"}}}, {"name": "PartitionedCall/model_253/tf.concat_36/concat/axis", "op": "Const", "attr": {"value": {"tensor": {"dtype": "DT_INT32", "tensorShape": {}}}, "dtype": {"type": "DT_INT32"}}}, {"name": "PartitionedCall/model_253/tf.math.multiply_206/Mul/y", "op": "Const", "attr": {"value": {"tensor": {"dtype": "DT_FLOAT", "tensorShape": {"dim": [{"size": "1"}, {"size": "1"}, {"size": "8400"}]}}}, "dtype": {"type": "DT_FLOAT"}}}, {"name": "971", "op": "Const", "attr": {"value": {"tensor": {"dtype": "DT_FLOAT", "tensorShape": {"dim": [{"size": "3"}, {"size": "3"}, {"size": "64"}, {"size": "64"}]}}}, "dtype": {"type": "DT_FLOAT"}}}, {"name": "PartitionedCall/model_253/tf.math.add_88/Add/y", "op": "Const", "attr": {"dtype": {"type": "DT_FLOAT"}, "value": {"tensor": {"dtype": "DT_FLOAT", "tensorShape": {"dim": [{"size": "64"}]}}}}}, {"name": "983", "op": "Const", "attr": {"dtype": {"type": "DT_FLOAT"}, "value": {"tensor": {"dtype": "DT_FLOAT", "tensorShape": {"dim": [{"size": "3"}, {"size": "3"}, {"size": "64"}, {"size": "64"}]}}}}}, {"name": "PartitionedCall/model_253/tf.math.add_95/Add/y", "op": "Const", "attr": {"dtype": {"type": "DT_FLOAT"}, "value": {"tensor": {"dtype": "DT_FLOAT", "tensorShape": {"dim": [{"size": "64"}]}}}}}, {"name": "995", "op": "Const", "attr": {"dtype": {"type": "DT_FLOAT"}, "value": {"tensor": {"dtype": "DT_FLOAT", "tensorShape": {"dim": [{"size": "1"}, {"size": "1"}, {"size": "64"}, {"size": "64"}]}}}}}, {"name": "PartitionedCall/model_253/tf.math.add_105/Add/y", "op": "Const", "attr": {"value": {"tensor": {"dtype": "DT_FLOAT", "tensorShape": {"dim": [{"size": "64"}]}}}, "dtype": {"type": "DT_FLOAT"}}}, {"name": "969", "op": "Const", "attr": {"dtype": {"type": "DT_FLOAT"}, "value": {"tensor": {"dtype": "DT_FLOAT", "tensorShape": {"dim": [{"size": "3"}, {"size": "3"}, {"size": "64"}, {"size": "80"}]}}}}}, {"name": "PartitionedCall/model_253/tf.math.add_90/Add/y", "op": "Const", "attr": {"value": {"tensor": {"dtype": "DT_FLOAT", "tensorShape": {"dim": [{"size": "80"}]}}}, "dtype": {"type": "DT_FLOAT"}}}, {"name": "981", "op": "Const", "attr": {"dtype": {"type": "DT_FLOAT"}, "value": {"tensor": {"dtype": "DT_FLOAT", "tensorShape": {"dim": [{"size": "3"}, {"size": "3"}, {"size": "80"}, {"size": "80"}]}}}}}, {"name": "PartitionedCall/model_253/tf.math.add_97/Add/y", "op": "Const", "attr": {"value": {"tensor": {"dtype": "DT_FLOAT", "tensorShape": {"dim": [{"size": "80"}]}}}, "dtype": {"type": "DT_FLOAT"}}}, {"name": "993", "op": "Const", "attr": {"dtype": {"type": "DT_FLOAT"}, "value": {"tensor": {"dtype": "DT_FLOAT", "tensorShape": {"dim": [{"size": "1"}, {"size": "1"}, {"size": "80"}, {"size": "80"}]}}}}}, {"name": "PartitionedCall/model_253/tf.math.add_107/Add/y", "op": "Const", "attr": {"dtype": {"type": "DT_FLOAT"}, "value": {"tensor": {"dtype": "DT_FLOAT", "tensorShape": {"dim": [{"size": "80"}]}}}}}, {"name": "PartitionedCall/model_253/tf.concat_20/concat/axis", "op": "Const", "attr": {"dtype": {"type": "DT_INT32"}, "value": {"tensor": {"dtype": "DT_INT32", "tensorShape": {}}}}}, {"name": "PartitionedCall/model_253/tf.compat.v1.transpose_1/transpose/perm", "op": "Const", "attr": {"value": {"tensor": {"dtype": "DT_INT32", "tensorShape": {"dim": [{"size": "4"}]}}}, "dtype": {"type": "DT_INT32"}}}, {"name": "PartitionedCall/model_253/tf.reshape_2/Reshape/shape", "op": "Const", "attr": {"dtype": {"type": "DT_INT32"}, "value": {"tensor": {"dtype": "DT_INT32", "tensorShape": {"dim": [{"size": "3"}]}}}}}, {"name": "967", "op": "Const", "attr": {"value": {"tensor": {"dtype": "DT_FLOAT", "tensorShape": {"dim": [{"size": "3"}, {"size": "3"}, {"size": "128"}, {"size": "64"}]}}}, "dtype": {"type": "DT_FLOAT"}}}, {"name": "PartitionedCall/model_253/tf.math.add_121/Add/y", "op": "Const", "attr": {"value": {"tensor": {"dtype": "DT_FLOAT", "tensorShape": {"dim": [{"size": "64"}]}}}, "dtype": {"type": "DT_FLOAT"}}}, {"name": "979", "op": "Const", "attr": {"dtype": {"type": "DT_FLOAT"}, "value": {"tensor": {"dtype": "DT_FLOAT", "tensorShape": {"dim": [{"size": "3"}, {"size": "3"}, {"size": "64"}, {"size": "64"}]}}}}}, {"name": "PartitionedCall/model_253/tf.math.add_127/Add/y", "op": "Const", "attr": {"dtype": {"type": "DT_FLOAT"}, "value": {"tensor": {"dtype": "DT_FLOAT", "tensorShape": {"dim": [{"size": "64"}]}}}}}, {"name": "991", "op": "Const", "attr": {"dtype": {"type": "DT_FLOAT"}, "value": {"tensor": {"dtype": "DT_FLOAT", "tensorShape": {"dim": [{"size": "1"}, {"size": "1"}, {"size": "64"}, {"size": "64"}]}}}}}, {"name": "PartitionedCall/model_253/tf.math.add_135/Add/y", "op": "Const", "attr": {"value": {"tensor": {"dtype": "DT_FLOAT", "tensorShape": {"dim": [{"size": "64"}]}}}, "dtype": {"type": "DT_FLOAT"}}}, {"name": "965", "op": "Const", "attr": {"dtype": {"type": "DT_FLOAT"}, "value": {"tensor": {"dtype": "DT_FLOAT", "tensorShape": {"dim": [{"size": "3"}, {"size": "3"}, {"size": "128"}, {"size": "80"}]}}}}}, {"name": "PartitionedCall/model_253/tf.math.add_123/Add/y", "op": "Const", "attr": {"value": {"tensor": {"dtype": "DT_FLOAT", "tensorShape": {"dim": [{"size": "80"}]}}}, "dtype": {"type": "DT_FLOAT"}}}, {"name": "977", "op": "Const", "attr": {"dtype": {"type": "DT_FLOAT"}, "value": {"tensor": {"dtype": "DT_FLOAT", "tensorShape": {"dim": [{"size": "3"}, {"size": "3"}, {"size": "80"}, {"size": "80"}]}}}}}, {"name": "PartitionedCall/model_253/tf.math.add_129/Add/y", "op": "Const", "attr": {"dtype": {"type": "DT_FLOAT"}, "value": {"tensor": {"dtype": "DT_FLOAT", "tensorShape": {"dim": [{"size": "80"}]}}}}}, {"name": "989", "op": "Const", "attr": {"dtype": {"type": "DT_FLOAT"}, "value": {"tensor": {"dtype": "DT_FLOAT", "tensorShape": {"dim": [{"size": "1"}, {"size": "1"}, {"size": "80"}, {"size": "80"}]}}}}}, {"name": "PartitionedCall/model_253/tf.math.add_137/Add/y", "op": "Const", "attr": {"dtype": {"type": "DT_FLOAT"}, "value": {"tensor": {"dtype": "DT_FLOAT", "tensorShape": {"dim": [{"size": "80"}]}}}}}, {"name": "PartitionedCall/model_253/tf.concat_26/concat/axis", "op": "Const", "attr": {"dtype": {"type": "DT_INT32"}, "value": {"tensor": {"dtype": "DT_INT32", "tensorShape": {}}}}}, {"name": "PartitionedCall/model_253/tf.compat.v1.transpose_3/transpose/perm", "op": "Const", "attr": {"value": {"tensor": {"dtype": "DT_INT32", "tensorShape": {"dim": [{"size": "4"}]}}}, "dtype": {"type": "DT_INT32"}}}, {"name": "PartitionedCall/model_253/tf.reshape_6/Reshape/shape", "op": "Const", "attr": {"value": {"tensor": {"dtype": "DT_INT32", "tensorShape": {"dim": [{"size": "3"}]}}}, "dtype": {"type": "DT_INT32"}}}, {"name": "963", "op": "Const", "attr": {"dtype": {"type": "DT_FLOAT"}, "value": {"tensor": {"dtype": "DT_FLOAT", "tensorShape": {"dim": [{"size": "3"}, {"size": "3"}, {"size": "256"}, {"size": "64"}]}}}}}, {"name": "PartitionedCall/model_253/tf.math.add_147/Add/y", "op": "Const", "attr": {"dtype": {"type": "DT_FLOAT"}, "value": {"tensor": {"dtype": "DT_FLOAT", "tensorShape": {"dim": [{"size": "64"}]}}}}}, {"name": "975", "op": "Const", "attr": {"value": {"tensor": {"dtype": "DT_FLOAT", "tensorShape": {"dim": [{"size": "3"}, {"size": "3"}, {"size": "64"}, {"size": "64"}]}}}, "dtype": {"type": "DT_FLOAT"}}}, {"name": "PartitionedCall/model_253/tf.math.add_153/Add/y", "op": "Const", "attr": {"dtype": {"type": "DT_FLOAT"}, "value": {"tensor": {"dtype": "DT_FLOAT", "tensorShape": {"dim": [{"size": "64"}]}}}}}, {"name": "987", "op": "Const", "attr": {"value": {"tensor": {"dtype": "DT_FLOAT", "tensorShape": {"dim": [{"size": "1"}, {"size": "1"}, {"size": "64"}, {"size": "64"}]}}}, "dtype": {"type": "DT_FLOAT"}}}, {"name": "PartitionedCall/model_253/tf.math.add_159/Add/y", "op": "Const", "attr": {"dtype": {"type": "DT_FLOAT"}, "value": {"tensor": {"dtype": "DT_FLOAT", "tensorShape": {"dim": [{"size": "64"}]}}}}}, {"name": "961", "op": "Const", "attr": {"dtype": {"type": "DT_FLOAT"}, "value": {"tensor": {"dtype": "DT_FLOAT", "tensorShape": {"dim": [{"size": "3"}, {"size": "3"}, {"size": "256"}, {"size": "80"}]}}}}}, {"name": "PartitionedCall/model_253/tf.math.add_149/Add/y", "op": "Const", "attr": {"dtype": {"type": "DT_FLOAT"}, "value": {"tensor": {"dtype": "DT_FLOAT", "tensorShape": {"dim": [{"size": "80"}]}}}}}, {"name": "973", "op": "Const", "attr": {"dtype": {"type": "DT_FLOAT"}, "value": {"tensor": {"dtype": "DT_FLOAT", "tensorShape": {"dim": [{"size": "3"}, {"size": "3"}, {"size": "80"}, {"size": "80"}]}}}}}, {"name": "PartitionedCall/model_253/tf.math.add_155/Add/y", "op": "Const", "attr": {"value": {"tensor": {"dtype": "DT_FLOAT", "tensorShape": {"dim": [{"size": "80"}]}}}, "dtype": {"type": "DT_FLOAT"}}}, {"name": "985", "op": "Const", "attr": {"dtype": {"type": "DT_FLOAT"}, "value": {"tensor": {"dtype": "DT_FLOAT", "tensorShape": {"dim": [{"size": "1"}, {"size": "1"}, {"size": "80"}, {"size": "80"}]}}}}}, {"name": "PartitionedCall/model_253/tf.math.add_161/Add/y", "op": "Const", "attr": {"dtype": {"type": "DT_FLOAT"}, "value": {"tensor": {"dtype": "DT_FLOAT", "tensorShape": {"dim": [{"size": "80"}]}}}}}, {"name": "PartitionedCall/model_253/tf.concat_30/concat/axis", "op": "Const", "attr": {"value": {"tensor": {"dtype": "DT_INT32", "tensorShape": {}}}, "dtype": {"type": "DT_INT32"}}}, {"name": "PartitionedCall/model_253/tf.compat.v1.transpose_5/transpose/perm", "op": "Const", "attr": {"dtype": {"type": "DT_INT32"}, "value": {"tensor": {"dtype": "DT_INT32", "tensorShape": {"dim": [{"size": "4"}]}}}}}, {"name": "PartitionedCall/model_253/tf.reshape_10/Reshape/shape", "op": "Const", "attr": {"dtype": {"type": "DT_INT32"}, "value": {"tensor": {"dtype": "DT_INT32", "tensorShape": {"dim": [{"size": "3"}]}}}}}, {"name": "PartitionedCall/model_253/tf.concat_34/concat/axis", "op": "Const", "attr": {"dtype": {"type": "DT_INT32"}, "value": {"tensor": {"dtype": "DT_INT32", "tensorShape": {}}}}}, {"name": "PartitionedCall/model_253/tf.split_8/Const", "op": "Const", "attr": {"dtype": {"type": "DT_INT64"}, "value": {"tensor": {"dtype": "DT_INT64", "tensorShape": {"dim": [{"size": "2"}]}}}}}, {"name": "PartitionedCall/model_253/tf.split_8/split/split_dim", "op": "Const", "attr": {"value": {"tensor": {"dtype": "DT_INT32", "tensorShape": {}}}, "dtype": {"type": "DT_INT32"}}}, {"name": "1003", "op": "Const", "attr": {"dtype": {"type": "DT_FLOAT"}, "value": {"tensor": {"dtype": "DT_FLOAT", "tensorShape": {"dim": [{"size": "3"}, {"size": "3"}, {"size": "64"}, {"size": "32"}]}}}}}, {"name": "PartitionedCall/model_253/tf.math.add_86/Add/y", "op": "Const", "attr": {"dtype": {"type": "DT_FLOAT"}, "value": {"tensor": {"dtype": "DT_FLOAT", "tensorShape": {"dim": [{"size": "32"}]}}}}}, {"name": "1011", "op": "Const", "attr": {"dtype": {"type": "DT_FLOAT"}, "value": {"tensor": {"dtype": "DT_FLOAT", "tensorShape": {"dim": [{"size": "3"}, {"size": "3"}, {"size": "32"}, {"size": "32"}]}}}}}, {"name": "PartitionedCall/model_253/tf.math.add_93/Add/y", "op": "Const", "attr": {"dtype": {"type": "DT_FLOAT"}, "value": {"tensor": {"dtype": "DT_FLOAT", "tensorShape": {"dim": [{"size": "32"}]}}}}}, {"name": "1029", "op": "Const", "attr": {"value": {"tensor": {"dtype": "DT_FLOAT", "tensorShape": {"dim": [{"size": "1"}, {"size": "1"}, {"size": "32"}, {"size": "32"}]}}}, "dtype": {"type": "DT_FLOAT"}}}, {"name": "PartitionedCall/model_253/tf.math.add_103/Add/y", "op": "Const", "attr": {"dtype": {"type": "DT_FLOAT"}, "value": {"tensor": {"dtype": "DT_FLOAT", "tensorShape": {"dim": [{"size": "32"}]}}}}}, {"name": "PartitionedCall/model_253/tf.compat.v1.transpose/transpose/perm", "op": "Const", "attr": {"value": {"tensor": {"dtype": "DT_INT32", "tensorShape": {"dim": [{"size": "4"}]}}}, "dtype": {"type": "DT_INT32"}}}, {"name": "PartitionedCall/model_253/tf.reshape/Reshape/shape", "op": "Const", "attr": {"value": {"tensor": {"dtype": "DT_INT32", "tensorShape": {"dim": [{"size": "3"}]}}}, "dtype": {"type": "DT_INT32"}}}, {"name": "1001", "op": "Const", "attr": {"value": {"tensor": {"dtype": "DT_FLOAT", "tensorShape": {"dim": [{"size": "3"}, {"size": "3"}, {"size": "128"}, {"size": "32"}]}}}, "dtype": {"type": "DT_FLOAT"}}}, {"name": "PartitionedCall/model_253/tf.math.add_119/Add/y", "op": "Const", "attr": {"dtype": {"type": "DT_FLOAT"}, "value": {"tensor": {"dtype": "DT_FLOAT", "tensorShape": {"dim": [{"size": "32"}]}}}}}, {"name": "1009", "op": "Const", "attr": {"dtype": {"type": "DT_FLOAT"}, "value": {"tensor": {"dtype": "DT_FLOAT", "tensorShape": {"dim": [{"size": "3"}, {"size": "3"}, {"size": "32"}, {"size": "32"}]}}}}}, {"name": "PartitionedCall/model_253/tf.math.add_125/Add/y", "op": "Const", "attr": {"dtype": {"type": "DT_FLOAT"}, "value": {"tensor": {"dtype": "DT_FLOAT", "tensorShape": {"dim": [{"size": "32"}]}}}}}, {"name": "1027", "op": "Const", "attr": {"value": {"tensor": {"dtype": "DT_FLOAT", "tensorShape": {"dim": [{"size": "1"}, {"size": "1"}, {"size": "32"}, {"size": "32"}]}}}, "dtype": {"type": "DT_FLOAT"}}}, {"name": "PartitionedCall/model_253/tf.math.add_133/Add/y", "op": "Const", "attr": {"value": {"tensor": {"dtype": "DT_FLOAT", "tensorShape": {"dim": [{"size": "32"}]}}}, "dtype": {"type": "DT_FLOAT"}}}, {"name": "PartitionedCall/model_253/tf.compat.v1.transpose_2/transpose/perm", "op": "Const", "attr": {"dtype": {"type": "DT_INT32"}, "value": {"tensor": {"dtype": "DT_INT32", "tensorShape": {"dim": [{"size": "4"}]}}}}}, {"name": "PartitionedCall/model_253/tf.reshape_4/Reshape/shape", "op": "Const", "attr": {"dtype": {"type": "DT_INT32"}, "value": {"tensor": {"dtype": "DT_INT32", "tensorShape": {"dim": [{"size": "3"}]}}}}}, {"name": "937", "op": "Const", "attr": {"value": {"tensor": {"dtype": "DT_INT32", "tensorShape": {"dim": [{"size": "4"}, {"size": "2"}]}}}, "dtype": {"type": "DT_INT32"}}}, {"name": "939", "op": "Const", "attr": {"value": {"tensor": {"dtype": "DT_FLOAT", "tensorShape": {"dim": [{"size": "3"}, {"size": "3"}, {"size": "64"}, {"size": "64"}]}}}, "dtype": {"type": "DT_FLOAT"}}}, {"name": "PartitionedCall/model_253/tf.math.add_82/Add/y", "op": "Const", "attr": {"dtype": {"type": "DT_FLOAT"}, "value": {"tensor": {"dtype": "DT_FLOAT", "tensorShape": {"dim": [{"size": "64"}]}}}}}, {"name": "PartitionedCall/model_253/tf.concat_18/concat/axis", "op": "Const", "attr": {"dtype": {"type": "DT_INT32"}, "value": {"tensor": {"dtype": "DT_INT32", "tensorShape": {}}}}}, {"name": "941", "op": "Const", "attr": {"dtype": {"type": "DT_FLOAT"}, "value": {"tensor": {"dtype": "DT_FLOAT", "tensorShape": {"dim": [{"size": "1"}, {"size": "1"}, {"size": "192"}, {"size": "128"}]}}}}}, {"name": "PartitionedCall/model_253/tf.math.add_99/Add/y", "op": "Const", "attr": {"dtype": {"type": "DT_FLOAT"}, "value": {"tensor": {"dtype": "DT_FLOAT", "tensorShape": {"dim": [{"size": "128"}]}}}}}, {"name": "PartitionedCall/model_253/tf.split_6/Const", "op": "Const", "attr": {"value": {"tensor": {"dtype": "DT_INT64", "tensorShape": {"dim": [{"size": "2"}]}}}, "dtype": {"type": "DT_INT64"}}}, {"name": "PartitionedCall/model_253/tf.split_6/split/split_dim", "op": "Const", "attr": {"dtype": {"type": "DT_INT32"}, "value": {"tensor": {"dtype": "DT_INT32", "tensorShape": {}}}}}, {"name": "943", "op": "Const", "attr": {"value": {"tensor": {"dtype": "DT_FLOAT", "tensorShape": {"dim": [{"size": "3"}, {"size": "3"}, {"size": "64"}, {"size": "64"}]}}}, "dtype": {"type": "DT_FLOAT"}}}, {"name": "PartitionedCall/model_253/tf.math.add_111/Add/y", "op": "Const", "attr": {"value": {"tensor": {"dtype": "DT_FLOAT", "tensorShape": {"dim": [{"size": "64"}]}}}, "dtype": {"type": "DT_FLOAT"}}}, {"name": "945", "op": "Const", "attr": {"dtype": {"type": "DT_FLOAT"}, "value": {"tensor": {"dtype": "DT_FLOAT", "tensorShape": {"dim": [{"size": "3"}, {"size": "3"}, {"size": "64"}, {"size": "64"}]}}}}}, {"name": "PartitionedCall/model_253/tf.math.add_113/Add/y", "op": "Const", "attr": {"dtype": {"type": "DT_FLOAT"}, "value": {"tensor": {"dtype": "DT_FLOAT", "tensorShape": {"dim": [{"size": "64"}]}}}}}, {"name": "PartitionedCall/model_253/tf.concat_22/concat/axis", "op": "Const", "attr": {"dtype": {"type": "DT_INT32"}, "value": {"tensor": {"dtype": "DT_INT32", "tensorShape": {}}}}}, {"name": "947", "op": "Const", "attr": {"dtype": {"type": "DT_FLOAT"}, "value": {"tensor": {"dtype": "DT_FLOAT", "tensorShape": {"dim": [{"size": "1"}, {"size": "1"}, {"size": "192"}, {"size": "128"}]}}}}}, {"name": "PartitionedCall/model_253/tf.math.add_115/Add/y", "op": "Const", "attr": {"dtype": {"type": "DT_FLOAT"}, "value": {"tensor": {"dtype": "DT_FLOAT", "tensorShape": {"dim": [{"size": "128"}]}}}}}, {"name": "949", "op": "Const", "attr": {"dtype": {"type": "DT_INT32"}, "value": {"tensor": {"dtype": "DT_INT32", "tensorShape": {"dim": [{"size": "4"}, {"size": "2"}]}}}}}, {"name": "951", "op": "Const", "attr": {"dtype": {"type": "DT_FLOAT"}, "value": {"tensor": {"dtype": "DT_FLOAT", "tensorShape": {"dim": [{"size": "3"}, {"size": "3"}, {"size": "128"}, {"size": "128"}]}}}}}, {"name": "PartitionedCall/model_253/tf.math.add_117/Add/y", "op": "Const", "attr": {"dtype": {"type": "DT_FLOAT"}, "value": {"tensor": {"dtype": "DT_FLOAT", "tensorShape": {"dim": [{"size": "128"}]}}}}}, {"name": "PartitionedCall/model_253/tf.concat_24/concat/axis", "op": "Const", "attr": {"dtype": {"type": "DT_INT32"}, "value": {"tensor": {"dtype": "DT_INT32", "tensorShape": {}}}}}, {"name": "953", "op": "Const", "attr": {"value": {"tensor": {"dtype": "DT_FLOAT", "tensorShape": {"dim": [{"size": "1"}, {"size": "1"}, {"size": "384"}, {"size": "256"}]}}}, "dtype": {"type": "DT_FLOAT"}}}, {"name": "PartitionedCall/model_253/tf.math.add_131/Add/y", "op": "Const", "attr": {"value": {"tensor": {"dtype": "DT_FLOAT", "tensorShape": {"dim": [{"size": "256"}]}}}, "dtype": {"type": "DT_FLOAT"}}}, {"name": "PartitionedCall/model_253/tf.split_7/Const", "op": "Const", "attr": {"dtype": {"type": "DT_INT64"}, "value": {"tensor": {"dtype": "DT_INT64", "tensorShape": {"dim": [{"size": "2"}]}}}}}, {"name": "PartitionedCall/model_253/tf.split_7/split/split_dim", "op": "Const", "attr": {"dtype": {"type": "DT_INT32"}, "value": {"tensor": {"dtype": "DT_INT32", "tensorShape": {}}}}}, {"name": "955", "op": "Const", "attr": {"dtype": {"type": "DT_FLOAT"}, "value": {"tensor": {"dtype": "DT_FLOAT", "tensorShape": {"dim": [{"size": "3"}, {"size": "3"}, {"size": "128"}, {"size": "128"}]}}}}}, {"name": "PartitionedCall/model_253/tf.math.add_139/Add/y", "op": "Const", "attr": {"value": {"tensor": {"dtype": "DT_FLOAT", "tensorShape": {"dim": [{"size": "128"}]}}}, "dtype": {"type": "DT_FLOAT"}}}, {"name": "957", "op": "Const", "attr": {"value": {"tensor": {"dtype": "DT_FLOAT", "tensorShape": {"dim": [{"size": "3"}, {"size": "3"}, {"size": "128"}, {"size": "128"}]}}}, "dtype": {"type": "DT_FLOAT"}}}, {"name": "PartitionedCall/model_253/tf.math.add_141/Add/y", "op": "Const", "attr": {"dtype": {"type": "DT_FLOAT"}, "value": {"tensor": {"dtype": "DT_FLOAT", "tensorShape": {"dim": [{"size": "128"}]}}}}}, {"name": "PartitionedCall/model_253/tf.concat_28/concat/axis", "op": "Const", "attr": {"value": {"tensor": {"dtype": "DT_INT32", "tensorShape": {}}}, "dtype": {"type": "DT_INT32"}}}, {"name": "959", "op": "Const", "attr": {"dtype": {"type": "DT_FLOAT"}, "value": {"tensor": {"dtype": "DT_FLOAT", "tensorShape": {"dim": [{"size": "1"}, {"size": "1"}, {"size": "384"}, {"size": "256"}]}}}}}, {"name": "PartitionedCall/model_253/tf.math.add_143/Add/y", "op": "Const", "attr": {"value": {"tensor": {"dtype": "DT_FLOAT", "tensorShape": {"dim": [{"size": "256"}]}}}, "dtype": {"type": "DT_FLOAT"}}}, {"name": "999", "op": "Const", "attr": {"dtype": {"type": "DT_FLOAT"}, "value": {"tensor": {"dtype": "DT_FLOAT", "tensorShape": {"dim": [{"size": "3"}, {"size": "3"}, {"size": "256"}, {"size": "32"}]}}}}}, {"name": "PartitionedCall/model_253/tf.math.add_145/Add/y", "op": "Const", "attr": {"dtype": {"type": "DT_FLOAT"}, "value": {"tensor": {"dtype": "DT_FLOAT", "tensorShape": {"dim": [{"size": "32"}]}}}}}, {"name": "1007", "op": "Const", "attr": {"dtype": {"type": "DT_FLOAT"}, "value": {"tensor": {"dtype": "DT_FLOAT", "tensorShape": {"dim": [{"size": "3"}, {"size": "3"}, {"size": "32"}, {"size": "32"}]}}}}}, {"name": "PartitionedCall/model_253/tf.math.add_151/Add/y", "op": "Const", "attr": {"dtype": {"type": "DT_FLOAT"}, "value": {"tensor": {"dtype": "DT_FLOAT", "tensorShape": {"dim": [{"size": "32"}]}}}}}, {"name": "1025", "op": "Const", "attr": {"dtype": {"type": "DT_FLOAT"}, "value": {"tensor": {"dtype": "DT_FLOAT", "tensorShape": {"dim": [{"size": "1"}, {"size": "1"}, {"size": "32"}, {"size": "32"}]}}}}}, {"name": "PartitionedCall/model_253/tf.math.add_157/Add/y", "op": "Const", "attr": {"dtype": {"type": "DT_FLOAT"}, "value": {"tensor": {"dtype": "DT_FLOAT", "tensorShape": {"dim": [{"size": "32"}]}}}}}, {"name": "PartitionedCall/model_253/tf.compat.v1.transpose_4/transpose/perm", "op": "Const", "attr": {"dtype": {"type": "DT_INT32"}, "value": {"tensor": {"dtype": "DT_INT32", "tensorShape": {"dim": [{"size": "4"}]}}}}}, {"name": "PartitionedCall/model_253/tf.reshape_8/Reshape/shape", "op": "Const", "attr": {"value": {"tensor": {"dtype": "DT_INT32", "tensorShape": {"dim": [{"size": "3"}]}}}, "dtype": {"type": "DT_INT32"}}}, {"name": "PartitionedCall/model_253/tf.concat_32/concat/axis", "op": "Const", "attr": {"dtype": {"type": "DT_INT32"}, "value": {"tensor": {"dtype": "DT_INT32", "tensorShape": {}}}}}, {"name": "PartitionedCall/model_253/output0/concat/axis", "op": "Const", "attr": {"value": {"tensor": {"dtype": "DT_INT32", "tensorShape": {}}}, "dtype": {"type": "DT_INT32"}}}, {"name": "PartitionedCall/model_253/tf.nn.conv2d_transpose/conv2d_transpose/input_sizes", "op": "Const", "attr": {"value": {"tensor": {"dtype": "DT_INT32", "tensorShape": {"dim": [{"size": "4"}]}}}, "dtype": {"type": "DT_INT32"}}}, {"name": "1005", "op": "Const", "attr": {"value": {"tensor": {"dtype": "DT_FLOAT", "tensorShape": {"dim": [{"size": "2"}, {"size": "2"}, {"size": "64"}, {"size": "64"}]}}}, "dtype": {"type": "DT_FLOAT"}}}, {"name": "905", "op": "Const", "attr": {"dtype": {"type": "DT_INT32"}, "value": {"tensor": {"dtype": "DT_INT32", "tensorShape": {"dim": [{"size": "4"}, {"size": "2"}]}}}}}, {"name": "907", "op": "Const", "attr": {"dtype": {"type": "DT_FLOAT"}, "value": {"tensor": {"dtype": "DT_FLOAT", "tensorShape": {"dim": [{"size": "3"}, {"size": "3"}, {"size": "128"}, {"size": "256"}]}}}}}, {"name": "PartitionedCall/model_253/tf.math.add_50/Add/y", "op": "Const", "attr": {"dtype": {"type": "DT_FLOAT"}, "value": {"tensor": {"dtype": "DT_FLOAT", "tensorShape": {"dim": [{"size": "256"}]}}}}}, {"name": "909", "op": "Const", "attr": {"dtype": {"type": "DT_FLOAT"}, "value": {"tensor": {"dtype": "DT_FLOAT", "tensorShape": {"dim": [{"size": "1"}, {"size": "1"}, {"size": "256"}, {"size": "256"}]}}}}}, {"name": "PartitionedCall/model_253/tf.math.add_52/Add/y", "op": "Const", "attr": {"dtype": {"type": "DT_FLOAT"}, "value": {"tensor": {"dtype": "DT_FLOAT", "tensorShape": {"dim": [{"size": "256"}]}}}}}, {"name": "PartitionedCall/model_253/tf.split_3/Const", "op": "Const", "attr": {"dtype": {"type": "DT_INT64"}, "value": {"tensor": {"dtype": "DT_INT64", "tensorShape": {"dim": [{"size": "2"}]}}}}}, {"name": "PartitionedCall/model_253/tf.split_3/split/split_dim", "op": "Const", "attr": {"value": {"tensor": {"dtype": "DT_INT32", "tensorShape": {}}}, "dtype": {"type": "DT_INT32"}}}, {"name": "911", "op": "Const", "attr": {"dtype": {"type": "DT_FLOAT"}, "value": {"tensor": {"dtype": "DT_FLOAT", "tensorShape": {"dim": [{"size": "3"}, {"size": "3"}, {"size": "128"}, {"size": "128"}]}}}}}, {"name": "PartitionedCall/model_253/tf.math.add_54/Add/y", "op": "Const", "attr": {"value": {"tensor": {"dtype": "DT_FLOAT", "tensorShape": {"dim": [{"size": "128"}]}}}, "dtype": {"type": "DT_FLOAT"}}}, {"name": "913", "op": "Const", "attr": {"value": {"tensor": {"dtype": "DT_FLOAT", "tensorShape": {"dim": [{"size": "3"}, {"size": "3"}, {"size": "128"}, {"size": "128"}]}}}, "dtype": {"type": "DT_FLOAT"}}}, {"name": "PartitionedCall/model_253/tf.math.add_56/Add/y", "op": "Const", "attr": {"dtype": {"type": "DT_FLOAT"}, "value": {"tensor": {"dtype": "DT_FLOAT", "tensorShape": {"dim": [{"size": "128"}]}}}}}, {"name": "PartitionedCall/model_253/tf.concat_6/concat/axis", "op": "Const", "attr": {"dtype": {"type": "DT_INT32"}, "value": {"tensor": {"dtype": "DT_INT32", "tensorShape": {}}}}}, {"name": "915", "op": "Const", "attr": {"dtype": {"type": "DT_FLOAT"}, "value": {"tensor": {"dtype": "DT_FLOAT", "tensorShape": {"dim": [{"size": "1"}, {"size": "1"}, {"size": "384"}, {"size": "256"}]}}}}}, {"name": "PartitionedCall/model_253/tf.math.add_60/Add/y", "op": "Const", "attr": {"dtype": {"type": "DT_FLOAT"}, "value": {"tensor": {"dtype": "DT_FLOAT", "tensorShape": {"dim": [{"size": "256"}]}}}}}, {"name": "917", "op": "Const", "attr": {"value": {"tensor": {"dtype": "DT_FLOAT", "tensorShape": {"dim": [{"size": "1"}, {"size": "1"}, {"size": "256"}, {"size": "128"}]}}}, "dtype": {"type": "DT_FLOAT"}}}, {"name": "PartitionedCall/model_253/tf.math.add_62/Add/y", "op": "Const", "attr": {"value": {"tensor": {"dtype": "DT_FLOAT", "tensorShape": {"dim": [{"size": "128"}]}}}, "dtype": {"type": "DT_FLOAT"}}}, {"name": "PartitionedCall/model_253/tf.concat_8/concat/axis", "op": "Const", "attr": {"value": {"tensor": {"dtype": "DT_INT32", "tensorShape": {}}}, "dtype": {"type": "DT_INT32"}}}, {"name": "919", "op": "Const", "attr": {"value": {"tensor": {"dtype": "DT_FLOAT", "tensorShape": {"dim": [{"size": "1"}, {"size": "1"}, {"size": "512"}, {"size": "256"}]}}}, "dtype": {"type": "DT_FLOAT"}}}, {"name": "PartitionedCall/model_253/tf.math.add_64/Add/y", "op": "Const", "attr": {"dtype": {"type": "DT_FLOAT"}, "value": {"tensor": {"dtype": "DT_FLOAT", "tensorShape": {"dim": [{"size": "256"}]}}}}}, {"name": "PartitionedCall/model_253/lambda//model.10/Resize/size", "op": "Const", "attr": {"value": {"tensor": {"dtype": "DT_INT32", "tensorShape": {"dim": [{"size": "2"}]}}}, "dtype": {"type": "DT_INT32"}}}, {"name": "889", "op": "Const", "attr": {"dtype": {"type": "DT_INT32"}, "value": {"tensor": {"dtype": "DT_INT32", "tensorShape": {"dim": [{"size": "4"}, {"size": "2"}]}}}}}, {"name": "891", "op": "Const", "attr": {"dtype": {"type": "DT_FLOAT"}, "value": {"tensor": {"dtype": "DT_FLOAT", "tensorShape": {"dim": [{"size": "3"}, {"size": "3"}, {"size": "64"}, {"size": "128"}]}}}}}, {"name": "PartitionedCall/model_253/tf.math.add_32/Add/y", "op": "Const", "attr": {"dtype": {"type": "DT_FLOAT"}, "value": {"tensor": {"dtype": "DT_FLOAT", "tensorShape": {"dim": [{"size": "128"}]}}}}}, {"name": "893", "op": "Const", "attr": {"value": {"tensor": {"dtype": "DT_FLOAT", "tensorShape": {"dim": [{"size": "1"}, {"size": "1"}, {"size": "128"}, {"size": "128"}]}}}, "dtype": {"type": "DT_FLOAT"}}}, {"name": "PartitionedCall/model_253/tf.math.add_34/Add/y", "op": "Const", "attr": {"dtype": {"type": "DT_FLOAT"}, "value": {"tensor": {"dtype": "DT_FLOAT", "tensorShape": {"dim": [{"size": "128"}]}}}}}, {"name": "PartitionedCall/model_253/tf.split_2/Const", "op": "Const", "attr": {"value": {"tensor": {"dtype": "DT_INT64", "tensorShape": {"dim": [{"size": "2"}]}}}, "dtype": {"type": "DT_INT64"}}}, {"name": "PartitionedCall/model_253/tf.split_2/split/split_dim", "op": "Const", "attr": {"dtype": {"type": "DT_INT32"}, "value": {"tensor": {"dtype": "DT_INT32", "tensorShape": {}}}}}, {"name": "895", "op": "Const", "attr": {"value": {"tensor": {"dtype": "DT_FLOAT", "tensorShape": {"dim": [{"size": "3"}, {"size": "3"}, {"size": "64"}, {"size": "64"}]}}}, "dtype": {"type": "DT_FLOAT"}}}, {"name": "PartitionedCall/model_253/tf.math.add_36/Add/y", "op": "Const", "attr": {"dtype": {"type": "DT_FLOAT"}, "value": {"tensor": {"dtype": "DT_FLOAT", "tensorShape": {"dim": [{"size": "64"}]}}}}}, {"name": "897", "op": "Const", "attr": {"dtype": {"type": "DT_FLOAT"}, "value": {"tensor": {"dtype": "DT_FLOAT", "tensorShape": {"dim": [{"size": "3"}, {"size": "3"}, {"size": "64"}, {"size": "64"}]}}}}}, {"name": "PartitionedCall/model_253/tf.math.add_38/Add/y", "op": "Const", "attr": {"dtype": {"type": "DT_FLOAT"}, "value": {"tensor": {"dtype": "DT_FLOAT", "tensorShape": {"dim": [{"size": "64"}]}}}}}, {"name": "899", "op": "Const", "attr": {"value": {"tensor": {"dtype": "DT_FLOAT", "tensorShape": {"dim": [{"size": "3"}, {"size": "3"}, {"size": "64"}, {"size": "64"}]}}}, "dtype": {"type": "DT_FLOAT"}}}, {"name": "PartitionedCall/model_253/tf.math.add_42/Add/y", "op": "Const", "attr": {"value": {"tensor": {"dtype": "DT_FLOAT", "tensorShape": {"dim": [{"size": "64"}]}}}, "dtype": {"type": "DT_FLOAT"}}}, {"name": "901", "op": "Const", "attr": {"dtype": {"type": "DT_FLOAT"}, "value": {"tensor": {"dtype": "DT_FLOAT", "tensorShape": {"dim": [{"size": "3"}, {"size": "3"}, {"size": "64"}, {"size": "64"}]}}}}}, {"name": "PartitionedCall/model_253/tf.math.add_44/Add/y", "op": "Const", "attr": {"dtype": {"type": "DT_FLOAT"}, "value": {"tensor": {"dtype": "DT_FLOAT", "tensorShape": {"dim": [{"size": "64"}]}}}}}, {"name": "PartitionedCall/model_253/tf.concat_4/concat/axis", "op": "Const", "attr": {"value": {"tensor": {"dtype": "DT_INT32", "tensorShape": {}}}, "dtype": {"type": "DT_INT32"}}}, {"name": "903", "op": "Const", "attr": {"value": {"tensor": {"dtype": "DT_FLOAT", "tensorShape": {"dim": [{"size": "1"}, {"size": "1"}, {"size": "256"}, {"size": "128"}]}}}, "dtype": {"type": "DT_FLOAT"}}}, {"name": "PartitionedCall/model_253/tf.math.add_48/Add/y", "op": "Const", "attr": {"dtype": {"type": "DT_FLOAT"}, "value": {"tensor": {"dtype": "DT_FLOAT", "tensorShape": {"dim": [{"size": "128"}]}}}}}, {"name": "PartitionedCall/model_253/tf.concat_10/concat/axis", "op": "Const", "attr": {"value": {"tensor": {"dtype": "DT_INT32", "tensorShape": {}}}, "dtype": {"type": "DT_INT32"}}}, {"name": "921", "op": "Const", "attr": {"value": {"tensor": {"dtype": "DT_FLOAT", "tensorShape": {"dim": [{"size": "1"}, {"size": "1"}, {"size": "384"}, {"size": "128"}]}}}, "dtype": {"type": "DT_FLOAT"}}}, {"name": "PartitionedCall/model_253/tf.math.add_66/Add/y", "op": "Const", "attr": {"dtype": {"type": "DT_FLOAT"}, "value": {"tensor": {"dtype": "DT_FLOAT", "tensorShape": {"dim": [{"size": "128"}]}}}}}, {"name": "PartitionedCall/model_253/tf.split_4/Const", "op": "Const", "attr": {"dtype": {"type": "DT_INT64"}, "value": {"tensor": {"dtype": "DT_INT64", "tensorShape": {"dim": [{"size": "2"}]}}}}}, {"name": "PartitionedCall/model_253/tf.split_4/split/split_dim", "op": "Const", "attr": {"value": {"tensor": {"dtype": "DT_INT32", "tensorShape": {}}}, "dtype": {"type": "DT_INT32"}}}, {"name": "923", "op": "Const", "attr": {"value": {"tensor": {"dtype": "DT_FLOAT", "tensorShape": {"dim": [{"size": "3"}, {"size": "3"}, {"size": "64"}, {"size": "64"}]}}}, "dtype": {"type": "DT_FLOAT"}}}, {"name": "PartitionedCall/model_253/tf.math.add_68/Add/y", "op": "Const", "attr": {"value": {"tensor": {"dtype": "DT_FLOAT", "tensorShape": {"dim": [{"size": "64"}]}}}, "dtype": {"type": "DT_FLOAT"}}}, {"name": "925", "op": "Const", "attr": {"dtype": {"type": "DT_FLOAT"}, "value": {"tensor": {"dtype": "DT_FLOAT", "tensorShape": {"dim": [{"size": "3"}, {"size": "3"}, {"size": "64"}, {"size": "64"}]}}}}}, {"name": "PartitionedCall/model_253/tf.math.add_70/Add/y", "op": "Const", "attr": {"dtype": {"type": "DT_FLOAT"}, "value": {"tensor": {"dtype": "DT_FLOAT", "tensorShape": {"dim": [{"size": "64"}]}}}}}, {"name": "PartitionedCall/model_253/tf.concat_12/concat/axis", "op": "Const", "attr": {"value": {"tensor": {"dtype": "DT_INT32", "tensorShape": {}}}, "dtype": {"type": "DT_INT32"}}}, {"name": "927", "op": "Const", "attr": {"dtype": {"type": "DT_FLOAT"}, "value": {"tensor": {"dtype": "DT_FLOAT", "tensorShape": {"dim": [{"size": "1"}, {"size": "1"}, {"size": "192"}, {"size": "128"}]}}}}}, {"name": "PartitionedCall/model_253/tf.math.add_72/Add/y", "op": "Const", "attr": {"value": {"tensor": {"dtype": "DT_FLOAT", "tensorShape": {"dim": [{"size": "128"}]}}}, "dtype": {"type": "DT_FLOAT"}}}, {"name": "PartitionedCall/model_253/lambda_2//model.13/Resize/size", "op": "Const", "attr": {"dtype": {"type": "DT_INT32"}, "value": {"tensor": {"dtype": "DT_INT32", "tensorShape": {"dim": [{"size": "2"}]}}}}}, {"name": "857", "op": "Const", "attr": {"value": {"tensor": {"dtype": "DT_INT32", "tensorShape": {"dim": [{"size": "4"}, {"size": "2"}]}}}, "dtype": {"type": "DT_INT32"}}}, {"name": "859", "op": "Const", "attr": {"value": {"tensor": {"dtype": "DT_FLOAT", "tensorShape": {"dim": [{"size": "3"}, {"size": "3"}, {"size": "3"}, {"size": "16"}]}}}, "dtype": {"type": "DT_FLOAT"}}}, {"name": "PartitionedCall/model_253/tf.math.add/Add/y", "op": "Const", "attr": {"dtype": {"type": "DT_FLOAT"}, "value": {"tensor": {"dtype": "DT_FLOAT", "tensorShape": {"dim": [{"size": "16"}]}}}}}, {"name": "861", "op": "Const", "attr": {"dtype": {"type": "DT_INT32"}, "value": {"tensor": {"dtype": "DT_INT32", "tensorShape": {"dim": [{"size": "4"}, {"size": "2"}]}}}}}, {"name": "863", "op": "Const", "attr": {"dtype": {"type": "DT_FLOAT"}, "value": {"tensor": {"dtype": "DT_FLOAT", "tensorShape": {"dim": [{"size": "3"}, {"size": "3"}, {"size": "16"}, {"size": "32"}]}}}}}, {"name": "PartitionedCall/model_253/tf.math.add_2/Add/y", "op": "Const", "attr": {"dtype": {"type": "DT_FLOAT"}, "value": {"tensor": {"dtype": "DT_FLOAT", "tensorShape": {"dim": [{"size": "32"}]}}}}}, {"name": "865", "op": "Const", "attr": {"value": {"tensor": {"dtype": "DT_FLOAT", "tensorShape": {"dim": [{"size": "1"}, {"size": "1"}, {"size": "32"}, {"size": "32"}]}}}, "dtype": {"type": "DT_FLOAT"}}}, {"name": "PartitionedCall/model_253/tf.math.add_4/Add/y", "op": "Const", "attr": {"dtype": {"type": "DT_FLOAT"}, "value": {"tensor": {"dtype": "DT_FLOAT", "tensorShape": {"dim": [{"size": "32"}]}}}}}, {"name": "PartitionedCall/model_253/tf.split/Const", "op": "Const", "attr": {"dtype": {"type": "DT_INT64"}, "value": {"tensor": {"dtype": "DT_INT64", "tensorShape": {"dim": [{"size": "2"}]}}}}}, {"name": "PartitionedCall/model_253/tf.split/split/split_dim", "op": "Const", "attr": {"value": {"tensor": {"dtype": "DT_INT32", "tensorShape": {}}}, "dtype": {"type": "DT_INT32"}}}, {"name": "867", "op": "Const", "attr": {"value": {"tensor": {"dtype": "DT_FLOAT", "tensorShape": {"dim": [{"size": "3"}, {"size": "3"}, {"size": "16"}, {"size": "16"}]}}}, "dtype": {"type": "DT_FLOAT"}}}, {"name": "PartitionedCall/model_253/tf.math.add_6/Add/y", "op": "Const", "attr": {"value": {"tensor": {"dtype": "DT_FLOAT", "tensorShape": {"dim": [{"size": "16"}]}}}, "dtype": {"type": "DT_FLOAT"}}}, {"name": "869", "op": "Const", "attr": {"dtype": {"type": "DT_FLOAT"}, "value": {"tensor": {"dtype": "DT_FLOAT", "tensorShape": {"dim": [{"size": "3"}, {"size": "3"}, {"size": "16"}, {"size": "16"}]}}}}}, {"name": "PartitionedCall/model_253/tf.math.add_8/Add/y", "op": "Const", "attr": {"value": {"tensor": {"dtype": "DT_FLOAT", "tensorShape": {"dim": [{"size": "16"}]}}}, "dtype": {"type": "DT_FLOAT"}}}, {"name": "PartitionedCall/model_253/tf.concat/concat/axis", "op": "Const", "attr": {"dtype": {"type": "DT_INT32"}, "value": {"tensor": {"dtype": "DT_INT32", "tensorShape": {}}}}}, {"name": "871", "op": "Const", "attr": {"value": {"tensor": {"dtype": "DT_FLOAT", "tensorShape": {"dim": [{"size": "1"}, {"size": "1"}, {"size": "48"}, {"size": "32"}]}}}, "dtype": {"type": "DT_FLOAT"}}}, {"name": "PartitionedCall/model_253/tf.math.add_12/Add/y", "op": "Const", "attr": {"value": {"tensor": {"dtype": "DT_FLOAT", "tensorShape": {"dim": [{"size": "32"}]}}}, "dtype": {"type": "DT_FLOAT"}}}, {"name": "873", "op": "Const", "attr": {"dtype": {"type": "DT_INT32"}, "value": {"tensor": {"dtype": "DT_INT32", "tensorShape": {"dim": [{"size": "4"}, {"size": "2"}]}}}}}, {"name": "875", "op": "Const", "attr": {"dtype": {"type": "DT_FLOAT"}, "value": {"tensor": {"dtype": "DT_FLOAT", "tensorShape": {"dim": [{"size": "3"}, {"size": "3"}, {"size": "32"}, {"size": "64"}]}}}}}, {"name": "PartitionedCall/model_253/tf.math.add_14/Add/y", "op": "Const", "attr": {"value": {"tensor": {"dtype": "DT_FLOAT", "tensorShape": {"dim": [{"size": "64"}]}}}, "dtype": {"type": "DT_FLOAT"}}}, {"name": "877", "op": "Const", "attr": {"value": {"tensor": {"dtype": "DT_FLOAT", "tensorShape": {"dim": [{"size": "1"}, {"size": "1"}, {"size": "64"}, {"size": "64"}]}}}, "dtype": {"type": "DT_FLOAT"}}}, {"name": "PartitionedCall/model_253/tf.math.add_16/Add/y", "op": "Const", "attr": {"dtype": {"type": "DT_FLOAT"}, "value": {"tensor": {"dtype": "DT_FLOAT", "tensorShape": {"dim": [{"size": "64"}]}}}}}, {"name": "PartitionedCall/model_253/tf.split_1/Const", "op": "Const", "attr": {"dtype": {"type": "DT_INT64"}, "value": {"tensor": {"dtype": "DT_INT64", "tensorShape": {"dim": [{"size": "2"}]}}}}}, {"name": "PartitionedCall/model_253/tf.split_1/split/split_dim", "op": "Const", "attr": {"value": {"tensor": {"dtype": "DT_INT32", "tensorShape": {}}}, "dtype": {"type": "DT_INT32"}}}, {"name": "879", "op": "Const", "attr": {"value": {"tensor": {"dtype": "DT_FLOAT", "tensorShape": {"dim": [{"size": "3"}, {"size": "3"}, {"size": "32"}, {"size": "32"}]}}}, "dtype": {"type": "DT_FLOAT"}}}, {"name": "PartitionedCall/model_253/tf.math.add_18/Add/y", "op": "Const", "attr": {"value": {"tensor": {"dtype": "DT_FLOAT", "tensorShape": {"dim": [{"size": "32"}]}}}, "dtype": {"type": "DT_FLOAT"}}}, {"name": "881", "op": "Const", "attr": {"dtype": {"type": "DT_FLOAT"}, "value": {"tensor": {"dtype": "DT_FLOAT", "tensorShape": {"dim": [{"size": "3"}, {"size": "3"}, {"size": "32"}, {"size": "32"}]}}}}}, {"name": "PartitionedCall/model_253/tf.math.add_20/Add/y", "op": "Const", "attr": {"dtype": {"type": "DT_FLOAT"}, "value": {"tensor": {"dtype": "DT_FLOAT", "tensorShape": {"dim": [{"size": "32"}]}}}}}, {"name": "883", "op": "Const", "attr": {"dtype": {"type": "DT_FLOAT"}, "value": {"tensor": {"dtype": "DT_FLOAT", "tensorShape": {"dim": [{"size": "3"}, {"size": "3"}, {"size": "32"}, {"size": "32"}]}}}}}, {"name": "PartitionedCall/model_253/tf.math.add_24/Add/y", "op": "Const", "attr": {"value": {"tensor": {"dtype": "DT_FLOAT", "tensorShape": {"dim": [{"size": "32"}]}}}, "dtype": {"type": "DT_FLOAT"}}}, {"name": "885", "op": "Const", "attr": {"value": {"tensor": {"dtype": "DT_FLOAT", "tensorShape": {"dim": [{"size": "3"}, {"size": "3"}, {"size": "32"}, {"size": "32"}]}}}, "dtype": {"type": "DT_FLOAT"}}}, {"name": "PartitionedCall/model_253/tf.math.add_26/Add/y", "op": "Const", "attr": {"value": {"tensor": {"dtype": "DT_FLOAT", "tensorShape": {"dim": [{"size": "32"}]}}}, "dtype": {"type": "DT_FLOAT"}}}, {"name": "PartitionedCall/model_253/tf.concat_2/concat/axis", "op": "Const", "attr": {"dtype": {"type": "DT_INT32"}, "value": {"tensor": {"dtype": "DT_INT32", "tensorShape": {}}}}}, {"name": "887", "op": "Const", "attr": {"dtype": {"type": "DT_FLOAT"}, "value": {"tensor": {"dtype": "DT_FLOAT", "tensorShape": {"dim": [{"size": "1"}, {"size": "1"}, {"size": "128"}, {"size": "64"}]}}}}}, {"name": "PartitionedCall/model_253/tf.math.add_30/Add/y", "op": "Const", "attr": {"value": {"tensor": {"dtype": "DT_FLOAT", "tensorShape": {"dim": [{"size": "64"}]}}}, "dtype": {"type": "DT_FLOAT"}}}, {"name": "PartitionedCall/model_253/tf.concat_14/concat/axis", "op": "Const", "attr": {"dtype": {"type": "DT_INT32"}, "value": {"tensor": {"dtype": "DT_INT32", "tensorShape": {}}}}}, {"name": "929", "op": "Const", "attr": {"value": {"tensor": {"dtype": "DT_FLOAT", "tensorShape": {"dim": [{"size": "1"}, {"size": "1"}, {"size": "192"}, {"size": "64"}]}}}, "dtype": {"type": "DT_FLOAT"}}}, {"name": "PartitionedCall/model_253/tf.math.add_74/Add/y", "op": "Const", "attr": {"dtype": {"type": "DT_FLOAT"}, "value": {"tensor": {"dtype": "DT_FLOAT", "tensorShape": {"dim": [{"size": "64"}]}}}}}, {"name": "PartitionedCall/model_253/tf.split_5/Const", "op": "Const", "attr": {"value": {"tensor": {"dtype": "DT_INT64", "tensorShape": {"dim": [{"size": "2"}]}}}, "dtype": {"type": "DT_INT64"}}}, {"name": "PartitionedCall/model_253/tf.split_5/split/split_dim", "op": "Const", "attr": {"dtype": {"type": "DT_INT32"}, "value": {"tensor": {"dtype": "DT_INT32", "tensorShape": {}}}}}, {"name": "931", "op": "Const", "attr": {"dtype": {"type": "DT_FLOAT"}, "value": {"tensor": {"dtype": "DT_FLOAT", "tensorShape": {"dim": [{"size": "3"}, {"size": "3"}, {"size": "32"}, {"size": "32"}]}}}}}, {"name": "PartitionedCall/model_253/tf.math.add_76/Add/y", "op": "Const", "attr": {"value": {"tensor": {"dtype": "DT_FLOAT", "tensorShape": {"dim": [{"size": "32"}]}}}, "dtype": {"type": "DT_FLOAT"}}}, {"name": "933", "op": "Const", "attr": {"value": {"tensor": {"dtype": "DT_FLOAT", "tensorShape": {"dim": [{"size": "3"}, {"size": "3"}, {"size": "32"}, {"size": "32"}]}}}, "dtype": {"type": "DT_FLOAT"}}}, {"name": "PartitionedCall/model_253/tf.math.add_78/Add/y", "op": "Const", "attr": {"dtype": {"type": "DT_FLOAT"}, "value": {"tensor": {"dtype": "DT_FLOAT", "tensorShape": {"dim": [{"size": "32"}]}}}}}, {"name": "PartitionedCall/model_253/tf.concat_16/concat/axis", "op": "Const", "attr": {"value": {"tensor": {"dtype": "DT_INT32", "tensorShape": {}}}, "dtype": {"type": "DT_INT32"}}}, {"name": "935", "op": "Const", "attr": {"dtype": {"type": "DT_FLOAT"}, "value": {"tensor": {"dtype": "DT_FLOAT", "tensorShape": {"dim": [{"size": "1"}, {"size": "1"}, {"size": "96"}, {"size": "64"}]}}}}}, {"name": "PartitionedCall/model_253/tf.math.add_80/Add/y", "op": "Const", "attr": {"dtype": {"type": "DT_FLOAT"}, "value": {"tensor": {"dtype": "DT_FLOAT", "tensorShape": {"dim": [{"size": "64"}]}}}}}, {"name": "997", "op": "Const", "attr": {"dtype": {"type": "DT_FLOAT"}, "value": {"tensor": {"dtype": "DT_FLOAT", "tensorShape": {"dim": [{"size": "3"}, {"size": "3"}, {"size": "64"}, {"size": "64"}]}}}}}, {"name": "PartitionedCall/model_253/tf.math.add_84/Add/y", "op": "Const", "attr": {"value": {"tensor": {"dtype": "DT_FLOAT", "tensorShape": {"dim": [{"size": "64"}]}}}, "dtype": {"type": "DT_FLOAT"}}}, {"name": "PartitionedCall/model_253/tf.math.add_92/Add/y", "op": "Const", "attr": {"value": {"tensor": {"dtype": "DT_FLOAT", "tensorShape": {"dim": [{"size": "64"}]}}}, "dtype": {"type": "DT_FLOAT"}}}, {"name": "1015", "op": "Const", "attr": {"value": {"tensor": {"dtype": "DT_FLOAT", "tensorShape": {"dim": [{"size": "3"}, {"size": "3"}, {"size": "64"}, {"size": "64"}]}}}, "dtype": {"type": "DT_FLOAT"}}}, {"name": "PartitionedCall/model_253/tf.math.add_101/Add/y", "op": "Const", "attr": {"dtype": {"type": "DT_FLOAT"}, "value": {"tensor": {"dtype": "DT_FLOAT", "tensorShape": {"dim": [{"size": "64"}]}}}}}, {"name": "1035", "op": "Const", "attr": {"value": {"tensor": {"dtype": "DT_FLOAT", "tensorShape": {"dim": [{"size": "1"}, {"size": "1"}, {"size": "64"}, {"size": "32"}]}}}, "dtype": {"type": "DT_FLOAT"}}}, {"name": "PartitionedCall/model_253/tf.math.add_109/Add/y", "op": "Const", "attr": {"value": {"tensor": {"dtype": "DT_FLOAT", "tensorShape": {"dim": [{"size": "32"}]}}}, "dtype": {"type": "DT_FLOAT"}}}, {"name": "x", "op": "Placeholder", "attr": {"dtype": {"type": "DT_FLOAT"}, "shape": {"shape": {"dim": [{"size": "1"}, {"size": "640"}, {"size": "640"}, {"size": "3"}]}}}}, {"name": "PartitionedCall/model_253/tf.compat.v1.pad/Pad", "op": "Pad", "input": ["x", "857"], "attr": {"Tpaddings": {"type": "DT_INT32"}, "T": {"type": "DT_FLOAT"}}}, {"name": "PartitionedCall/model_253/tf.nn.convolution/convolution", "op": "Conv2D", "input": ["PartitionedCall/model_253/tf.compat.v1.pad/Pad", "859"], "device": "/device:CPU:0", "attr": {"dilations": {"list": {"i": ["1", "1", "1", "1"]}}, "explicit_paddings": {"list": {}}, "T": {"type": "DT_FLOAT"}, "strides": {"list": {"i": ["1", "2", "2", "1"]}}, "padding": {"s": "VkFMSUQ="}, "data_format": {"s": "TkhXQw=="}, "use_cudnn_on_gpu": {"b": true}}}, {"name": "PartitionedCall/model_253/tf.math.add/Add", "op": "AddV2", "input": ["PartitionedCall/model_253/tf.nn.convolution/convolution", "PartitionedCall/model_253/tf.math.add/Add/y"], "attr": {"T": {"type": "DT_FLOAT"}}}, {"name": "PartitionedCall/model_253/tf.math.sigmoid/Sigmoid", "op": "Sigmoid", "input": ["PartitionedCall/model_253/tf.math.add/Add"], "attr": {"T": {"type": "DT_FLOAT"}}}, {"name": "PartitionedCall/model_253/tf.math.multiply_1/Mul", "op": "Mul", "input": ["PartitionedCall/model_253/tf.math.add/Add", "PartitionedCall/model_253/tf.math.sigmoid/Sigmoid"], "attr": {"T": {"type": "DT_FLOAT"}}}, {"name": "PartitionedCall/model_253/tf.compat.v1.pad_1/Pad", "op": "Pad", "input": ["PartitionedCall/model_253/tf.math.multiply_1/Mul", "861"], "attr": {"T": {"type": "DT_FLOAT"}, "Tpaddings": {"type": "DT_INT32"}}}, {"name": "PartitionedCall/model_253/tf.nn.convolution_2/convolution", "op": "Conv2D", "input": ["PartitionedCall/model_253/tf.compat.v1.pad_1/Pad", "863"], "device": "/device:CPU:0", "attr": {"data_format": {"s": "TkhXQw=="}, "T": {"type": "DT_FLOAT"}, "use_cudnn_on_gpu": {"b": true}, "strides": {"list": {"i": ["1", "2", "2", "1"]}}, "explicit_paddings": {"list": {}}, "padding": {"s": "VkFMSUQ="}, "dilations": {"list": {"i": ["1", "1", "1", "1"]}}}}, {"name": "PartitionedCall/model_253/tf.math.add_2/Add", "op": "AddV2", "input": ["PartitionedCall/model_253/tf.nn.convolution_2/convolution", "PartitionedCall/model_253/tf.math.add_2/Add/y"], "attr": {"T": {"type": "DT_FLOAT"}}}, {"name": "PartitionedCall/model_253/tf.math.sigmoid_2/Sigmoid", "op": "Sigmoid", "input": ["PartitionedCall/model_253/tf.math.add_2/Add"], "attr": {"T": {"type": "DT_FLOAT"}}}, {"name": "PartitionedCall/model_253/tf.math.multiply_4/Mul", "op": "Mul", "input": ["PartitionedCall/model_253/tf.math.add_2/Add", "PartitionedCall/model_253/tf.math.sigmoid_2/Sigmoid"], "attr": {"T": {"type": "DT_FLOAT"}}}, {"name": "PartitionedCall/model_253/tf.nn.convolution_4/convolution", "op": "Conv2D", "input": ["PartitionedCall/model_253/tf.math.multiply_4/Mul", "865"], "device": "/device:CPU:0", "attr": {"T": {"type": "DT_FLOAT"}, "strides": {"list": {"i": ["1", "1", "1", "1"]}}, "data_format": {"s": "TkhXQw=="}, "use_cudnn_on_gpu": {"b": true}, "dilations": {"list": {"i": ["1", "1", "1", "1"]}}, "explicit_paddings": {"list": {}}, "padding": {"s": "U0FNRQ=="}}}, {"name": "PartitionedCall/model_253/tf.math.add_4/Add", "op": "AddV2", "input": ["PartitionedCall/model_253/tf.nn.convolution_4/convolution", "PartitionedCall/model_253/tf.math.add_4/Add/y"], "attr": {"T": {"type": "DT_FLOAT"}}}, {"name": "PartitionedCall/model_253/tf.math.sigmoid_4/Sigmoid", "op": "Sigmoid", "input": ["PartitionedCall/model_253/tf.math.add_4/Add"], "attr": {"T": {"type": "DT_FLOAT"}}}, {"name": "PartitionedCall/model_253/tf.math.multiply_7/Mul", "op": "Mul", "input": ["PartitionedCall/model_253/tf.math.add_4/Add", "PartitionedCall/model_253/tf.math.sigmoid_4/Sigmoid"], "attr": {"T": {"type": "DT_FLOAT"}}}, {"name": "PartitionedCall/model_253/tf.split/split", "op": "SplitV", "input": ["PartitionedCall/model_253/tf.math.multiply_7/Mul", "PartitionedCall/model_253/tf.split/Const", "PartitionedCall/model_253/tf.split/split/split_dim"], "attr": {"T": {"type": "DT_FLOAT"}, "Tlen": {"type": "DT_INT64"}, "num_split": {"i": "2"}}}, {"name": "PartitionedCall/model_253/tf.nn.convolution_6/convolution", "op": "Conv2D", "input": ["PartitionedCall/model_253/tf.split/split:1", "867"], "device": "/device:CPU:0", "attr": {"dilations": {"list": {"i": ["1", "1", "1", "1"]}}, "strides": {"list": {"i": ["1", "1", "1", "1"]}}, "padding": {"s": "U0FNRQ=="}, "data_format": {"s": "TkhXQw=="}, "T": {"type": "DT_FLOAT"}, "use_cudnn_on_gpu": {"b": true}, "explicit_paddings": {"list": {}}}}, {"name": "PartitionedCall/model_253/tf.math.add_6/Add", "op": "AddV2", "input": ["PartitionedCall/model_253/tf.nn.convolution_6/convolution", "PartitionedCall/model_253/tf.math.add_6/Add/y"], "attr": {"T": {"type": "DT_FLOAT"}}}, {"name": "PartitionedCall/model_253/tf.math.sigmoid_6/Sigmoid", "op": "Sigmoid", "input": ["PartitionedCall/model_253/tf.math.add_6/Add"], "attr": {"T": {"type": "DT_FLOAT"}}}, {"name": "PartitionedCall/model_253/tf.math.multiply_10/Mul", "op": "Mul", "input": ["PartitionedCall/model_253/tf.math.add_6/Add", "PartitionedCall/model_253/tf.math.sigmoid_6/Sigmoid"], "attr": {"T": {"type": "DT_FLOAT"}}}, {"name": "PartitionedCall/model_253/tf.nn.convolution_8/convolution", "op": "Conv2D", "input": ["PartitionedCall/model_253/tf.math.multiply_10/Mul", "869"], "device": "/device:CPU:0", "attr": {"T": {"type": "DT_FLOAT"}, "data_format": {"s": "TkhXQw=="}, "strides": {"list": {"i": ["1", "1", "1", "1"]}}, "dilations": {"list": {"i": ["1", "1", "1", "1"]}}, "padding": {"s": "U0FNRQ=="}, "use_cudnn_on_gpu": {"b": true}, "explicit_paddings": {"list": {}}}}, {"name": "PartitionedCall/model_253/tf.math.add_8/Add", "op": "AddV2", "input": ["PartitionedCall/model_253/tf.nn.convolution_8/convolution", "PartitionedCall/model_253/tf.math.add_8/Add/y"], "attr": {"T": {"type": "DT_FLOAT"}}}, {"name": "PartitionedCall/model_253/tf.math.sigmoid_8/Sigmoid", "op": "Sigmoid", "input": ["PartitionedCall/model_253/tf.math.add_8/Add"], "attr": {"T": {"type": "DT_FLOAT"}}}, {"name": "PartitionedCall/model_253/tf.math.multiply_13/Mul", "op": "Mul", "input": ["PartitionedCall/model_253/tf.math.add_8/Add", "PartitionedCall/model_253/tf.math.sigmoid_8/Sigmoid"], "attr": {"T": {"type": "DT_FLOAT"}}}, {"name": "PartitionedCall/model_253/tf.math.add_10/Add", "op": "AddV2", "input": ["PartitionedCall/model_253/tf.split/split:1", "PartitionedCall/model_253/tf.math.multiply_13/Mul"], "attr": {"T": {"type": "DT_FLOAT"}}}, {"name": "PartitionedCall/model_253/tf.concat/concat", "op": "ConcatV2", "input": ["PartitionedCall/model_253/tf.split/split", "PartitionedCall/model_253/tf.split/split:1", "PartitionedCall/model_253/tf.math.add_10/Add", "PartitionedCall/model_253/tf.concat/concat/axis"], "attr": {"Tidx": {"type": "DT_INT32"}, "N": {"i": "3"}, "T": {"type": "DT_FLOAT"}}}, {"name": "PartitionedCall/model_253/tf.nn.convolution_10/convolution", "op": "Conv2D", "input": ["PartitionedCall/model_253/tf.concat/concat", "871"], "device": "/device:CPU:0", "attr": {"explicit_paddings": {"list": {}}, "dilations": {"list": {"i": ["1", "1", "1", "1"]}}, "strides": {"list": {"i": ["1", "1", "1", "1"]}}, "padding": {"s": "U0FNRQ=="}, "data_format": {"s": "TkhXQw=="}, "use_cudnn_on_gpu": {"b": true}, "T": {"type": "DT_FLOAT"}}}, {"name": "PartitionedCall/model_253/tf.math.add_12/Add", "op": "AddV2", "input": ["PartitionedCall/model_253/tf.nn.convolution_10/convolution", "PartitionedCall/model_253/tf.math.add_12/Add/y"], "attr": {"T": {"type": "DT_FLOAT"}}}, {"name": "PartitionedCall/model_253/tf.math.sigmoid_10/Sigmoid", "op": "Sigmoid", "input": ["PartitionedCall/model_253/tf.math.add_12/Add"], "attr": {"T": {"type": "DT_FLOAT"}}}, {"name": "PartitionedCall/model_253/tf.math.multiply_17/Mul", "op": "Mul", "input": ["PartitionedCall/model_253/tf.math.add_12/Add", "PartitionedCall/model_253/tf.math.sigmoid_10/Sigmoid"], "attr": {"T": {"type": "DT_FLOAT"}}}, {"name": "PartitionedCall/model_253/tf.compat.v1.pad_2/Pad", "op": "Pad", "input": ["PartitionedCall/model_253/tf.math.multiply_17/Mul", "873"], "attr": {"T": {"type": "DT_FLOAT"}, "Tpaddings": {"type": "DT_INT32"}}}, {"name": "PartitionedCall/model_253/tf.nn.convolution_12/convolution", "op": "Conv2D", "input": ["PartitionedCall/model_253/tf.compat.v1.pad_2/Pad", "875"], "device": "/device:CPU:0", "attr": {"explicit_paddings": {"list": {}}, "T": {"type": "DT_FLOAT"}, "use_cudnn_on_gpu": {"b": true}, "strides": {"list": {"i": ["1", "2", "2", "1"]}}, "dilations": {"list": {"i": ["1", "1", "1", "1"]}}, "padding": {"s": "VkFMSUQ="}, "data_format": {"s": "TkhXQw=="}}}, {"name": "PartitionedCall/model_253/tf.math.add_14/Add", "op": "AddV2", "input": ["PartitionedCall/model_253/tf.nn.convolution_12/convolution", "PartitionedCall/model_253/tf.math.add_14/Add/y"], "attr": {"T": {"type": "DT_FLOAT"}}}, {"name": "PartitionedCall/model_253/tf.math.sigmoid_12/Sigmoid", "op": "Sigmoid", "input": ["PartitionedCall/model_253/tf.math.add_14/Add"], "attr": {"T": {"type": "DT_FLOAT"}}}, {"name": "PartitionedCall/model_253/tf.math.multiply_20/Mul", "op": "Mul", "input": ["PartitionedCall/model_253/tf.math.add_14/Add", "PartitionedCall/model_253/tf.math.sigmoid_12/Sigmoid"], "attr": {"T": {"type": "DT_FLOAT"}}}, {"name": "PartitionedCall/model_253/tf.nn.convolution_14/convolution", "op": "Conv2D", "input": ["PartitionedCall/model_253/tf.math.multiply_20/Mul", "877"], "device": "/device:CPU:0", "attr": {"T": {"type": "DT_FLOAT"}, "use_cudnn_on_gpu": {"b": true}, "strides": {"list": {"i": ["1", "1", "1", "1"]}}, "padding": {"s": "U0FNRQ=="}, "dilations": {"list": {"i": ["1", "1", "1", "1"]}}, "explicit_paddings": {"list": {}}, "data_format": {"s": "TkhXQw=="}}}, {"name": "PartitionedCall/model_253/tf.math.add_16/Add", "op": "AddV2", "input": ["PartitionedCall/model_253/tf.nn.convolution_14/convolution", "PartitionedCall/model_253/tf.math.add_16/Add/y"], "attr": {"T": {"type": "DT_FLOAT"}}}, {"name": "PartitionedCall/model_253/tf.math.sigmoid_14/Sigmoid", "op": "Sigmoid", "input": ["PartitionedCall/model_253/tf.math.add_16/Add"], "attr": {"T": {"type": "DT_FLOAT"}}}, {"name": "PartitionedCall/model_253/tf.math.multiply_23/Mul", "op": "Mul", "input": ["PartitionedCall/model_253/tf.math.add_16/Add", "PartitionedCall/model_253/tf.math.sigmoid_14/Sigmoid"], "attr": {"T": {"type": "DT_FLOAT"}}}, {"name": "PartitionedCall/model_253/tf.split_1/split", "op": "SplitV", "input": ["PartitionedCall/model_253/tf.math.multiply_23/Mul", "PartitionedCall/model_253/tf.split_1/Const", "PartitionedCall/model_253/tf.split_1/split/split_dim"], "attr": {"T": {"type": "DT_FLOAT"}, "Tlen": {"type": "DT_INT64"}, "num_split": {"i": "2"}}}, {"name": "PartitionedCall/model_253/tf.nn.convolution_16/convolution", "op": "Conv2D", "input": ["PartitionedCall/model_253/tf.split_1/split:1", "879"], "device": "/device:CPU:0", "attr": {"dilations": {"list": {"i": ["1", "1", "1", "1"]}}, "T": {"type": "DT_FLOAT"}, "strides": {"list": {"i": ["1", "1", "1", "1"]}}, "data_format": {"s": "TkhXQw=="}, "explicit_paddings": {"list": {}}, "use_cudnn_on_gpu": {"b": true}, "padding": {"s": "U0FNRQ=="}}}, {"name": "PartitionedCall/model_253/tf.math.add_18/Add", "op": "AddV2", "input": ["PartitionedCall/model_253/tf.nn.convolution_16/convolution", "PartitionedCall/model_253/tf.math.add_18/Add/y"], "attr": {"T": {"type": "DT_FLOAT"}}}, {"name": "PartitionedCall/model_253/tf.math.sigmoid_16/Sigmoid", "op": "Sigmoid", "input": ["PartitionedCall/model_253/tf.math.add_18/Add"], "attr": {"T": {"type": "DT_FLOAT"}}}, {"name": "PartitionedCall/model_253/tf.math.multiply_26/Mul", "op": "Mul", "input": ["PartitionedCall/model_253/tf.math.add_18/Add", "PartitionedCall/model_253/tf.math.sigmoid_16/Sigmoid"], "attr": {"T": {"type": "DT_FLOAT"}}}, {"name": "PartitionedCall/model_253/tf.nn.convolution_18/convolution", "op": "Conv2D", "input": ["PartitionedCall/model_253/tf.math.multiply_26/Mul", "881"], "device": "/device:CPU:0", "attr": {"dilations": {"list": {"i": ["1", "1", "1", "1"]}}, "strides": {"list": {"i": ["1", "1", "1", "1"]}}, "padding": {"s": "U0FNRQ=="}, "use_cudnn_on_gpu": {"b": true}, "explicit_paddings": {"list": {}}, "data_format": {"s": "TkhXQw=="}, "T": {"type": "DT_FLOAT"}}}, {"name": "PartitionedCall/model_253/tf.math.add_20/Add", "op": "AddV2", "input": ["PartitionedCall/model_253/tf.nn.convolution_18/convolution", "PartitionedCall/model_253/tf.math.add_20/Add/y"], "attr": {"T": {"type": "DT_FLOAT"}}}, {"name": "PartitionedCall/model_253/tf.math.sigmoid_18/Sigmoid", "op": "Sigmoid", "input": ["PartitionedCall/model_253/tf.math.add_20/Add"], "attr": {"T": {"type": "DT_FLOAT"}}}, {"name": "PartitionedCall/model_253/tf.math.multiply_29/Mul", "op": "Mul", "input": ["PartitionedCall/model_253/tf.math.add_20/Add", "PartitionedCall/model_253/tf.math.sigmoid_18/Sigmoid"], "attr": {"T": {"type": "DT_FLOAT"}}}, {"name": "PartitionedCall/model_253/tf.math.add_22/Add", "op": "AddV2", "input": ["PartitionedCall/model_253/tf.split_1/split:1", "PartitionedCall/model_253/tf.math.multiply_29/Mul"], "attr": {"T": {"type": "DT_FLOAT"}}}, {"name": "PartitionedCall/model_253/tf.nn.convolution_20/convolution", "op": "Conv2D", "input": ["PartitionedCall/model_253/tf.math.add_22/Add", "883"], "device": "/device:CPU:0", "attr": {"padding": {"s": "U0FNRQ=="}, "strides": {"list": {"i": ["1", "1", "1", "1"]}}, "T": {"type": "DT_FLOAT"}, "data_format": {"s": "TkhXQw=="}, "dilations": {"list": {"i": ["1", "1", "1", "1"]}}, "use_cudnn_on_gpu": {"b": true}, "explicit_paddings": {"list": {}}}}, {"name": "PartitionedCall/model_253/tf.math.add_24/Add", "op": "AddV2", "input": ["PartitionedCall/model_253/tf.nn.convolution_20/convolution", "PartitionedCall/model_253/tf.math.add_24/Add/y"], "attr": {"T": {"type": "DT_FLOAT"}}}, {"name": "PartitionedCall/model_253/tf.math.sigmoid_20/Sigmoid", "op": "Sigmoid", "input": ["PartitionedCall/model_253/tf.math.add_24/Add"], "attr": {"T": {"type": "DT_FLOAT"}}}, {"name": "PartitionedCall/model_253/tf.math.multiply_33/Mul", "op": "Mul", "input": ["PartitionedCall/model_253/tf.math.add_24/Add", "PartitionedCall/model_253/tf.math.sigmoid_20/Sigmoid"], "attr": {"T": {"type": "DT_FLOAT"}}}, {"name": "PartitionedCall/model_253/tf.nn.convolution_22/convolution", "op": "Conv2D", "input": ["PartitionedCall/model_253/tf.math.multiply_33/Mul", "885"], "device": "/device:CPU:0", "attr": {"dilations": {"list": {"i": ["1", "1", "1", "1"]}}, "strides": {"list": {"i": ["1", "1", "1", "1"]}}, "padding": {"s": "U0FNRQ=="}, "T": {"type": "DT_FLOAT"}, "explicit_paddings": {"list": {}}, "data_format": {"s": "TkhXQw=="}, "use_cudnn_on_gpu": {"b": true}}}, {"name": "PartitionedCall/model_253/tf.math.add_26/Add", "op": "AddV2", "input": ["PartitionedCall/model_253/tf.nn.convolution_22/convolution", "PartitionedCall/model_253/tf.math.add_26/Add/y"], "attr": {"T": {"type": "DT_FLOAT"}}}, {"name": "PartitionedCall/model_253/tf.math.sigmoid_22/Sigmoid", "op": "Sigmoid", "input": ["PartitionedCall/model_253/tf.math.add_26/Add"], "attr": {"T": {"type": "DT_FLOAT"}}}, {"name": "PartitionedCall/model_253/tf.math.multiply_36/Mul", "op": "Mul", "input": ["PartitionedCall/model_253/tf.math.add_26/Add", "PartitionedCall/model_253/tf.math.sigmoid_22/Sigmoid"], "attr": {"T": {"type": "DT_FLOAT"}}}, {"name": "PartitionedCall/model_253/tf.math.add_28/Add", "op": "AddV2", "input": ["PartitionedCall/model_253/tf.math.add_22/Add", "PartitionedCall/model_253/tf.math.multiply_36/Mul"], "attr": {"T": {"type": "DT_FLOAT"}}}, {"name": "PartitionedCall/model_253/tf.concat_2/concat", "op": "ConcatV2", "input": ["PartitionedCall/model_253/tf.split_1/split", "PartitionedCall/model_253/tf.split_1/split:1", "PartitionedCall/model_253/tf.math.add_22/Add", "PartitionedCall/model_253/tf.math.add_28/Add", "PartitionedCall/model_253/tf.concat_2/concat/axis"], "attr": {"Tidx": {"type": "DT_INT32"}, "N": {"i": "4"}, "T": {"type": "DT_FLOAT"}}}, {"name": "PartitionedCall/model_253/tf.nn.convolution_24/convolution", "op": "Conv2D", "input": ["PartitionedCall/model_253/tf.concat_2/concat", "887"], "device": "/device:CPU:0", "attr": {"explicit_paddings": {"list": {}}, "use_cudnn_on_gpu": {"b": true}, "dilations": {"list": {"i": ["1", "1", "1", "1"]}}, "strides": {"list": {"i": ["1", "1", "1", "1"]}}, "padding": {"s": "U0FNRQ=="}, "T": {"type": "DT_FLOAT"}, "data_format": {"s": "TkhXQw=="}}}, {"name": "PartitionedCall/model_253/tf.math.add_30/Add", "op": "AddV2", "input": ["PartitionedCall/model_253/tf.nn.convolution_24/convolution", "PartitionedCall/model_253/tf.math.add_30/Add/y"], "attr": {"T": {"type": "DT_FLOAT"}}}, {"name": "PartitionedCall/model_253/tf.math.sigmoid_24/Sigmoid", "op": "Sigmoid", "input": ["PartitionedCall/model_253/tf.math.add_30/Add"], "attr": {"T": {"type": "DT_FLOAT"}}}, {"name": "PartitionedCall/model_253/tf.math.multiply_40/Mul", "op": "Mul", "input": ["PartitionedCall/model_253/tf.math.add_30/Add", "PartitionedCall/model_253/tf.math.sigmoid_24/Sigmoid"], "attr": {"T": {"type": "DT_FLOAT"}}}, {"name": "PartitionedCall/model_253/tf.compat.v1.pad_3/Pad", "op": "Pad", "input": ["PartitionedCall/model_253/tf.math.multiply_40/Mul", "889"], "attr": {"T": {"type": "DT_FLOAT"}, "Tpaddings": {"type": "DT_INT32"}}}, {"name": "PartitionedCall/model_253/tf.nn.convolution_26/convolution", "op": "Conv2D", "input": ["PartitionedCall/model_253/tf.compat.v1.pad_3/Pad", "891"], "device": "/device:CPU:0", "attr": {"use_cudnn_on_gpu": {"b": true}, "T": {"type": "DT_FLOAT"}, "padding": {"s": "VkFMSUQ="}, "strides": {"list": {"i": ["1", "2", "2", "1"]}}, "dilations": {"list": {"i": ["1", "1", "1", "1"]}}, "data_format": {"s": "TkhXQw=="}, "explicit_paddings": {"list": {}}}}, {"name": "PartitionedCall/model_253/tf.math.add_32/Add", "op": "AddV2", "input": ["PartitionedCall/model_253/tf.nn.convolution_26/convolution", "PartitionedCall/model_253/tf.math.add_32/Add/y"], "attr": {"T": {"type": "DT_FLOAT"}}}, {"name": "PartitionedCall/model_253/tf.math.sigmoid_26/Sigmoid", "op": "Sigmoid", "input": ["PartitionedCall/model_253/tf.math.add_32/Add"], "attr": {"T": {"type": "DT_FLOAT"}}}, {"name": "PartitionedCall/model_253/tf.math.multiply_43/Mul", "op": "Mul", "input": ["PartitionedCall/model_253/tf.math.add_32/Add", "PartitionedCall/model_253/tf.math.sigmoid_26/Sigmoid"], "attr": {"T": {"type": "DT_FLOAT"}}}, {"name": "PartitionedCall/model_253/tf.nn.convolution_28/convolution", "op": "Conv2D", "input": ["PartitionedCall/model_253/tf.math.multiply_43/Mul", "893"], "device": "/device:CPU:0", "attr": {"padding": {"s": "U0FNRQ=="}, "use_cudnn_on_gpu": {"b": true}, "dilations": {"list": {"i": ["1", "1", "1", "1"]}}, "T": {"type": "DT_FLOAT"}, "strides": {"list": {"i": ["1", "1", "1", "1"]}}, "explicit_paddings": {"list": {}}, "data_format": {"s": "TkhXQw=="}}}, {"name": "PartitionedCall/model_253/tf.math.add_34/Add", "op": "AddV2", "input": ["PartitionedCall/model_253/tf.nn.convolution_28/convolution", "PartitionedCall/model_253/tf.math.add_34/Add/y"], "attr": {"T": {"type": "DT_FLOAT"}}}, {"name": "PartitionedCall/model_253/tf.math.sigmoid_28/Sigmoid", "op": "Sigmoid", "input": ["PartitionedCall/model_253/tf.math.add_34/Add"], "attr": {"T": {"type": "DT_FLOAT"}}}, {"name": "PartitionedCall/model_253/tf.math.multiply_46/Mul", "op": "Mul", "input": ["PartitionedCall/model_253/tf.math.add_34/Add", "PartitionedCall/model_253/tf.math.sigmoid_28/Sigmoid"], "attr": {"T": {"type": "DT_FLOAT"}}}, {"name": "PartitionedCall/model_253/tf.split_2/split", "op": "SplitV", "input": ["PartitionedCall/model_253/tf.math.multiply_46/Mul", "PartitionedCall/model_253/tf.split_2/Const", "PartitionedCall/model_253/tf.split_2/split/split_dim"], "attr": {"T": {"type": "DT_FLOAT"}, "num_split": {"i": "2"}, "Tlen": {"type": "DT_INT64"}}}, {"name": "PartitionedCall/model_253/tf.nn.convolution_30/convolution", "op": "Conv2D", "input": ["PartitionedCall/model_253/tf.split_2/split:1", "895"], "device": "/device:CPU:0", "attr": {"dilations": {"list": {"i": ["1", "1", "1", "1"]}}, "explicit_paddings": {"list": {}}, "T": {"type": "DT_FLOAT"}, "padding": {"s": "U0FNRQ=="}, "use_cudnn_on_gpu": {"b": true}, "data_format": {"s": "TkhXQw=="}, "strides": {"list": {"i": ["1", "1", "1", "1"]}}}}, {"name": "PartitionedCall/model_253/tf.math.add_36/Add", "op": "AddV2", "input": ["PartitionedCall/model_253/tf.nn.convolution_30/convolution", "PartitionedCall/model_253/tf.math.add_36/Add/y"], "attr": {"T": {"type": "DT_FLOAT"}}}, {"name": "PartitionedCall/model_253/tf.math.sigmoid_30/Sigmoid", "op": "Sigmoid", "input": ["PartitionedCall/model_253/tf.math.add_36/Add"], "attr": {"T": {"type": "DT_FLOAT"}}}, {"name": "PartitionedCall/model_253/tf.math.multiply_49/Mul", "op": "Mul", "input": ["PartitionedCall/model_253/tf.math.add_36/Add", "PartitionedCall/model_253/tf.math.sigmoid_30/Sigmoid"], "attr": {"T": {"type": "DT_FLOAT"}}}, {"name": "PartitionedCall/model_253/tf.nn.convolution_32/convolution", "op": "Conv2D", "input": ["PartitionedCall/model_253/tf.math.multiply_49/Mul", "897"], "device": "/device:CPU:0", "attr": {"padding": {"s": "U0FNRQ=="}, "T": {"type": "DT_FLOAT"}, "explicit_paddings": {"list": {}}, "strides": {"list": {"i": ["1", "1", "1", "1"]}}, "dilations": {"list": {"i": ["1", "1", "1", "1"]}}, "use_cudnn_on_gpu": {"b": true}, "data_format": {"s": "TkhXQw=="}}}, {"name": "PartitionedCall/model_253/tf.math.add_38/Add", "op": "AddV2", "input": ["PartitionedCall/model_253/tf.nn.convolution_32/convolution", "PartitionedCall/model_253/tf.math.add_38/Add/y"], "attr": {"T": {"type": "DT_FLOAT"}}}, {"name": "PartitionedCall/model_253/tf.math.sigmoid_32/Sigmoid", "op": "Sigmoid", "input": ["PartitionedCall/model_253/tf.math.add_38/Add"], "attr": {"T": {"type": "DT_FLOAT"}}}, {"name": "PartitionedCall/model_253/tf.math.multiply_52/Mul", "op": "Mul", "input": ["PartitionedCall/model_253/tf.math.add_38/Add", "PartitionedCall/model_253/tf.math.sigmoid_32/Sigmoid"], "attr": {"T": {"type": "DT_FLOAT"}}}, {"name": "PartitionedCall/model_253/tf.math.add_40/Add", "op": "AddV2", "input": ["PartitionedCall/model_253/tf.split_2/split:1", "PartitionedCall/model_253/tf.math.multiply_52/Mul"], "attr": {"T": {"type": "DT_FLOAT"}}}, {"name": "PartitionedCall/model_253/tf.nn.convolution_34/convolution", "op": "Conv2D", "input": ["PartitionedCall/model_253/tf.math.add_40/Add", "899"], "device": "/device:CPU:0", "attr": {"padding": {"s": "U0FNRQ=="}, "data_format": {"s": "TkhXQw=="}, "use_cudnn_on_gpu": {"b": true}, "explicit_paddings": {"list": {}}, "strides": {"list": {"i": ["1", "1", "1", "1"]}}, "dilations": {"list": {"i": ["1", "1", "1", "1"]}}, "T": {"type": "DT_FLOAT"}}}, {"name": "PartitionedCall/model_253/tf.math.add_42/Add", "op": "AddV2", "input": ["PartitionedCall/model_253/tf.nn.convolution_34/convolution", "PartitionedCall/model_253/tf.math.add_42/Add/y"], "attr": {"T": {"type": "DT_FLOAT"}}}, {"name": "PartitionedCall/model_253/tf.math.sigmoid_34/Sigmoid", "op": "Sigmoid", "input": ["PartitionedCall/model_253/tf.math.add_42/Add"], "attr": {"T": {"type": "DT_FLOAT"}}}, {"name": "PartitionedCall/model_253/tf.math.multiply_56/Mul", "op": "Mul", "input": ["PartitionedCall/model_253/tf.math.add_42/Add", "PartitionedCall/model_253/tf.math.sigmoid_34/Sigmoid"], "attr": {"T": {"type": "DT_FLOAT"}}}, {"name": "PartitionedCall/model_253/tf.nn.convolution_36/convolution", "op": "Conv2D", "input": ["PartitionedCall/model_253/tf.math.multiply_56/Mul", "901"], "device": "/device:CPU:0", "attr": {"data_format": {"s": "TkhXQw=="}, "explicit_paddings": {"list": {}}, "use_cudnn_on_gpu": {"b": true}, "strides": {"list": {"i": ["1", "1", "1", "1"]}}, "T": {"type": "DT_FLOAT"}, "dilations": {"list": {"i": ["1", "1", "1", "1"]}}, "padding": {"s": "U0FNRQ=="}}}, {"name": "PartitionedCall/model_253/tf.math.add_44/Add", "op": "AddV2", "input": ["PartitionedCall/model_253/tf.nn.convolution_36/convolution", "PartitionedCall/model_253/tf.math.add_44/Add/y"], "attr": {"T": {"type": "DT_FLOAT"}}}, {"name": "PartitionedCall/model_253/tf.math.sigmoid_36/Sigmoid", "op": "Sigmoid", "input": ["PartitionedCall/model_253/tf.math.add_44/Add"], "attr": {"T": {"type": "DT_FLOAT"}}}, {"name": "PartitionedCall/model_253/tf.math.multiply_59/Mul", "op": "Mul", "input": ["PartitionedCall/model_253/tf.math.add_44/Add", "PartitionedCall/model_253/tf.math.sigmoid_36/Sigmoid"], "attr": {"T": {"type": "DT_FLOAT"}}}, {"name": "PartitionedCall/model_253/tf.math.add_46/Add", "op": "AddV2", "input": ["PartitionedCall/model_253/tf.math.add_40/Add", "PartitionedCall/model_253/tf.math.multiply_59/Mul"], "attr": {"T": {"type": "DT_FLOAT"}}}, {"name": "PartitionedCall/model_253/tf.concat_4/concat", "op": "ConcatV2", "input": ["PartitionedCall/model_253/tf.split_2/split", "PartitionedCall/model_253/tf.split_2/split:1", "PartitionedCall/model_253/tf.math.add_40/Add", "PartitionedCall/model_253/tf.math.add_46/Add", "PartitionedCall/model_253/tf.concat_4/concat/axis"], "attr": {"N": {"i": "4"}, "Tidx": {"type": "DT_INT32"}, "T": {"type": "DT_FLOAT"}}}, {"name": "PartitionedCall/model_253/tf.nn.convolution_38/convolution", "op": "Conv2D", "input": ["PartitionedCall/model_253/tf.concat_4/concat", "903"], "device": "/device:CPU:0", "attr": {"padding": {"s": "U0FNRQ=="}, "data_format": {"s": "TkhXQw=="}, "explicit_paddings": {"list": {}}, "dilations": {"list": {"i": ["1", "1", "1", "1"]}}, "strides": {"list": {"i": ["1", "1", "1", "1"]}}, "use_cudnn_on_gpu": {"b": true}, "T": {"type": "DT_FLOAT"}}}, {"name": "PartitionedCall/model_253/tf.math.add_48/Add", "op": "AddV2", "input": ["PartitionedCall/model_253/tf.nn.convolution_38/convolution", "PartitionedCall/model_253/tf.math.add_48/Add/y"], "attr": {"T": {"type": "DT_FLOAT"}}}, {"name": "PartitionedCall/model_253/tf.math.sigmoid_38/Sigmoid", "op": "Sigmoid", "input": ["PartitionedCall/model_253/tf.math.add_48/Add"], "attr": {"T": {"type": "DT_FLOAT"}}}, {"name": "PartitionedCall/model_253/tf.math.multiply_63/Mul", "op": "Mul", "input": ["PartitionedCall/model_253/tf.math.add_48/Add", "PartitionedCall/model_253/tf.math.sigmoid_38/Sigmoid"], "attr": {"T": {"type": "DT_FLOAT"}}}, {"name": "PartitionedCall/model_253/tf.compat.v1.pad_4/Pad", "op": "Pad", "input": ["PartitionedCall/model_253/tf.math.multiply_63/Mul", "905"], "attr": {"T": {"type": "DT_FLOAT"}, "Tpaddings": {"type": "DT_INT32"}}}, {"name": "PartitionedCall/model_253/tf.nn.convolution_40/convolution", "op": "Conv2D", "input": ["PartitionedCall/model_253/tf.compat.v1.pad_4/Pad", "907"], "device": "/device:CPU:0", "attr": {"padding": {"s": "VkFMSUQ="}, "data_format": {"s": "TkhXQw=="}, "explicit_paddings": {"list": {}}, "use_cudnn_on_gpu": {"b": true}, "strides": {"list": {"i": ["1", "2", "2", "1"]}}, "T": {"type": "DT_FLOAT"}, "dilations": {"list": {"i": ["1", "1", "1", "1"]}}}}, {"name": "PartitionedCall/model_253/tf.math.add_50/Add", "op": "AddV2", "input": ["PartitionedCall/model_253/tf.nn.convolution_40/convolution", "PartitionedCall/model_253/tf.math.add_50/Add/y"], "attr": {"T": {"type": "DT_FLOAT"}}}, {"name": "PartitionedCall/model_253/tf.math.sigmoid_40/Sigmoid", "op": "Sigmoid", "input": ["PartitionedCall/model_253/tf.math.add_50/Add"], "attr": {"T": {"type": "DT_FLOAT"}}}, {"name": "PartitionedCall/model_253/tf.math.multiply_66/Mul", "op": "Mul", "input": ["PartitionedCall/model_253/tf.math.add_50/Add", "PartitionedCall/model_253/tf.math.sigmoid_40/Sigmoid"], "attr": {"T": {"type": "DT_FLOAT"}}}, {"name": "PartitionedCall/model_253/tf.nn.convolution_42/convolution", "op": "Conv2D", "input": ["PartitionedCall/model_253/tf.math.multiply_66/Mul", "909"], "device": "/device:CPU:0", "attr": {"explicit_paddings": {"list": {}}, "T": {"type": "DT_FLOAT"}, "padding": {"s": "U0FNRQ=="}, "use_cudnn_on_gpu": {"b": true}, "strides": {"list": {"i": ["1", "1", "1", "1"]}}, "data_format": {"s": "TkhXQw=="}, "dilations": {"list": {"i": ["1", "1", "1", "1"]}}}}, {"name": "PartitionedCall/model_253/tf.math.add_52/Add", "op": "AddV2", "input": ["PartitionedCall/model_253/tf.nn.convolution_42/convolution", "PartitionedCall/model_253/tf.math.add_52/Add/y"], "attr": {"T": {"type": "DT_FLOAT"}}}, {"name": "PartitionedCall/model_253/tf.math.sigmoid_42/Sigmoid", "op": "Sigmoid", "input": ["PartitionedCall/model_253/tf.math.add_52/Add"], "attr": {"T": {"type": "DT_FLOAT"}}}, {"name": "PartitionedCall/model_253/tf.math.multiply_69/Mul", "op": "Mul", "input": ["PartitionedCall/model_253/tf.math.add_52/Add", "PartitionedCall/model_253/tf.math.sigmoid_42/Sigmoid"], "attr": {"T": {"type": "DT_FLOAT"}}}, {"name": "PartitionedCall/model_253/tf.split_3/split", "op": "SplitV", "input": ["PartitionedCall/model_253/tf.math.multiply_69/Mul", "PartitionedCall/model_253/tf.split_3/Const", "PartitionedCall/model_253/tf.split_3/split/split_dim"], "attr": {"Tlen": {"type": "DT_INT64"}, "T": {"type": "DT_FLOAT"}, "num_split": {"i": "2"}}}, {"name": "PartitionedCall/model_253/tf.nn.convolution_44/convolution", "op": "Conv2D", "input": ["PartitionedCall/model_253/tf.split_3/split:1", "911"], "device": "/device:CPU:0", "attr": {"T": {"type": "DT_FLOAT"}, "explicit_paddings": {"list": {}}, "strides": {"list": {"i": ["1", "1", "1", "1"]}}, "dilations": {"list": {"i": ["1", "1", "1", "1"]}}, "padding": {"s": "U0FNRQ=="}, "data_format": {"s": "TkhXQw=="}, "use_cudnn_on_gpu": {"b": true}}}, {"name": "PartitionedCall/model_253/tf.math.add_54/Add", "op": "AddV2", "input": ["PartitionedCall/model_253/tf.nn.convolution_44/convolution", "PartitionedCall/model_253/tf.math.add_54/Add/y"], "attr": {"T": {"type": "DT_FLOAT"}}}, {"name": "PartitionedCall/model_253/tf.math.sigmoid_44/Sigmoid", "op": "Sigmoid", "input": ["PartitionedCall/model_253/tf.math.add_54/Add"], "attr": {"T": {"type": "DT_FLOAT"}}}, {"name": "PartitionedCall/model_253/tf.math.multiply_72/Mul", "op": "Mul", "input": ["PartitionedCall/model_253/tf.math.add_54/Add", "PartitionedCall/model_253/tf.math.sigmoid_44/Sigmoid"], "attr": {"T": {"type": "DT_FLOAT"}}}, {"name": "PartitionedCall/model_253/tf.nn.convolution_46/convolution", "op": "Conv2D", "input": ["PartitionedCall/model_253/tf.math.multiply_72/Mul", "913"], "device": "/device:CPU:0", "attr": {"padding": {"s": "U0FNRQ=="}, "data_format": {"s": "TkhXQw=="}, "explicit_paddings": {"list": {}}, "strides": {"list": {"i": ["1", "1", "1", "1"]}}, "use_cudnn_on_gpu": {"b": true}, "T": {"type": "DT_FLOAT"}, "dilations": {"list": {"i": ["1", "1", "1", "1"]}}}}, {"name": "PartitionedCall/model_253/tf.math.add_56/Add", "op": "AddV2", "input": ["PartitionedCall/model_253/tf.nn.convolution_46/convolution", "PartitionedCall/model_253/tf.math.add_56/Add/y"], "attr": {"T": {"type": "DT_FLOAT"}}}, {"name": "PartitionedCall/model_253/tf.math.sigmoid_46/Sigmoid", "op": "Sigmoid", "input": ["PartitionedCall/model_253/tf.math.add_56/Add"], "attr": {"T": {"type": "DT_FLOAT"}}}, {"name": "PartitionedCall/model_253/tf.math.multiply_75/Mul", "op": "Mul", "input": ["PartitionedCall/model_253/tf.math.add_56/Add", "PartitionedCall/model_253/tf.math.sigmoid_46/Sigmoid"], "attr": {"T": {"type": "DT_FLOAT"}}}, {"name": "PartitionedCall/model_253/tf.math.add_58/Add", "op": "AddV2", "input": ["PartitionedCall/model_253/tf.split_3/split:1", "PartitionedCall/model_253/tf.math.multiply_75/Mul"], "attr": {"T": {"type": "DT_FLOAT"}}}, {"name": "PartitionedCall/model_253/tf.concat_6/concat", "op": "ConcatV2", "input": ["PartitionedCall/model_253/tf.split_3/split", "PartitionedCall/model_253/tf.split_3/split:1", "PartitionedCall/model_253/tf.math.add_58/Add", "PartitionedCall/model_253/tf.concat_6/concat/axis"], "attr": {"Tidx": {"type": "DT_INT32"}, "N": {"i": "3"}, "T": {"type": "DT_FLOAT"}}}, {"name": "PartitionedCall/model_253/tf.nn.convolution_48/convolution", "op": "Conv2D", "input": ["PartitionedCall/model_253/tf.concat_6/concat", "915"], "device": "/device:CPU:0", "attr": {"T": {"type": "DT_FLOAT"}, "data_format": {"s": "TkhXQw=="}, "use_cudnn_on_gpu": {"b": true}, "padding": {"s": "U0FNRQ=="}, "explicit_paddings": {"list": {}}, "dilations": {"list": {"i": ["1", "1", "1", "1"]}}, "strides": {"list": {"i": ["1", "1", "1", "1"]}}}}, {"name": "PartitionedCall/model_253/tf.math.add_60/Add", "op": "AddV2", "input": ["PartitionedCall/model_253/tf.nn.convolution_48/convolution", "PartitionedCall/model_253/tf.math.add_60/Add/y"], "attr": {"T": {"type": "DT_FLOAT"}}}, {"name": "PartitionedCall/model_253/tf.math.sigmoid_48/Sigmoid", "op": "Sigmoid", "input": ["PartitionedCall/model_253/tf.math.add_60/Add"], "attr": {"T": {"type": "DT_FLOAT"}}}, {"name": "PartitionedCall/model_253/tf.math.multiply_79/Mul", "op": "Mul", "input": ["PartitionedCall/model_253/tf.math.add_60/Add", "PartitionedCall/model_253/tf.math.sigmoid_48/Sigmoid"], "attr": {"T": {"type": "DT_FLOAT"}}}, {"name": "PartitionedCall/model_253/tf.nn.convolution_50/convolution", "op": "Conv2D", "input": ["PartitionedCall/model_253/tf.math.multiply_79/Mul", "917"], "device": "/device:CPU:0", "attr": {"data_format": {"s": "TkhXQw=="}, "explicit_paddings": {"list": {}}, "strides": {"list": {"i": ["1", "1", "1", "1"]}}, "padding": {"s": "U0FNRQ=="}, "use_cudnn_on_gpu": {"b": true}, "T": {"type": "DT_FLOAT"}, "dilations": {"list": {"i": ["1", "1", "1", "1"]}}}}, {"name": "PartitionedCall/model_253/tf.math.add_62/Add", "op": "AddV2", "input": ["PartitionedCall/model_253/tf.nn.convolution_50/convolution", "PartitionedCall/model_253/tf.math.add_62/Add/y"], "attr": {"T": {"type": "DT_FLOAT"}}}, {"name": "PartitionedCall/model_253/tf.math.sigmoid_50/Sigmoid", "op": "Sigmoid", "input": ["PartitionedCall/model_253/tf.math.add_62/Add"], "attr": {"T": {"type": "DT_FLOAT"}}}, {"name": "PartitionedCall/model_253/tf.math.multiply_82/Mul", "op": "Mul", "input": ["PartitionedCall/model_253/tf.math.add_62/Add", "PartitionedCall/model_253/tf.math.sigmoid_50/Sigmoid"], "attr": {"T": {"type": "DT_FLOAT"}}}, {"name": "PartitionedCall/model_253/tf.compat.v1.nn.pool/max_pool", "op": "MaxPool", "input": ["PartitionedCall/model_253/tf.math.multiply_82/Mul"], "attr": {"T": {"type": "DT_FLOAT"}, "strides": {"list": {"i": ["1", "1", "1", "1"]}}, "ksize": {"list": {"i": ["1", "5", "5", "1"]}}, "explicit_paddings": {"list": {}}, "data_format": {"s": "TkhXQw=="}, "padding": {"s": "U0FNRQ=="}}}, {"name": "PartitionedCall/model_253/tf.compat.v1.nn.pool_1/max_pool", "op": "MaxPool", "input": ["PartitionedCall/model_253/tf.compat.v1.nn.pool/max_pool"], "attr": {"padding": {"s": "U0FNRQ=="}, "data_format": {"s": "TkhXQw=="}, "explicit_paddings": {"list": {}}, "strides": {"list": {"i": ["1", "1", "1", "1"]}}, "ksize": {"list": {"i": ["1", "5", "5", "1"]}}, "T": {"type": "DT_FLOAT"}}}, {"name": "PartitionedCall/model_253/tf.compat.v1.nn.pool_2/max_pool", "op": "MaxPool", "input": ["PartitionedCall/model_253/tf.compat.v1.nn.pool_1/max_pool"], "attr": {"padding": {"s": "U0FNRQ=="}, "explicit_paddings": {"list": {}}, "strides": {"list": {"i": ["1", "1", "1", "1"]}}, "ksize": {"list": {"i": ["1", "5", "5", "1"]}}, "data_format": {"s": "TkhXQw=="}, "T": {"type": "DT_FLOAT"}}}, {"name": "PartitionedCall/model_253/tf.concat_8/concat", "op": "ConcatV2", "input": ["PartitionedCall/model_253/tf.math.multiply_82/Mul", "PartitionedCall/model_253/tf.compat.v1.nn.pool/max_pool", "PartitionedCall/model_253/tf.compat.v1.nn.pool_1/max_pool", "PartitionedCall/model_253/tf.compat.v1.nn.pool_2/max_pool", "PartitionedCall/model_253/tf.concat_8/concat/axis"], "attr": {"Tidx": {"type": "DT_INT32"}, "T": {"type": "DT_FLOAT"}, "N": {"i": "4"}}}, {"name": "PartitionedCall/model_253/tf.nn.convolution_52/convolution", "op": "Conv2D", "input": ["PartitionedCall/model_253/tf.concat_8/concat", "919"], "device": "/device:CPU:0", "attr": {"strides": {"list": {"i": ["1", "1", "1", "1"]}}, "T": {"type": "DT_FLOAT"}, "explicit_paddings": {"list": {}}, "dilations": {"list": {"i": ["1", "1", "1", "1"]}}, "data_format": {"s": "TkhXQw=="}, "use_cudnn_on_gpu": {"b": true}, "padding": {"s": "U0FNRQ=="}}}, {"name": "PartitionedCall/model_253/tf.math.add_64/Add", "op": "AddV2", "input": ["PartitionedCall/model_253/tf.nn.convolution_52/convolution", "PartitionedCall/model_253/tf.math.add_64/Add/y"], "attr": {"T": {"type": "DT_FLOAT"}}}, {"name": "PartitionedCall/model_253/tf.math.sigmoid_52/Sigmoid", "op": "Sigmoid", "input": ["PartitionedCall/model_253/tf.math.add_64/Add"], "attr": {"T": {"type": "DT_FLOAT"}}}, {"name": "PartitionedCall/model_253/tf.math.multiply_85/Mul", "op": "Mul", "input": ["PartitionedCall/model_253/tf.math.add_64/Add", "PartitionedCall/model_253/tf.math.sigmoid_52/Sigmoid"], "attr": {"T": {"type": "DT_FLOAT"}}}, {"name": "PartitionedCall/model_253/lambda//model.10/Resize", "op": "ResizeNearestNeighbor", "input": ["PartitionedCall/model_253/tf.math.multiply_85/Mul", "PartitionedCall/model_253/lambda//model.10/Resize/size"], "attr": {"half_pixel_centers": {"b": false}, "T": {"type": "DT_FLOAT"}, "align_corners": {"b": false}}}, {"name": "PartitionedCall/model_253/tf.concat_10/concat", "op": "ConcatV2", "input": ["PartitionedCall/model_253/lambda//model.10/Resize", "PartitionedCall/model_253/tf.math.multiply_63/Mul", "PartitionedCall/model_253/tf.concat_10/concat/axis"], "attr": {"Tidx": {"type": "DT_INT32"}, "T": {"type": "DT_FLOAT"}, "N": {"i": "2"}}}, {"name": "PartitionedCall/model_253/tf.nn.convolution_54/convolution", "op": "Conv2D", "input": ["PartitionedCall/model_253/tf.concat_10/concat", "921"], "device": "/device:CPU:0", "attr": {"dilations": {"list": {"i": ["1", "1", "1", "1"]}}, "T": {"type": "DT_FLOAT"}, "data_format": {"s": "TkhXQw=="}, "explicit_paddings": {"list": {}}, "strides": {"list": {"i": ["1", "1", "1", "1"]}}, "use_cudnn_on_gpu": {"b": true}, "padding": {"s": "U0FNRQ=="}}}, {"name": "PartitionedCall/model_253/tf.math.add_66/Add", "op": "AddV2", "input": ["PartitionedCall/model_253/tf.nn.convolution_54/convolution", "PartitionedCall/model_253/tf.math.add_66/Add/y"], "attr": {"T": {"type": "DT_FLOAT"}}}, {"name": "PartitionedCall/model_253/tf.math.sigmoid_54/Sigmoid", "op": "Sigmoid", "input": ["PartitionedCall/model_253/tf.math.add_66/Add"], "attr": {"T": {"type": "DT_FLOAT"}}}, {"name": "PartitionedCall/model_253/tf.math.multiply_88/Mul", "op": "Mul", "input": ["PartitionedCall/model_253/tf.math.add_66/Add", "PartitionedCall/model_253/tf.math.sigmoid_54/Sigmoid"], "attr": {"T": {"type": "DT_FLOAT"}}}, {"name": "PartitionedCall/model_253/tf.split_4/split", "op": "SplitV", "input": ["PartitionedCall/model_253/tf.math.multiply_88/Mul", "PartitionedCall/model_253/tf.split_4/Const", "PartitionedCall/model_253/tf.split_4/split/split_dim"], "attr": {"T": {"type": "DT_FLOAT"}, "Tlen": {"type": "DT_INT64"}, "num_split": {"i": "2"}}}, {"name": "PartitionedCall/model_253/tf.nn.convolution_56/convolution", "op": "Conv2D", "input": ["PartitionedCall/model_253/tf.split_4/split:1", "923"], "device": "/device:CPU:0", "attr": {"use_cudnn_on_gpu": {"b": true}, "strides": {"list": {"i": ["1", "1", "1", "1"]}}, "explicit_paddings": {"list": {}}, "data_format": {"s": "TkhXQw=="}, "padding": {"s": "U0FNRQ=="}, "dilations": {"list": {"i": ["1", "1", "1", "1"]}}, "T": {"type": "DT_FLOAT"}}}, {"name": "PartitionedCall/model_253/tf.math.add_68/Add", "op": "AddV2", "input": ["PartitionedCall/model_253/tf.nn.convolution_56/convolution", "PartitionedCall/model_253/tf.math.add_68/Add/y"], "attr": {"T": {"type": "DT_FLOAT"}}}, {"name": "PartitionedCall/model_253/tf.math.sigmoid_56/Sigmoid", "op": "Sigmoid", "input": ["PartitionedCall/model_253/tf.math.add_68/Add"], "attr": {"T": {"type": "DT_FLOAT"}}}, {"name": "PartitionedCall/model_253/tf.math.multiply_91/Mul", "op": "Mul", "input": ["PartitionedCall/model_253/tf.math.add_68/Add", "PartitionedCall/model_253/tf.math.sigmoid_56/Sigmoid"], "attr": {"T": {"type": "DT_FLOAT"}}}, {"name": "PartitionedCall/model_253/tf.nn.convolution_58/convolution", "op": "Conv2D", "input": ["PartitionedCall/model_253/tf.math.multiply_91/Mul", "925"], "device": "/device:CPU:0", "attr": {"T": {"type": "DT_FLOAT"}, "use_cudnn_on_gpu": {"b": true}, "explicit_paddings": {"list": {}}, "strides": {"list": {"i": ["1", "1", "1", "1"]}}, "dilations": {"list": {"i": ["1", "1", "1", "1"]}}, "padding": {"s": "U0FNRQ=="}, "data_format": {"s": "TkhXQw=="}}}, {"name": "PartitionedCall/model_253/tf.math.add_70/Add", "op": "AddV2", "input": ["PartitionedCall/model_253/tf.nn.convolution_58/convolution", "PartitionedCall/model_253/tf.math.add_70/Add/y"], "attr": {"T": {"type": "DT_FLOAT"}}}, {"name": "PartitionedCall/model_253/tf.math.sigmoid_58/Sigmoid", "op": "Sigmoid", "input": ["PartitionedCall/model_253/tf.math.add_70/Add"], "attr": {"T": {"type": "DT_FLOAT"}}}, {"name": "PartitionedCall/model_253/tf.math.multiply_94/Mul", "op": "Mul", "input": ["PartitionedCall/model_253/tf.math.add_70/Add", "PartitionedCall/model_253/tf.math.sigmoid_58/Sigmoid"], "attr": {"T": {"type": "DT_FLOAT"}}}, {"name": "PartitionedCall/model_253/tf.concat_12/concat", "op": "ConcatV2", "input": ["PartitionedCall/model_253/tf.split_4/split", "PartitionedCall/model_253/tf.split_4/split:1", "PartitionedCall/model_253/tf.math.multiply_94/Mul", "PartitionedCall/model_253/tf.concat_12/concat/axis"], "attr": {"Tidx": {"type": "DT_INT32"}, "T": {"type": "DT_FLOAT"}, "N": {"i": "3"}}}, {"name": "PartitionedCall/model_253/tf.nn.convolution_60/convolution", "op": "Conv2D", "input": ["PartitionedCall/model_253/tf.concat_12/concat", "927"], "device": "/device:CPU:0", "attr": {"T": {"type": "DT_FLOAT"}, "data_format": {"s": "TkhXQw=="}, "padding": {"s": "U0FNRQ=="}, "dilations": {"list": {"i": ["1", "1", "1", "1"]}}, "strides": {"list": {"i": ["1", "1", "1", "1"]}}, "explicit_paddings": {"list": {}}, "use_cudnn_on_gpu": {"b": true}}}, {"name": "PartitionedCall/model_253/tf.math.add_72/Add", "op": "AddV2", "input": ["PartitionedCall/model_253/tf.nn.convolution_60/convolution", "PartitionedCall/model_253/tf.math.add_72/Add/y"], "attr": {"T": {"type": "DT_FLOAT"}}}, {"name": "PartitionedCall/model_253/tf.math.sigmoid_60/Sigmoid", "op": "Sigmoid", "input": ["PartitionedCall/model_253/tf.math.add_72/Add"], "attr": {"T": {"type": "DT_FLOAT"}}}, {"name": "PartitionedCall/model_253/tf.math.multiply_97/Mul", "op": "Mul", "input": ["PartitionedCall/model_253/tf.math.add_72/Add", "PartitionedCall/model_253/tf.math.sigmoid_60/Sigmoid"], "attr": {"T": {"type": "DT_FLOAT"}}}, {"name": "PartitionedCall/model_253/lambda_2//model.13/Resize", "op": "ResizeNearestNeighbor", "input": ["PartitionedCall/model_253/tf.math.multiply_97/Mul", "PartitionedCall/model_253/lambda_2//model.13/Resize/size"], "attr": {"align_corners": {"b": false}, "half_pixel_centers": {"b": false}, "T": {"type": "DT_FLOAT"}}}, {"name": "PartitionedCall/model_253/tf.concat_14/concat", "op": "ConcatV2", "input": ["PartitionedCall/model_253/lambda_2//model.13/Resize", "PartitionedCall/model_253/tf.math.multiply_40/Mul", "PartitionedCall/model_253/tf.concat_14/concat/axis"], "attr": {"T": {"type": "DT_FLOAT"}, "N": {"i": "2"}, "Tidx": {"type": "DT_INT32"}}}, {"name": "PartitionedCall/model_253/tf.nn.convolution_62/convolution", "op": "Conv2D", "input": ["PartitionedCall/model_253/tf.concat_14/concat", "929"], "device": "/device:CPU:0", "attr": {"padding": {"s": "U0FNRQ=="}, "explicit_paddings": {"list": {}}, "strides": {"list": {"i": ["1", "1", "1", "1"]}}, "T": {"type": "DT_FLOAT"}, "use_cudnn_on_gpu": {"b": true}, "dilations": {"list": {"i": ["1", "1", "1", "1"]}}, "data_format": {"s": "TkhXQw=="}}}, {"name": "PartitionedCall/model_253/tf.math.add_74/Add", "op": "AddV2", "input": ["PartitionedCall/model_253/tf.nn.convolution_62/convolution", "PartitionedCall/model_253/tf.math.add_74/Add/y"], "attr": {"T": {"type": "DT_FLOAT"}}}, {"name": "PartitionedCall/model_253/tf.math.sigmoid_62/Sigmoid", "op": "Sigmoid", "input": ["PartitionedCall/model_253/tf.math.add_74/Add"], "attr": {"T": {"type": "DT_FLOAT"}}}, {"name": "PartitionedCall/model_253/tf.math.multiply_100/Mul", "op": "Mul", "input": ["PartitionedCall/model_253/tf.math.add_74/Add", "PartitionedCall/model_253/tf.math.sigmoid_62/Sigmoid"], "attr": {"T": {"type": "DT_FLOAT"}}}, {"name": "PartitionedCall/model_253/tf.split_5/split", "op": "SplitV", "input": ["PartitionedCall/model_253/tf.math.multiply_100/Mul", "PartitionedCall/model_253/tf.split_5/Const", "PartitionedCall/model_253/tf.split_5/split/split_dim"], "attr": {"num_split": {"i": "2"}, "T": {"type": "DT_FLOAT"}, "Tlen": {"type": "DT_INT64"}}}, {"name": "PartitionedCall/model_253/tf.nn.convolution_64/convolution", "op": "Conv2D", "input": ["PartitionedCall/model_253/tf.split_5/split:1", "931"], "device": "/device:CPU:0", "attr": {"T": {"type": "DT_FLOAT"}, "use_cudnn_on_gpu": {"b": true}, "data_format": {"s": "TkhXQw=="}, "padding": {"s": "U0FNRQ=="}, "dilations": {"list": {"i": ["1", "1", "1", "1"]}}, "explicit_paddings": {"list": {}}, "strides": {"list": {"i": ["1", "1", "1", "1"]}}}}, {"name": "PartitionedCall/model_253/tf.math.add_76/Add", "op": "AddV2", "input": ["PartitionedCall/model_253/tf.nn.convolution_64/convolution", "PartitionedCall/model_253/tf.math.add_76/Add/y"], "attr": {"T": {"type": "DT_FLOAT"}}}, {"name": "PartitionedCall/model_253/tf.math.sigmoid_64/Sigmoid", "op": "Sigmoid", "input": ["PartitionedCall/model_253/tf.math.add_76/Add"], "attr": {"T": {"type": "DT_FLOAT"}}}, {"name": "PartitionedCall/model_253/tf.math.multiply_103/Mul", "op": "Mul", "input": ["PartitionedCall/model_253/tf.math.add_76/Add", "PartitionedCall/model_253/tf.math.sigmoid_64/Sigmoid"], "attr": {"T": {"type": "DT_FLOAT"}}}, {"name": "PartitionedCall/model_253/tf.nn.convolution_66/convolution", "op": "Conv2D", "input": ["PartitionedCall/model_253/tf.math.multiply_103/Mul", "933"], "device": "/device:CPU:0", "attr": {"use_cudnn_on_gpu": {"b": true}, "strides": {"list": {"i": ["1", "1", "1", "1"]}}, "padding": {"s": "U0FNRQ=="}, "T": {"type": "DT_FLOAT"}, "data_format": {"s": "TkhXQw=="}, "dilations": {"list": {"i": ["1", "1", "1", "1"]}}, "explicit_paddings": {"list": {}}}}, {"name": "PartitionedCall/model_253/tf.math.add_78/Add", "op": "AddV2", "input": ["PartitionedCall/model_253/tf.nn.convolution_66/convolution", "PartitionedCall/model_253/tf.math.add_78/Add/y"], "attr": {"T": {"type": "DT_FLOAT"}}}, {"name": "PartitionedCall/model_253/tf.math.sigmoid_66/Sigmoid", "op": "Sigmoid", "input": ["PartitionedCall/model_253/tf.math.add_78/Add"], "attr": {"T": {"type": "DT_FLOAT"}}}, {"name": "PartitionedCall/model_253/tf.math.multiply_106/Mul", "op": "Mul", "input": ["PartitionedCall/model_253/tf.math.add_78/Add", "PartitionedCall/model_253/tf.math.sigmoid_66/Sigmoid"], "attr": {"T": {"type": "DT_FLOAT"}}}, {"name": "PartitionedCall/model_253/tf.concat_16/concat", "op": "ConcatV2", "input": ["PartitionedCall/model_253/tf.split_5/split", "PartitionedCall/model_253/tf.split_5/split:1", "PartitionedCall/model_253/tf.math.multiply_106/Mul", "PartitionedCall/model_253/tf.concat_16/concat/axis"], "attr": {"N": {"i": "3"}, "T": {"type": "DT_FLOAT"}, "Tidx": {"type": "DT_INT32"}}}, {"name": "PartitionedCall/model_253/tf.nn.convolution_68/convolution", "op": "Conv2D", "input": ["PartitionedCall/model_253/tf.concat_16/concat", "935"], "device": "/device:CPU:0", "attr": {"data_format": {"s": "TkhXQw=="}, "use_cudnn_on_gpu": {"b": true}, "T": {"type": "DT_FLOAT"}, "dilations": {"list": {"i": ["1", "1", "1", "1"]}}, "strides": {"list": {"i": ["1", "1", "1", "1"]}}, "padding": {"s": "U0FNRQ=="}, "explicit_paddings": {"list": {}}}}, {"name": "PartitionedCall/model_253/tf.math.add_80/Add", "op": "AddV2", "input": ["PartitionedCall/model_253/tf.nn.convolution_68/convolution", "PartitionedCall/model_253/tf.math.add_80/Add/y"], "attr": {"T": {"type": "DT_FLOAT"}}}, {"name": "PartitionedCall/model_253/tf.math.sigmoid_68/Sigmoid", "op": "Sigmoid", "input": ["PartitionedCall/model_253/tf.math.add_80/Add"], "attr": {"T": {"type": "DT_FLOAT"}}}, {"name": "PartitionedCall/model_253/tf.math.multiply_109/Mul", "op": "Mul", "input": ["PartitionedCall/model_253/tf.math.add_80/Add", "PartitionedCall/model_253/tf.math.sigmoid_68/Sigmoid"], "attr": {"T": {"type": "DT_FLOAT"}}}, {"name": "PartitionedCall/model_253/tf.nn.convolution_76/convolution", "op": "Conv2D", "input": ["PartitionedCall/model_253/tf.math.multiply_109/Mul", "971"], "device": "/device:CPU:0", "attr": {"T": {"type": "DT_FLOAT"}, "data_format": {"s": "TkhXQw=="}, "dilations": {"list": {"i": ["1", "1", "1", "1"]}}, "explicit_paddings": {"list": {}}, "strides": {"list": {"i": ["1", "1", "1", "1"]}}, "use_cudnn_on_gpu": {"b": true}, "padding": {"s": "U0FNRQ=="}}}, {"name": "PartitionedCall/model_253/tf.nn.convolution_78/convolution", "op": "Conv2D", "input": ["PartitionedCall/model_253/tf.math.multiply_109/Mul", "969"], "device": "/device:CPU:0", "attr": {"padding": {"s": "U0FNRQ=="}, "explicit_paddings": {"list": {}}, "strides": {"list": {"i": ["1", "1", "1", "1"]}}, "data_format": {"s": "TkhXQw=="}, "T": {"type": "DT_FLOAT"}, "use_cudnn_on_gpu": {"b": true}, "dilations": {"list": {"i": ["1", "1", "1", "1"]}}}}, {"name": "PartitionedCall/model_253/tf.nn.convolution_74/convolution", "op": "Conv2D", "input": ["PartitionedCall/model_253/tf.math.multiply_109/Mul", "1003"], "device": "/device:CPU:0", "attr": {"use_cudnn_on_gpu": {"b": true}, "padding": {"s": "U0FNRQ=="}, "T": {"type": "DT_FLOAT"}, "data_format": {"s": "TkhXQw=="}, "strides": {"list": {"i": ["1", "1", "1", "1"]}}, "dilations": {"list": {"i": ["1", "1", "1", "1"]}}, "explicit_paddings": {"list": {}}}}, {"name": "PartitionedCall/model_253/tf.compat.v1.pad_5/Pad", "op": "Pad", "input": ["PartitionedCall/model_253/tf.math.multiply_109/Mul", "937"], "attr": {"Tpaddings": {"type": "DT_INT32"}, "T": {"type": "DT_FLOAT"}}}, {"name": "PartitionedCall/model_253/tf.nn.convolution_72/convolution", "op": "Conv2D", "input": ["PartitionedCall/model_253/tf.math.multiply_109/Mul", "997"], "device": "/device:CPU:0", "attr": {"explicit_paddings": {"list": {}}, "use_cudnn_on_gpu": {"b": true}, "T": {"type": "DT_FLOAT"}, "data_format": {"s": "TkhXQw=="}, "dilations": {"list": {"i": ["1", "1", "1", "1"]}}, "padding": {"s": "U0FNRQ=="}, "strides": {"list": {"i": ["1", "1", "1", "1"]}}}}, {"name": "PartitionedCall/model_253/tf.math.add_88/Add", "op": "AddV2", "input": ["PartitionedCall/model_253/tf.nn.convolution_76/convolution", "PartitionedCall/model_253/tf.math.add_88/Add/y"], "attr": {"T": {"type": "DT_FLOAT"}}}, {"name": "PartitionedCall/model_253/tf.math.add_90/Add", "op": "AddV2", "input": ["PartitionedCall/model_253/tf.nn.convolution_78/convolution", "PartitionedCall/model_253/tf.math.add_90/Add/y"], "attr": {"T": {"type": "DT_FLOAT"}}}, {"name": "PartitionedCall/model_253/tf.math.add_86/Add", "op": "AddV2", "input": ["PartitionedCall/model_253/tf.nn.convolution_74/convolution", "PartitionedCall/model_253/tf.math.add_86/Add/y"], "attr": {"T": {"type": "DT_FLOAT"}}}, {"name": "PartitionedCall/model_253/tf.nn.convolution_70/convolution", "op": "Conv2D", "input": ["PartitionedCall/model_253/tf.compat.v1.pad_5/Pad", "939"], "device": "/device:CPU:0", "attr": {"padding": {"s": "VkFMSUQ="}, "strides": {"list": {"i": ["1", "2", "2", "1"]}}, "use_cudnn_on_gpu": {"b": true}, "data_format": {"s": "TkhXQw=="}, "explicit_paddings": {"list": {}}, "dilations": {"list": {"i": ["1", "1", "1", "1"]}}, "T": {"type": "DT_FLOAT"}}}, {"name": "PartitionedCall/model_253/tf.math.add_84/Add", "op": "AddV2", "input": ["PartitionedCall/model_253/tf.nn.convolution_72/convolution", "PartitionedCall/model_253/tf.math.add_84/Add/y"], "attr": {"T": {"type": "DT_FLOAT"}}}, {"name": "PartitionedCall/model_253/tf.math.sigmoid_76/Sigmoid", "op": "Sigmoid", "input": ["PartitionedCall/model_253/tf.math.add_88/Add"], "attr": {"T": {"type": "DT_FLOAT"}}}, {"name": "PartitionedCall/model_253/tf.math.sigmoid_78/Sigmoid", "op": "Sigmoid", "input": ["PartitionedCall/model_253/tf.math.add_90/Add"], "attr": {"T": {"type": "DT_FLOAT"}}}, {"name": "PartitionedCall/model_253/tf.math.sigmoid_74/Sigmoid", "op": "Sigmoid", "input": ["PartitionedCall/model_253/tf.math.add_86/Add"], "attr": {"T": {"type": "DT_FLOAT"}}}, {"name": "PartitionedCall/model_253/tf.math.add_82/Add", "op": "AddV2", "input": ["PartitionedCall/model_253/tf.nn.convolution_70/convolution", "PartitionedCall/model_253/tf.math.add_82/Add/y"], "attr": {"T": {"type": "DT_FLOAT"}}}, {"name": "PartitionedCall/model_253/tf.math.sigmoid_72/Sigmoid", "op": "Sigmoid", "input": ["PartitionedCall/model_253/tf.math.add_84/Add"], "attr": {"T": {"type": "DT_FLOAT"}}}, {"name": "PartitionedCall/model_253/tf.math.multiply_121/Mul", "op": "Mul", "input": ["PartitionedCall/model_253/tf.math.add_88/Add", "PartitionedCall/model_253/tf.math.sigmoid_76/Sigmoid"], "attr": {"T": {"type": "DT_FLOAT"}}}, {"name": "PartitionedCall/model_253/tf.math.multiply_124/Mul", "op": "Mul", "input": ["PartitionedCall/model_253/tf.math.add_90/Add", "PartitionedCall/model_253/tf.math.sigmoid_78/Sigmoid"], "attr": {"T": {"type": "DT_FLOAT"}}}, {"name": "PartitionedCall/model_253/tf.math.multiply_118/Mul", "op": "Mul", "input": ["PartitionedCall/model_253/tf.math.add_86/Add", "PartitionedCall/model_253/tf.math.sigmoid_74/Sigmoid"], "attr": {"T": {"type": "DT_FLOAT"}}}, {"name": "PartitionedCall/model_253/tf.math.sigmoid_70/Sigmoid", "op": "Sigmoid", "input": ["PartitionedCall/model_253/tf.math.add_82/Add"], "attr": {"T": {"type": "DT_FLOAT"}}}, {"name": "PartitionedCall/model_253/tf.math.multiply_115/Mul", "op": "Mul", "input": ["PartitionedCall/model_253/tf.math.add_84/Add", "PartitionedCall/model_253/tf.math.sigmoid_72/Sigmoid"], "attr": {"T": {"type": "DT_FLOAT"}}}, {"name": "PartitionedCall/model_253/tf.nn.convolution_82/convolution", "op": "Conv2D", "input": ["PartitionedCall/model_253/tf.math.multiply_121/Mul", "983"], "device": "/device:CPU:0", "attr": {"strides": {"list": {"i": ["1", "1", "1", "1"]}}, "T": {"type": "DT_FLOAT"}, "data_format": {"s": "TkhXQw=="}, "explicit_paddings": {"list": {}}, "padding": {"s": "U0FNRQ=="}, "use_cudnn_on_gpu": {"b": true}, "dilations": {"list": {"i": ["1", "1", "1", "1"]}}}}, {"name": "PartitionedCall/model_253/tf.nn.convolution_84/convolution", "op": "Conv2D", "input": ["PartitionedCall/model_253/tf.math.multiply_124/Mul", "981"], "device": "/device:CPU:0", "attr": {"T": {"type": "DT_FLOAT"}, "explicit_paddings": {"list": {}}, "data_format": {"s": "TkhXQw=="}, "use_cudnn_on_gpu": {"b": true}, "dilations": {"list": {"i": ["1", "1", "1", "1"]}}, "padding": {"s": "U0FNRQ=="}, "strides": {"list": {"i": ["1", "1", "1", "1"]}}}}, {"name": "PartitionedCall/model_253/tf.nn.convolution_80/convolution", "op": "Conv2D", "input": ["PartitionedCall/model_253/tf.math.multiply_118/Mul", "1011"], "device": "/device:CPU:0", "attr": {"dilations": {"list": {"i": ["1", "1", "1", "1"]}}, "strides": {"list": {"i": ["1", "1", "1", "1"]}}, "padding": {"s": "U0FNRQ=="}, "T": {"type": "DT_FLOAT"}, "data_format": {"s": "TkhXQw=="}, "explicit_paddings": {"list": {}}, "use_cudnn_on_gpu": {"b": true}}}, {"name": "PartitionedCall/model_253/tf.math.multiply_112/Mul", "op": "Mul", "input": ["PartitionedCall/model_253/tf.math.add_82/Add", "PartitionedCall/model_253/tf.math.sigmoid_70/Sigmoid"], "attr": {"T": {"type": "DT_FLOAT"}}}, {"name": "PartitionedCall/model_253/tf.nn.conv2d_transpose/conv2d_transpose", "op": "Conv2DBackpropInput", "input": ["PartitionedCall/model_253/tf.nn.conv2d_transpose/conv2d_transpose/input_sizes", "1005", "PartitionedCall/model_253/tf.math.multiply_115/Mul"], "attr": {"T": {"type": "DT_FLOAT"}, "padding": {"s": "VkFMSUQ="}, "dilations": {"list": {"i": ["1", "1", "1", "1"]}}, "strides": {"list": {"i": ["1", "2", "2", "1"]}}, "use_cudnn_on_gpu": {"b": true}, "explicit_paddings": {"list": {}}, "data_format": {"s": "TkhXQw=="}}}, {"name": "PartitionedCall/model_253/tf.math.add_95/Add", "op": "AddV2", "input": ["PartitionedCall/model_253/tf.nn.convolution_82/convolution", "PartitionedCall/model_253/tf.math.add_95/Add/y"], "attr": {"T": {"type": "DT_FLOAT"}}}, {"name": "PartitionedCall/model_253/tf.math.add_97/Add", "op": "AddV2", "input": ["PartitionedCall/model_253/tf.nn.convolution_84/convolution", "PartitionedCall/model_253/tf.math.add_97/Add/y"], "attr": {"T": {"type": "DT_FLOAT"}}}, {"name": "PartitionedCall/model_253/tf.math.add_93/Add", "op": "AddV2", "input": ["PartitionedCall/model_253/tf.nn.convolution_80/convolution", "PartitionedCall/model_253/tf.math.add_93/Add/y"], "attr": {"T": {"type": "DT_FLOAT"}}}, {"name": "PartitionedCall/model_253/tf.concat_18/concat", "op": "ConcatV2", "input": ["PartitionedCall/model_253/tf.math.multiply_112/Mul", "PartitionedCall/model_253/tf.math.multiply_97/Mul", "PartitionedCall/model_253/tf.concat_18/concat/axis"], "attr": {"N": {"i": "2"}, "Tidx": {"type": "DT_INT32"}, "T": {"type": "DT_FLOAT"}}}, {"name": "PartitionedCall/model_253/tf.math.add_92/Add", "op": "AddV2", "input": ["PartitionedCall/model_253/tf.nn.conv2d_transpose/conv2d_transpose", "PartitionedCall/model_253/tf.math.add_92/Add/y"], "attr": {"T": {"type": "DT_FLOAT"}}}, {"name": "PartitionedCall/model_253/tf.math.sigmoid_82/Sigmoid", "op": "Sigmoid", "input": ["PartitionedCall/model_253/tf.math.add_95/Add"], "attr": {"T": {"type": "DT_FLOAT"}}}, {"name": "PartitionedCall/model_253/tf.math.sigmoid_84/Sigmoid", "op": "Sigmoid", "input": ["PartitionedCall/model_253/tf.math.add_97/Add"], "attr": {"T": {"type": "DT_FLOAT"}}}, {"name": "PartitionedCall/model_253/tf.math.sigmoid_80/Sigmoid", "op": "Sigmoid", "input": ["PartitionedCall/model_253/tf.math.add_93/Add"], "attr": {"T": {"type": "DT_FLOAT"}}}, {"name": "PartitionedCall/model_253/tf.nn.convolution_86/convolution", "op": "Conv2D", "input": ["PartitionedCall/model_253/tf.concat_18/concat", "941"], "device": "/device:CPU:0", "attr": {"data_format": {"s": "TkhXQw=="}, "padding": {"s": "U0FNRQ=="}, "explicit_paddings": {"list": {}}, "T": {"type": "DT_FLOAT"}, "dilations": {"list": {"i": ["1", "1", "1", "1"]}}, "strides": {"list": {"i": ["1", "1", "1", "1"]}}, "use_cudnn_on_gpu": {"b": true}}}, {"name": "PartitionedCall/model_253/tf.nn.convolution_88/convolution", "op": "Conv2D", "input": ["PartitionedCall/model_253/tf.math.add_92/Add", "1015"], "device": "/device:CPU:0", "attr": {"dilations": {"list": {"i": ["1", "1", "1", "1"]}}, "strides": {"list": {"i": ["1", "1", "1", "1"]}}, "data_format": {"s": "TkhXQw=="}, "use_cudnn_on_gpu": {"b": true}, "padding": {"s": "U0FNRQ=="}, "explicit_paddings": {"list": {}}, "T": {"type": "DT_FLOAT"}}}, {"name": "PartitionedCall/model_253/tf.math.multiply_130/Mul", "op": "Mul", "input": ["PartitionedCall/model_253/tf.math.add_95/Add", "PartitionedCall/model_253/tf.math.sigmoid_82/Sigmoid"], "attr": {"T": {"type": "DT_FLOAT"}}}, {"name": "PartitionedCall/model_253/tf.math.multiply_133/Mul", "op": "Mul", "input": ["PartitionedCall/model_253/tf.math.add_97/Add", "PartitionedCall/model_253/tf.math.sigmoid_84/Sigmoid"], "attr": {"T": {"type": "DT_FLOAT"}}}, {"name": "PartitionedCall/model_253/tf.math.multiply_127/Mul", "op": "Mul", "input": ["PartitionedCall/model_253/tf.math.add_93/Add", "PartitionedCall/model_253/tf.math.sigmoid_80/Sigmoid"], "attr": {"T": {"type": "DT_FLOAT"}}}, {"name": "PartitionedCall/model_253/tf.math.add_99/Add", "op": "AddV2", "input": ["PartitionedCall/model_253/tf.nn.convolution_86/convolution", "PartitionedCall/model_253/tf.math.add_99/Add/y"], "attr": {"T": {"type": "DT_FLOAT"}}}, {"name": "PartitionedCall/model_253/tf.math.add_101/Add", "op": "AddV2", "input": ["PartitionedCall/model_253/tf.nn.convolution_88/convolution", "PartitionedCall/model_253/tf.math.add_101/Add/y"], "attr": {"T": {"type": "DT_FLOAT"}}}, {"name": "PartitionedCall/model_253/tf.nn.convolution_92/convolution", "op": "Conv2D", "input": ["PartitionedCall/model_253/tf.math.multiply_130/Mul", "995"], "device": "/device:CPU:0", "attr": {"T": {"type": "DT_FLOAT"}, "padding": {"s": "U0FNRQ=="}, "use_cudnn_on_gpu": {"b": true}, "strides": {"list": {"i": ["1", "1", "1", "1"]}}, "dilations": {"list": {"i": ["1", "1", "1", "1"]}}, "data_format": {"s": "TkhXQw=="}, "explicit_paddings": {"list": {}}}}, {"name": "PartitionedCall/model_253/tf.nn.convolution_94/convolution", "op": "Conv2D", "input": ["PartitionedCall/model_253/tf.math.multiply_133/Mul", "993"], "device": "/device:CPU:0", "attr": {"explicit_paddings": {"list": {}}, "dilations": {"list": {"i": ["1", "1", "1", "1"]}}, "strides": {"list": {"i": ["1", "1", "1", "1"]}}, "T": {"type": "DT_FLOAT"}, "data_format": {"s": "TkhXQw=="}, "padding": {"s": "U0FNRQ=="}, "use_cudnn_on_gpu": {"b": true}}}, {"name": "PartitionedCall/model_253/tf.nn.convolution_90/convolution", "op": "Conv2D", "input": ["PartitionedCall/model_253/tf.math.multiply_127/Mul", "1029"], "device": "/device:CPU:0", "attr": {"explicit_paddings": {"list": {}}, "data_format": {"s": "TkhXQw=="}, "dilations": {"list": {"i": ["1", "1", "1", "1"]}}, "use_cudnn_on_gpu": {"b": true}, "padding": {"s": "U0FNRQ=="}, "strides": {"list": {"i": ["1", "1", "1", "1"]}}, "T": {"type": "DT_FLOAT"}}}, {"name": "PartitionedCall/model_253/tf.math.sigmoid_86/Sigmoid", "op": "Sigmoid", "input": ["PartitionedCall/model_253/tf.math.add_99/Add"], "attr": {"T": {"type": "DT_FLOAT"}}}, {"name": "PartitionedCall/model_253/tf.math.sigmoid_88/Sigmoid", "op": "Sigmoid", "input": ["PartitionedCall/model_253/tf.math.add_101/Add"], "attr": {"T": {"type": "DT_FLOAT"}}}, {"name": "PartitionedCall/model_253/tf.math.add_105/Add", "op": "AddV2", "input": ["PartitionedCall/model_253/tf.nn.convolution_92/convolution", "PartitionedCall/model_253/tf.math.add_105/Add/y"], "attr": {"T": {"type": "DT_FLOAT"}}}, {"name": "PartitionedCall/model_253/tf.math.add_107/Add", "op": "AddV2", "input": ["PartitionedCall/model_253/tf.nn.convolution_94/convolution", "PartitionedCall/model_253/tf.math.add_107/Add/y"], "attr": {"T": {"type": "DT_FLOAT"}}}, {"name": "PartitionedCall/model_253/tf.math.add_103/Add", "op": "AddV2", "input": ["PartitionedCall/model_253/tf.nn.convolution_90/convolution", "PartitionedCall/model_253/tf.math.add_103/Add/y"], "attr": {"T": {"type": "DT_FLOAT"}}}, {"name": "PartitionedCall/model_253/tf.math.multiply_136/Mul", "op": "Mul", "input": ["PartitionedCall/model_253/tf.math.add_99/Add", "PartitionedCall/model_253/tf.math.sigmoid_86/Sigmoid"], "attr": {"T": {"type": "DT_FLOAT"}}}, {"name": "PartitionedCall/model_253/tf.math.multiply_139/Mul", "op": "Mul", "input": ["PartitionedCall/model_253/tf.math.add_101/Add", "PartitionedCall/model_253/tf.math.sigmoid_88/Sigmoid"], "attr": {"T": {"type": "DT_FLOAT"}}}, {"name": "PartitionedCall/model_253/tf.concat_20/concat", "op": "ConcatV2", "input": ["PartitionedCall/model_253/tf.math.add_105/Add", "PartitionedCall/model_253/tf.math.add_107/Add", "PartitionedCall/model_253/tf.concat_20/concat/axis"], "attr": {"T": {"type": "DT_FLOAT"}, "N": {"i": "2"}, "Tidx": {"type": "DT_INT32"}}}, {"name": "PartitionedCall/model_253/tf.compat.v1.transpose/transpose", "op": "Transpose", "input": ["PartitionedCall/model_253/tf.math.add_103/Add", "PartitionedCall/model_253/tf.compat.v1.transpose/transpose/perm"], "attr": {"Tperm": {"type": "DT_INT32"}, "T": {"type": "DT_FLOAT"}}}, {"name": "PartitionedCall/model_253/tf.split_6/split", "op": "SplitV", "input": ["PartitionedCall/model_253/tf.math.multiply_136/Mul", "PartitionedCall/model_253/tf.split_6/Const", "PartitionedCall/model_253/tf.split_6/split/split_dim"], "attr": {"T": {"type": "DT_FLOAT"}, "Tlen": {"type": "DT_INT64"}, "num_split": {"i": "2"}}}, {"name": "PartitionedCall/model_253/tf.nn.convolution_96/convolution", "op": "Conv2D", "input": ["PartitionedCall/model_253/tf.math.multiply_139/Mul", "1035"], "device": "/device:CPU:0", "attr": {"T": {"type": "DT_FLOAT"}, "padding": {"s": "U0FNRQ=="}, "data_format": {"s": "TkhXQw=="}, "strides": {"list": {"i": ["1", "1", "1", "1"]}}, "use_cudnn_on_gpu": {"b": true}, "explicit_paddings": {"list": {}}, "dilations": {"list": {"i": ["1", "1", "1", "1"]}}}}, {"name": "PartitionedCall/model_253/tf.compat.v1.transpose_1/transpose", "op": "Transpose", "input": ["PartitionedCall/model_253/tf.concat_20/concat", "PartitionedCall/model_253/tf.compat.v1.transpose_1/transpose/perm"], "attr": {"T": {"type": "DT_FLOAT"}, "Tperm": {"type": "DT_INT32"}}}, {"name": "PartitionedCall/model_253/tf.reshape/Reshape", "op": "Reshape", "input": ["PartitionedCall/model_253/tf.compat.v1.transpose/transpose", "PartitionedCall/model_253/tf.reshape/Reshape/shape"], "attr": {"T": {"type": "DT_FLOAT"}, "Tshape": {"type": "DT_INT32"}}}, {"name": "PartitionedCall/model_253/tf.nn.convolution_98/convolution", "op": "Conv2D", "input": ["PartitionedCall/model_253/tf.split_6/split:1", "943"], "device": "/device:CPU:0", "attr": {"use_cudnn_on_gpu": {"b": true}, "strides": {"list": {"i": ["1", "1", "1", "1"]}}, "T": {"type": "DT_FLOAT"}, "explicit_paddings": {"list": {}}, "padding": {"s": "U0FNRQ=="}, "dilations": {"list": {"i": ["1", "1", "1", "1"]}}, "data_format": {"s": "TkhXQw=="}}}, {"name": "PartitionedCall/model_253/tf.math.add_109/Add", "op": "AddV2", "input": ["PartitionedCall/model_253/tf.nn.convolution_96/convolution", "PartitionedCall/model_253/tf.math.add_109/Add/y"], "attr": {"T": {"type": "DT_FLOAT"}}}, {"name": "PartitionedCall/model_253/tf.reshape_2/Reshape", "op": "Reshape", "input": ["PartitionedCall/model_253/tf.compat.v1.transpose_1/transpose", "PartitionedCall/model_253/tf.reshape_2/Reshape/shape"], "attr": {"Tshape": {"type": "DT_INT32"}, "T": {"type": "DT_FLOAT"}}}, {"name": "PartitionedCall/model_253/tf.math.add_111/Add", "op": "AddV2", "input": ["PartitionedCall/model_253/tf.nn.convolution_98/convolution", "PartitionedCall/model_253/tf.math.add_111/Add/y"], "attr": {"T": {"type": "DT_FLOAT"}}}, {"name": "PartitionedCall/model_253/tf.math.sigmoid_90/Sigmoid", "op": "Sigmoid", "input": ["PartitionedCall/model_253/tf.math.add_109/Add"], "attr": {"T": {"type": "DT_FLOAT"}}}, {"name": "PartitionedCall/model_253/tf.math.sigmoid_92/Sigmoid", "op": "Sigmoid", "input": ["PartitionedCall/model_253/tf.math.add_111/Add"], "attr": {"T": {"type": "DT_FLOAT"}}}, {"name": "PartitionedCall/model_253/output1/Mul", "op": "Mul", "input": ["PartitionedCall/model_253/tf.math.add_109/Add", "PartitionedCall/model_253/tf.math.sigmoid_90/Sigmoid"], "attr": {"T": {"type": "DT_FLOAT"}}}, {"name": "PartitionedCall/model_253/tf.math.multiply_145/Mul", "op": "Mul", "input": ["PartitionedCall/model_253/tf.math.add_111/Add", "PartitionedCall/model_253/tf.math.sigmoid_92/Sigmoid"], "attr": {"T": {"type": "DT_FLOAT"}}}, {"name": "Identity_1", "op": "Identity", "input": ["PartitionedCall/model_253/output1/Mul"], "attr": {"T": {"type": "DT_FLOAT"}}}, {"name": "PartitionedCall/model_253/tf.nn.convolution_100/convolution", "op": "Conv2D", "input": ["PartitionedCall/model_253/tf.math.multiply_145/Mul", "945"], "device": "/device:CPU:0", "attr": {"use_cudnn_on_gpu": {"b": true}, "strides": {"list": {"i": ["1", "1", "1", "1"]}}, "explicit_paddings": {"list": {}}, "T": {"type": "DT_FLOAT"}, "data_format": {"s": "TkhXQw=="}, "dilations": {"list": {"i": ["1", "1", "1", "1"]}}, "padding": {"s": "U0FNRQ=="}}}, {"name": "PartitionedCall/model_253/tf.math.add_113/Add", "op": "AddV2", "input": ["PartitionedCall/model_253/tf.nn.convolution_100/convolution", "PartitionedCall/model_253/tf.math.add_113/Add/y"], "attr": {"T": {"type": "DT_FLOAT"}}}, {"name": "PartitionedCall/model_253/tf.math.sigmoid_94/Sigmoid", "op": "Sigmoid", "input": ["PartitionedCall/model_253/tf.math.add_113/Add"], "attr": {"T": {"type": "DT_FLOAT"}}}, {"name": "PartitionedCall/model_253/tf.math.multiply_148/Mul", "op": "Mul", "input": ["PartitionedCall/model_253/tf.math.add_113/Add", "PartitionedCall/model_253/tf.math.sigmoid_94/Sigmoid"], "attr": {"T": {"type": "DT_FLOAT"}}}, {"name": "PartitionedCall/model_253/tf.concat_22/concat", "op": "ConcatV2", "input": ["PartitionedCall/model_253/tf.split_6/split", "PartitionedCall/model_253/tf.split_6/split:1", "PartitionedCall/model_253/tf.math.multiply_148/Mul", "PartitionedCall/model_253/tf.concat_22/concat/axis"], "attr": {"N": {"i": "3"}, "T": {"type": "DT_FLOAT"}, "Tidx": {"type": "DT_INT32"}}}, {"name": "PartitionedCall/model_253/tf.nn.convolution_102/convolution", "op": "Conv2D", "input": ["PartitionedCall/model_253/tf.concat_22/concat", "947"], "device": "/device:CPU:0", "attr": {"strides": {"list": {"i": ["1", "1", "1", "1"]}}, "data_format": {"s": "TkhXQw=="}, "T": {"type": "DT_FLOAT"}, "padding": {"s": "U0FNRQ=="}, "use_cudnn_on_gpu": {"b": true}, "dilations": {"list": {"i": ["1", "1", "1", "1"]}}, "explicit_paddings": {"list": {}}}}, {"name": "PartitionedCall/model_253/tf.math.add_115/Add", "op": "AddV2", "input": ["PartitionedCall/model_253/tf.nn.convolution_102/convolution", "PartitionedCall/model_253/tf.math.add_115/Add/y"], "attr": {"T": {"type": "DT_FLOAT"}}}, {"name": "PartitionedCall/model_253/tf.math.sigmoid_96/Sigmoid", "op": "Sigmoid", "input": ["PartitionedCall/model_253/tf.math.add_115/Add"], "attr": {"T": {"type": "DT_FLOAT"}}}, {"name": "PartitionedCall/model_253/tf.math.multiply_151/Mul", "op": "Mul", "input": ["PartitionedCall/model_253/tf.math.add_115/Add", "PartitionedCall/model_253/tf.math.sigmoid_96/Sigmoid"], "attr": {"T": {"type": "DT_FLOAT"}}}, {"name": "PartitionedCall/model_253/tf.nn.convolution_108/convolution", "op": "Conv2D", "input": ["PartitionedCall/model_253/tf.math.multiply_151/Mul", "967"], "device": "/device:CPU:0", "attr": {"T": {"type": "DT_FLOAT"}, "data_format": {"s": "TkhXQw=="}, "use_cudnn_on_gpu": {"b": true}, "strides": {"list": {"i": ["1", "1", "1", "1"]}}, "explicit_paddings": {"list": {}}, "padding": {"s": "U0FNRQ=="}, "dilations": {"list": {"i": ["1", "1", "1", "1"]}}}}, {"name": "PartitionedCall/model_253/tf.nn.convolution_110/convolution", "op": "Conv2D", "input": ["PartitionedCall/model_253/tf.math.multiply_151/Mul", "965"], "device": "/device:CPU:0", "attr": {"explicit_paddings": {"list": {}}, "use_cudnn_on_gpu": {"b": true}, "dilations": {"list": {"i": ["1", "1", "1", "1"]}}, "data_format": {"s": "TkhXQw=="}, "padding": {"s": "U0FNRQ=="}, "strides": {"list": {"i": ["1", "1", "1", "1"]}}, "T": {"type": "DT_FLOAT"}}}, {"name": "PartitionedCall/model_253/tf.nn.convolution_106/convolution", "op": "Conv2D", "input": ["PartitionedCall/model_253/tf.math.multiply_151/Mul", "1001"], "device": "/device:CPU:0", "attr": {"padding": {"s": "U0FNRQ=="}, "explicit_paddings": {"list": {}}, "data_format": {"s": "TkhXQw=="}, "T": {"type": "DT_FLOAT"}, "strides": {"list": {"i": ["1", "1", "1", "1"]}}, "use_cudnn_on_gpu": {"b": true}, "dilations": {"list": {"i": ["1", "1", "1", "1"]}}}}, {"name": "PartitionedCall/model_253/tf.compat.v1.pad_6/Pad", "op": "Pad", "input": ["PartitionedCall/model_253/tf.math.multiply_151/Mul", "949"], "attr": {"T": {"type": "DT_FLOAT"}, "Tpaddings": {"type": "DT_INT32"}}}, {"name": "PartitionedCall/model_253/tf.math.add_121/Add", "op": "AddV2", "input": ["PartitionedCall/model_253/tf.nn.convolution_108/convolution", "PartitionedCall/model_253/tf.math.add_121/Add/y"], "attr": {"T": {"type": "DT_FLOAT"}}}, {"name": "PartitionedCall/model_253/tf.math.add_123/Add", "op": "AddV2", "input": ["PartitionedCall/model_253/tf.nn.convolution_110/convolution", "PartitionedCall/model_253/tf.math.add_123/Add/y"], "attr": {"T": {"type": "DT_FLOAT"}}}, {"name": "PartitionedCall/model_253/tf.math.add_119/Add", "op": "AddV2", "input": ["PartitionedCall/model_253/tf.nn.convolution_106/convolution", "PartitionedCall/model_253/tf.math.add_119/Add/y"], "attr": {"T": {"type": "DT_FLOAT"}}}, {"name": "PartitionedCall/model_253/tf.nn.convolution_104/convolution", "op": "Conv2D", "input": ["PartitionedCall/model_253/tf.compat.v1.pad_6/Pad", "951"], "device": "/device:CPU:0", "attr": {"padding": {"s": "VkFMSUQ="}, "strides": {"list": {"i": ["1", "2", "2", "1"]}}, "data_format": {"s": "TkhXQw=="}, "use_cudnn_on_gpu": {"b": true}, "T": {"type": "DT_FLOAT"}, "dilations": {"list": {"i": ["1", "1", "1", "1"]}}, "explicit_paddings": {"list": {}}}}, {"name": "PartitionedCall/model_253/tf.math.sigmoid_102/Sigmoid", "op": "Sigmoid", "input": ["PartitionedCall/model_253/tf.math.add_121/Add"], "attr": {"T": {"type": "DT_FLOAT"}}}, {"name": "PartitionedCall/model_253/tf.math.sigmoid_104/Sigmoid", "op": "Sigmoid", "input": ["PartitionedCall/model_253/tf.math.add_123/Add"], "attr": {"T": {"type": "DT_FLOAT"}}}, {"name": "PartitionedCall/model_253/tf.math.sigmoid_100/Sigmoid", "op": "Sigmoid", "input": ["PartitionedCall/model_253/tf.math.add_119/Add"], "attr": {"T": {"type": "DT_FLOAT"}}}, {"name": "PartitionedCall/model_253/tf.math.add_117/Add", "op": "AddV2", "input": ["PartitionedCall/model_253/tf.nn.convolution_104/convolution", "PartitionedCall/model_253/tf.math.add_117/Add/y"], "attr": {"T": {"type": "DT_FLOAT"}}}, {"name": "PartitionedCall/model_253/tf.math.multiply_160/Mul", "op": "Mul", "input": ["PartitionedCall/model_253/tf.math.add_121/Add", "PartitionedCall/model_253/tf.math.sigmoid_102/Sigmoid"], "attr": {"T": {"type": "DT_FLOAT"}}}, {"name": "PartitionedCall/model_253/tf.math.multiply_163/Mul", "op": "Mul", "input": ["PartitionedCall/model_253/tf.math.add_123/Add", "PartitionedCall/model_253/tf.math.sigmoid_104/Sigmoid"], "attr": {"T": {"type": "DT_FLOAT"}}}, {"name": "PartitionedCall/model_253/tf.math.multiply_157/Mul", "op": "Mul", "input": ["PartitionedCall/model_253/tf.math.add_119/Add", "PartitionedCall/model_253/tf.math.sigmoid_100/Sigmoid"], "attr": {"T": {"type": "DT_FLOAT"}}}, {"name": "PartitionedCall/model_253/tf.math.sigmoid_98/Sigmoid", "op": "Sigmoid", "input": ["PartitionedCall/model_253/tf.math.add_117/Add"], "attr": {"T": {"type": "DT_FLOAT"}}}, {"name": "PartitionedCall/model_253/tf.nn.convolution_114/convolution", "op": "Conv2D", "input": ["PartitionedCall/model_253/tf.math.multiply_160/Mul", "979"], "device": "/device:CPU:0", "attr": {"T": {"type": "DT_FLOAT"}, "data_format": {"s": "TkhXQw=="}, "explicit_paddings": {"list": {}}, "strides": {"list": {"i": ["1", "1", "1", "1"]}}, "use_cudnn_on_gpu": {"b": true}, "padding": {"s": "U0FNRQ=="}, "dilations": {"list": {"i": ["1", "1", "1", "1"]}}}}, {"name": "PartitionedCall/model_253/tf.nn.convolution_116/convolution", "op": "Conv2D", "input": ["PartitionedCall/model_253/tf.math.multiply_163/Mul", "977"], "device": "/device:CPU:0", "attr": {"data_format": {"s": "TkhXQw=="}, "strides": {"list": {"i": ["1", "1", "1", "1"]}}, "T": {"type": "DT_FLOAT"}, "use_cudnn_on_gpu": {"b": true}, "padding": {"s": "U0FNRQ=="}, "dilations": {"list": {"i": ["1", "1", "1", "1"]}}, "explicit_paddings": {"list": {}}}}, {"name": "PartitionedCall/model_253/tf.nn.convolution_112/convolution", "op": "Conv2D", "input": ["PartitionedCall/model_253/tf.math.multiply_157/Mul", "1009"], "device": "/device:CPU:0", "attr": {"strides": {"list": {"i": ["1", "1", "1", "1"]}}, "use_cudnn_on_gpu": {"b": true}, "explicit_paddings": {"list": {}}, "data_format": {"s": "TkhXQw=="}, "dilations": {"list": {"i": ["1", "1", "1", "1"]}}, "T": {"type": "DT_FLOAT"}, "padding": {"s": "U0FNRQ=="}}}, {"name": "PartitionedCall/model_253/tf.math.multiply_154/Mul", "op": "Mul", "input": ["PartitionedCall/model_253/tf.math.add_117/Add", "PartitionedCall/model_253/tf.math.sigmoid_98/Sigmoid"], "attr": {"T": {"type": "DT_FLOAT"}}}, {"name": "PartitionedCall/model_253/tf.math.add_127/Add", "op": "AddV2", "input": ["PartitionedCall/model_253/tf.nn.convolution_114/convolution", "PartitionedCall/model_253/tf.math.add_127/Add/y"], "attr": {"T": {"type": "DT_FLOAT"}}}, {"name": "PartitionedCall/model_253/tf.math.add_129/Add", "op": "AddV2", "input": ["PartitionedCall/model_253/tf.nn.convolution_116/convolution", "PartitionedCall/model_253/tf.math.add_129/Add/y"], "attr": {"T": {"type": "DT_FLOAT"}}}, {"name": "PartitionedCall/model_253/tf.math.add_125/Add", "op": "AddV2", "input": ["PartitionedCall/model_253/tf.nn.convolution_112/convolution", "PartitionedCall/model_253/tf.math.add_125/Add/y"], "attr": {"T": {"type": "DT_FLOAT"}}}, {"name": "PartitionedCall/model_253/tf.concat_24/concat", "op": "ConcatV2", "input": ["PartitionedCall/model_253/tf.math.multiply_154/Mul", "PartitionedCall/model_253/tf.math.multiply_85/Mul", "PartitionedCall/model_253/tf.concat_24/concat/axis"], "attr": {"N": {"i": "2"}, "Tidx": {"type": "DT_INT32"}, "T": {"type": "DT_FLOAT"}}}, {"name": "PartitionedCall/model_253/tf.math.sigmoid_108/Sigmoid", "op": "Sigmoid", "input": ["PartitionedCall/model_253/tf.math.add_127/Add"], "attr": {"T": {"type": "DT_FLOAT"}}}, {"name": "PartitionedCall/model_253/tf.math.sigmoid_110/Sigmoid", "op": "Sigmoid", "input": ["PartitionedCall/model_253/tf.math.add_129/Add"], "attr": {"T": {"type": "DT_FLOAT"}}}, {"name": "PartitionedCall/model_253/tf.math.sigmoid_106/Sigmoid", "op": "Sigmoid", "input": ["PartitionedCall/model_253/tf.math.add_125/Add"], "attr": {"T": {"type": "DT_FLOAT"}}}, {"name": "PartitionedCall/model_253/tf.nn.convolution_118/convolution", "op": "Conv2D", "input": ["PartitionedCall/model_253/tf.concat_24/concat", "953"], "device": "/device:CPU:0", "attr": {"padding": {"s": "U0FNRQ=="}, "dilations": {"list": {"i": ["1", "1", "1", "1"]}}, "explicit_paddings": {"list": {}}, "use_cudnn_on_gpu": {"b": true}, "data_format": {"s": "TkhXQw=="}, "strides": {"list": {"i": ["1", "1", "1", "1"]}}, "T": {"type": "DT_FLOAT"}}}, {"name": "PartitionedCall/model_253/tf.math.multiply_169/Mul", "op": "Mul", "input": ["PartitionedCall/model_253/tf.math.add_127/Add", "PartitionedCall/model_253/tf.math.sigmoid_108/Sigmoid"], "attr": {"T": {"type": "DT_FLOAT"}}}, {"name": "PartitionedCall/model_253/tf.math.multiply_172/Mul", "op": "Mul", "input": ["PartitionedCall/model_253/tf.math.add_129/Add", "PartitionedCall/model_253/tf.math.sigmoid_110/Sigmoid"], "attr": {"T": {"type": "DT_FLOAT"}}}, {"name": "PartitionedCall/model_253/tf.math.multiply_166/Mul", "op": "Mul", "input": ["PartitionedCall/model_253/tf.math.add_125/Add", "PartitionedCall/model_253/tf.math.sigmoid_106/Sigmoid"], "attr": {"T": {"type": "DT_FLOAT"}}}, {"name": "PartitionedCall/model_253/tf.math.add_131/Add", "op": "AddV2", "input": ["PartitionedCall/model_253/tf.nn.convolution_118/convolution", "PartitionedCall/model_253/tf.math.add_131/Add/y"], "attr": {"T": {"type": "DT_FLOAT"}}}, {"name": "PartitionedCall/model_253/tf.nn.convolution_122/convolution", "op": "Conv2D", "input": ["PartitionedCall/model_253/tf.math.multiply_169/Mul", "991"], "device": "/device:CPU:0", "attr": {"explicit_paddings": {"list": {}}, "T": {"type": "DT_FLOAT"}, "dilations": {"list": {"i": ["1", "1", "1", "1"]}}, "use_cudnn_on_gpu": {"b": true}, "padding": {"s": "U0FNRQ=="}, "data_format": {"s": "TkhXQw=="}, "strides": {"list": {"i": ["1", "1", "1", "1"]}}}}, {"name": "PartitionedCall/model_253/tf.nn.convolution_124/convolution", "op": "Conv2D", "input": ["PartitionedCall/model_253/tf.math.multiply_172/Mul", "989"], "device": "/device:CPU:0", "attr": {"use_cudnn_on_gpu": {"b": true}, "data_format": {"s": "TkhXQw=="}, "T": {"type": "DT_FLOAT"}, "strides": {"list": {"i": ["1", "1", "1", "1"]}}, "padding": {"s": "U0FNRQ=="}, "dilations": {"list": {"i": ["1", "1", "1", "1"]}}, "explicit_paddings": {"list": {}}}}, {"name": "PartitionedCall/model_253/tf.nn.convolution_120/convolution", "op": "Conv2D", "input": ["PartitionedCall/model_253/tf.math.multiply_166/Mul", "1027"], "device": "/device:CPU:0", "attr": {"padding": {"s": "U0FNRQ=="}, "strides": {"list": {"i": ["1", "1", "1", "1"]}}, "explicit_paddings": {"list": {}}, "T": {"type": "DT_FLOAT"}, "use_cudnn_on_gpu": {"b": true}, "data_format": {"s": "TkhXQw=="}, "dilations": {"list": {"i": ["1", "1", "1", "1"]}}}}, {"name": "PartitionedCall/model_253/tf.math.sigmoid_112/Sigmoid", "op": "Sigmoid", "input": ["PartitionedCall/model_253/tf.math.add_131/Add"], "attr": {"T": {"type": "DT_FLOAT"}}}, {"name": "PartitionedCall/model_253/tf.math.add_135/Add", "op": "AddV2", "input": ["PartitionedCall/model_253/tf.nn.convolution_122/convolution", "PartitionedCall/model_253/tf.math.add_135/Add/y"], "attr": {"T": {"type": "DT_FLOAT"}}}, {"name": "PartitionedCall/model_253/tf.math.add_137/Add", "op": "AddV2", "input": ["PartitionedCall/model_253/tf.nn.convolution_124/convolution", "PartitionedCall/model_253/tf.math.add_137/Add/y"], "attr": {"T": {"type": "DT_FLOAT"}}}, {"name": "PartitionedCall/model_253/tf.math.add_133/Add", "op": "AddV2", "input": ["PartitionedCall/model_253/tf.nn.convolution_120/convolution", "PartitionedCall/model_253/tf.math.add_133/Add/y"], "attr": {"T": {"type": "DT_FLOAT"}}}, {"name": "PartitionedCall/model_253/tf.math.multiply_175/Mul", "op": "Mul", "input": ["PartitionedCall/model_253/tf.math.add_131/Add", "PartitionedCall/model_253/tf.math.sigmoid_112/Sigmoid"], "attr": {"T": {"type": "DT_FLOAT"}}}, {"name": "PartitionedCall/model_253/tf.concat_26/concat", "op": "ConcatV2", "input": ["PartitionedCall/model_253/tf.math.add_135/Add", "PartitionedCall/model_253/tf.math.add_137/Add", "PartitionedCall/model_253/tf.concat_26/concat/axis"], "attr": {"T": {"type": "DT_FLOAT"}, "Tidx": {"type": "DT_INT32"}, "N": {"i": "2"}}}, {"name": "PartitionedCall/model_253/tf.compat.v1.transpose_2/transpose", "op": "Transpose", "input": ["PartitionedCall/model_253/tf.math.add_133/Add", "PartitionedCall/model_253/tf.compat.v1.transpose_2/transpose/perm"], "attr": {"T": {"type": "DT_FLOAT"}, "Tperm": {"type": "DT_INT32"}}}, {"name": "PartitionedCall/model_253/tf.split_7/split", "op": "SplitV", "input": ["PartitionedCall/model_253/tf.math.multiply_175/Mul", "PartitionedCall/model_253/tf.split_7/Const", "PartitionedCall/model_253/tf.split_7/split/split_dim"], "attr": {"num_split": {"i": "2"}, "Tlen": {"type": "DT_INT64"}, "T": {"type": "DT_FLOAT"}}}, {"name": "PartitionedCall/model_253/tf.compat.v1.transpose_3/transpose", "op": "Transpose", "input": ["PartitionedCall/model_253/tf.concat_26/concat", "PartitionedCall/model_253/tf.compat.v1.transpose_3/transpose/perm"], "attr": {"Tperm": {"type": "DT_INT32"}, "T": {"type": "DT_FLOAT"}}}, {"name": "PartitionedCall/model_253/tf.reshape_4/Reshape", "op": "Reshape", "input": ["PartitionedCall/model_253/tf.compat.v1.transpose_2/transpose", "PartitionedCall/model_253/tf.reshape_4/Reshape/shape"], "attr": {"Tshape": {"type": "DT_INT32"}, "T": {"type": "DT_FLOAT"}}}, {"name": "PartitionedCall/model_253/tf.nn.convolution_126/convolution", "op": "Conv2D", "input": ["PartitionedCall/model_253/tf.split_7/split:1", "955"], "device": "/device:CPU:0", "attr": {"padding": {"s": "U0FNRQ=="}, "use_cudnn_on_gpu": {"b": true}, "T": {"type": "DT_FLOAT"}, "explicit_paddings": {"list": {}}, "dilations": {"list": {"i": ["1", "1", "1", "1"]}}, "data_format": {"s": "TkhXQw=="}, "strides": {"list": {"i": ["1", "1", "1", "1"]}}}}, {"name": "PartitionedCall/model_253/tf.reshape_6/Reshape", "op": "Reshape", "input": ["PartitionedCall/model_253/tf.compat.v1.transpose_3/transpose", "PartitionedCall/model_253/tf.reshape_6/Reshape/shape"], "attr": {"Tshape": {"type": "DT_INT32"}, "T": {"type": "DT_FLOAT"}}}, {"name": "PartitionedCall/model_253/tf.math.add_139/Add", "op": "AddV2", "input": ["PartitionedCall/model_253/tf.nn.convolution_126/convolution", "PartitionedCall/model_253/tf.math.add_139/Add/y"], "attr": {"T": {"type": "DT_FLOAT"}}}, {"name": "PartitionedCall/model_253/tf.math.sigmoid_114/Sigmoid", "op": "Sigmoid", "input": ["PartitionedCall/model_253/tf.math.add_139/Add"], "attr": {"T": {"type": "DT_FLOAT"}}}, {"name": "PartitionedCall/model_253/tf.math.multiply_178/Mul", "op": "Mul", "input": ["PartitionedCall/model_253/tf.math.add_139/Add", "PartitionedCall/model_253/tf.math.sigmoid_114/Sigmoid"], "attr": {"T": {"type": "DT_FLOAT"}}}, {"name": "PartitionedCall/model_253/tf.nn.convolution_128/convolution", "op": "Conv2D", "input": ["PartitionedCall/model_253/tf.math.multiply_178/Mul", "957"], "device": "/device:CPU:0", "attr": {"data_format": {"s": "TkhXQw=="}, "padding": {"s": "U0FNRQ=="}, "T": {"type": "DT_FLOAT"}, "explicit_paddings": {"list": {}}, "dilations": {"list": {"i": ["1", "1", "1", "1"]}}, "strides": {"list": {"i": ["1", "1", "1", "1"]}}, "use_cudnn_on_gpu": {"b": true}}}, {"name": "PartitionedCall/model_253/tf.math.add_141/Add", "op": "AddV2", "input": ["PartitionedCall/model_253/tf.nn.convolution_128/convolution", "PartitionedCall/model_253/tf.math.add_141/Add/y"], "attr": {"T": {"type": "DT_FLOAT"}}}, {"name": "PartitionedCall/model_253/tf.math.sigmoid_116/Sigmoid", "op": "Sigmoid", "input": ["PartitionedCall/model_253/tf.math.add_141/Add"], "attr": {"T": {"type": "DT_FLOAT"}}}, {"name": "PartitionedCall/model_253/tf.math.multiply_181/Mul", "op": "Mul", "input": ["PartitionedCall/model_253/tf.math.add_141/Add", "PartitionedCall/model_253/tf.math.sigmoid_116/Sigmoid"], "attr": {"T": {"type": "DT_FLOAT"}}}, {"name": "PartitionedCall/model_253/tf.concat_28/concat", "op": "ConcatV2", "input": ["PartitionedCall/model_253/tf.split_7/split", "PartitionedCall/model_253/tf.split_7/split:1", "PartitionedCall/model_253/tf.math.multiply_181/Mul", "PartitionedCall/model_253/tf.concat_28/concat/axis"], "attr": {"T": {"type": "DT_FLOAT"}, "N": {"i": "3"}, "Tidx": {"type": "DT_INT32"}}}, {"name": "PartitionedCall/model_253/tf.nn.convolution_130/convolution", "op": "Conv2D", "input": ["PartitionedCall/model_253/tf.concat_28/concat", "959"], "device": "/device:CPU:0", "attr": {"use_cudnn_on_gpu": {"b": true}, "data_format": {"s": "TkhXQw=="}, "dilations": {"list": {"i": ["1", "1", "1", "1"]}}, "T": {"type": "DT_FLOAT"}, "padding": {"s": "U0FNRQ=="}, "explicit_paddings": {"list": {}}, "strides": {"list": {"i": ["1", "1", "1", "1"]}}}}, {"name": "PartitionedCall/model_253/tf.math.add_143/Add", "op": "AddV2", "input": ["PartitionedCall/model_253/tf.nn.convolution_130/convolution", "PartitionedCall/model_253/tf.math.add_143/Add/y"], "attr": {"T": {"type": "DT_FLOAT"}}}, {"name": "PartitionedCall/model_253/tf.math.sigmoid_118/Sigmoid", "op": "Sigmoid", "input": ["PartitionedCall/model_253/tf.math.add_143/Add"], "attr": {"T": {"type": "DT_FLOAT"}}}, {"name": "PartitionedCall/model_253/tf.math.multiply_184/Mul", "op": "Mul", "input": ["PartitionedCall/model_253/tf.math.add_143/Add", "PartitionedCall/model_253/tf.math.sigmoid_118/Sigmoid"], "attr": {"T": {"type": "DT_FLOAT"}}}, {"name": "PartitionedCall/model_253/tf.nn.convolution_134/convolution", "op": "Conv2D", "input": ["PartitionedCall/model_253/tf.math.multiply_184/Mul", "963"], "device": "/device:CPU:0", "attr": {"dilations": {"list": {"i": ["1", "1", "1", "1"]}}, "use_cudnn_on_gpu": {"b": true}, "data_format": {"s": "TkhXQw=="}, "padding": {"s": "U0FNRQ=="}, "T": {"type": "DT_FLOAT"}, "strides": {"list": {"i": ["1", "1", "1", "1"]}}, "explicit_paddings": {"list": {}}}}, {"name": "PartitionedCall/model_253/tf.nn.convolution_136/convolution", "op": "Conv2D", "input": ["PartitionedCall/model_253/tf.math.multiply_184/Mul", "961"], "device": "/device:CPU:0", "attr": {"data_format": {"s": "TkhXQw=="}, "T": {"type": "DT_FLOAT"}, "strides": {"list": {"i": ["1", "1", "1", "1"]}}, "dilations": {"list": {"i": ["1", "1", "1", "1"]}}, "use_cudnn_on_gpu": {"b": true}, "explicit_paddings": {"list": {}}, "padding": {"s": "U0FNRQ=="}}}, {"name": "PartitionedCall/model_253/tf.nn.convolution_132/convolution", "op": "Conv2D", "input": ["PartitionedCall/model_253/tf.math.multiply_184/Mul", "999"], "device": "/device:CPU:0", "attr": {"strides": {"list": {"i": ["1", "1", "1", "1"]}}, "dilations": {"list": {"i": ["1", "1", "1", "1"]}}, "padding": {"s": "U0FNRQ=="}, "explicit_paddings": {"list": {}}, "data_format": {"s": "TkhXQw=="}, "T": {"type": "DT_FLOAT"}, "use_cudnn_on_gpu": {"b": true}}}, {"name": "PartitionedCall/model_253/tf.math.add_147/Add", "op": "AddV2", "input": ["PartitionedCall/model_253/tf.nn.convolution_134/convolution", "PartitionedCall/model_253/tf.math.add_147/Add/y"], "attr": {"T": {"type": "DT_FLOAT"}}}, {"name": "PartitionedCall/model_253/tf.math.add_149/Add", "op": "AddV2", "input": ["PartitionedCall/model_253/tf.nn.convolution_136/convolution", "PartitionedCall/model_253/tf.math.add_149/Add/y"], "attr": {"T": {"type": "DT_FLOAT"}}}, {"name": "PartitionedCall/model_253/tf.math.add_145/Add", "op": "AddV2", "input": ["PartitionedCall/model_253/tf.nn.convolution_132/convolution", "PartitionedCall/model_253/tf.math.add_145/Add/y"], "attr": {"T": {"type": "DT_FLOAT"}}}, {"name": "PartitionedCall/model_253/tf.math.sigmoid_122/Sigmoid", "op": "Sigmoid", "input": ["PartitionedCall/model_253/tf.math.add_147/Add"], "attr": {"T": {"type": "DT_FLOAT"}}}, {"name": "PartitionedCall/model_253/tf.math.sigmoid_124/Sigmoid", "op": "Sigmoid", "input": ["PartitionedCall/model_253/tf.math.add_149/Add"], "attr": {"T": {"type": "DT_FLOAT"}}}, {"name": "PartitionedCall/model_253/tf.math.sigmoid_120/Sigmoid", "op": "Sigmoid", "input": ["PartitionedCall/model_253/tf.math.add_145/Add"], "attr": {"T": {"type": "DT_FLOAT"}}}, {"name": "PartitionedCall/model_253/tf.math.multiply_190/Mul", "op": "Mul", "input": ["PartitionedCall/model_253/tf.math.add_147/Add", "PartitionedCall/model_253/tf.math.sigmoid_122/Sigmoid"], "attr": {"T": {"type": "DT_FLOAT"}}}, {"name": "PartitionedCall/model_253/tf.math.multiply_193/Mul", "op": "Mul", "input": ["PartitionedCall/model_253/tf.math.add_149/Add", "PartitionedCall/model_253/tf.math.sigmoid_124/Sigmoid"], "attr": {"T": {"type": "DT_FLOAT"}}}, {"name": "PartitionedCall/model_253/tf.math.multiply_187/Mul", "op": "Mul", "input": ["PartitionedCall/model_253/tf.math.add_145/Add", "PartitionedCall/model_253/tf.math.sigmoid_120/Sigmoid"], "attr": {"T": {"type": "DT_FLOAT"}}}, {"name": "PartitionedCall/model_253/tf.nn.convolution_140/convolution", "op": "Conv2D", "input": ["PartitionedCall/model_253/tf.math.multiply_190/Mul", "975"], "device": "/device:CPU:0", "attr": {"explicit_paddings": {"list": {}}, "dilations": {"list": {"i": ["1", "1", "1", "1"]}}, "data_format": {"s": "TkhXQw=="}, "strides": {"list": {"i": ["1", "1", "1", "1"]}}, "T": {"type": "DT_FLOAT"}, "use_cudnn_on_gpu": {"b": true}, "padding": {"s": "U0FNRQ=="}}}, {"name": "PartitionedCall/model_253/tf.nn.convolution_142/convolution", "op": "Conv2D", "input": ["PartitionedCall/model_253/tf.math.multiply_193/Mul", "973"], "device": "/device:CPU:0", "attr": {"T": {"type": "DT_FLOAT"}, "padding": {"s": "U0FNRQ=="}, "dilations": {"list": {"i": ["1", "1", "1", "1"]}}, "strides": {"list": {"i": ["1", "1", "1", "1"]}}, "explicit_paddings": {"list": {}}, "use_cudnn_on_gpu": {"b": true}, "data_format": {"s": "TkhXQw=="}}}, {"name": "PartitionedCall/model_253/tf.nn.convolution_138/convolution", "op": "Conv2D", "input": ["PartitionedCall/model_253/tf.math.multiply_187/Mul", "1007"], "device": "/device:CPU:0", "attr": {"data_format": {"s": "TkhXQw=="}, "explicit_paddings": {"list": {}}, "dilations": {"list": {"i": ["1", "1", "1", "1"]}}, "padding": {"s": "U0FNRQ=="}, "use_cudnn_on_gpu": {"b": true}, "strides": {"list": {"i": ["1", "1", "1", "1"]}}, "T": {"type": "DT_FLOAT"}}}, {"name": "PartitionedCall/model_253/tf.math.add_153/Add", "op": "AddV2", "input": ["PartitionedCall/model_253/tf.nn.convolution_140/convolution", "PartitionedCall/model_253/tf.math.add_153/Add/y"], "attr": {"T": {"type": "DT_FLOAT"}}}, {"name": "PartitionedCall/model_253/tf.math.add_155/Add", "op": "AddV2", "input": ["PartitionedCall/model_253/tf.nn.convolution_142/convolution", "PartitionedCall/model_253/tf.math.add_155/Add/y"], "attr": {"T": {"type": "DT_FLOAT"}}}, {"name": "PartitionedCall/model_253/tf.math.add_151/Add", "op": "AddV2", "input": ["PartitionedCall/model_253/tf.nn.convolution_138/convolution", "PartitionedCall/model_253/tf.math.add_151/Add/y"], "attr": {"T": {"type": "DT_FLOAT"}}}, {"name": "PartitionedCall/model_253/tf.math.sigmoid_128/Sigmoid", "op": "Sigmoid", "input": ["PartitionedCall/model_253/tf.math.add_153/Add"], "attr": {"T": {"type": "DT_FLOAT"}}}, {"name": "PartitionedCall/model_253/tf.math.sigmoid_130/Sigmoid", "op": "Sigmoid", "input": ["PartitionedCall/model_253/tf.math.add_155/Add"], "attr": {"T": {"type": "DT_FLOAT"}}}, {"name": "PartitionedCall/model_253/tf.math.sigmoid_126/Sigmoid", "op": "Sigmoid", "input": ["PartitionedCall/model_253/tf.math.add_151/Add"], "attr": {"T": {"type": "DT_FLOAT"}}}, {"name": "PartitionedCall/model_253/tf.math.multiply_199/Mul", "op": "Mul", "input": ["PartitionedCall/model_253/tf.math.add_153/Add", "PartitionedCall/model_253/tf.math.sigmoid_128/Sigmoid"], "attr": {"T": {"type": "DT_FLOAT"}}}, {"name": "PartitionedCall/model_253/tf.math.multiply_202/Mul", "op": "Mul", "input": ["PartitionedCall/model_253/tf.math.add_155/Add", "PartitionedCall/model_253/tf.math.sigmoid_130/Sigmoid"], "attr": {"T": {"type": "DT_FLOAT"}}}, {"name": "PartitionedCall/model_253/tf.math.multiply_196/Mul", "op": "Mul", "input": ["PartitionedCall/model_253/tf.math.add_151/Add", "PartitionedCall/model_253/tf.math.sigmoid_126/Sigmoid"], "attr": {"T": {"type": "DT_FLOAT"}}}, {"name": "PartitionedCall/model_253/tf.nn.convolution_146/convolution", "op": "Conv2D", "input": ["PartitionedCall/model_253/tf.math.multiply_199/Mul", "987"], "device": "/device:CPU:0", "attr": {"use_cudnn_on_gpu": {"b": true}, "dilations": {"list": {"i": ["1", "1", "1", "1"]}}, "T": {"type": "DT_FLOAT"}, "padding": {"s": "U0FNRQ=="}, "explicit_paddings": {"list": {}}, "data_format": {"s": "TkhXQw=="}, "strides": {"list": {"i": ["1", "1", "1", "1"]}}}}, {"name": "PartitionedCall/model_253/tf.nn.convolution_148/convolution", "op": "Conv2D", "input": ["PartitionedCall/model_253/tf.math.multiply_202/Mul", "985"], "device": "/device:CPU:0", "attr": {"padding": {"s": "U0FNRQ=="}, "dilations": {"list": {"i": ["1", "1", "1", "1"]}}, "strides": {"list": {"i": ["1", "1", "1", "1"]}}, "explicit_paddings": {"list": {}}, "T": {"type": "DT_FLOAT"}, "data_format": {"s": "TkhXQw=="}, "use_cudnn_on_gpu": {"b": true}}}, {"name": "PartitionedCall/model_253/tf.nn.convolution_144/convolution", "op": "Conv2D", "input": ["PartitionedCall/model_253/tf.math.multiply_196/Mul", "1025"], "device": "/device:CPU:0", "attr": {"explicit_paddings": {"list": {}}, "data_format": {"s": "TkhXQw=="}, "strides": {"list": {"i": ["1", "1", "1", "1"]}}, "dilations": {"list": {"i": ["1", "1", "1", "1"]}}, "padding": {"s": "U0FNRQ=="}, "T": {"type": "DT_FLOAT"}, "use_cudnn_on_gpu": {"b": true}}}, {"name": "PartitionedCall/model_253/tf.math.add_159/Add", "op": "AddV2", "input": ["PartitionedCall/model_253/tf.nn.convolution_146/convolution", "PartitionedCall/model_253/tf.math.add_159/Add/y"], "attr": {"T": {"type": "DT_FLOAT"}}}, {"name": "PartitionedCall/model_253/tf.math.add_161/Add", "op": "AddV2", "input": ["PartitionedCall/model_253/tf.nn.convolution_148/convolution", "PartitionedCall/model_253/tf.math.add_161/Add/y"], "attr": {"T": {"type": "DT_FLOAT"}}}, {"name": "PartitionedCall/model_253/tf.math.add_157/Add", "op": "AddV2", "input": ["PartitionedCall/model_253/tf.nn.convolution_144/convolution", "PartitionedCall/model_253/tf.math.add_157/Add/y"], "attr": {"T": {"type": "DT_FLOAT"}}}, {"name": "PartitionedCall/model_253/tf.concat_30/concat", "op": "ConcatV2", "input": ["PartitionedCall/model_253/tf.math.add_159/Add", "PartitionedCall/model_253/tf.math.add_161/Add", "PartitionedCall/model_253/tf.concat_30/concat/axis"], "attr": {"N": {"i": "2"}, "T": {"type": "DT_FLOAT"}, "Tidx": {"type": "DT_INT32"}}}, {"name": "PartitionedCall/model_253/tf.compat.v1.transpose_4/transpose", "op": "Transpose", "input": ["PartitionedCall/model_253/tf.math.add_157/Add", "PartitionedCall/model_253/tf.compat.v1.transpose_4/transpose/perm"], "attr": {"T": {"type": "DT_FLOAT"}, "Tperm": {"type": "DT_INT32"}}}, {"name": "PartitionedCall/model_253/tf.compat.v1.transpose_5/transpose", "op": "Transpose", "input": ["PartitionedCall/model_253/tf.concat_30/concat", "PartitionedCall/model_253/tf.compat.v1.transpose_5/transpose/perm"], "attr": {"Tperm": {"type": "DT_INT32"}, "T": {"type": "DT_FLOAT"}}}, {"name": "PartitionedCall/model_253/tf.reshape_8/Reshape", "op": "Reshape", "input": ["PartitionedCall/model_253/tf.compat.v1.transpose_4/transpose", "PartitionedCall/model_253/tf.reshape_8/Reshape/shape"], "attr": {"Tshape": {"type": "DT_INT32"}, "T": {"type": "DT_FLOAT"}}}, {"name": "PartitionedCall/model_253/tf.reshape_10/Reshape", "op": "Reshape", "input": ["PartitionedCall/model_253/tf.compat.v1.transpose_5/transpose", "PartitionedCall/model_253/tf.reshape_10/Reshape/shape"], "attr": {"T": {"type": "DT_FLOAT"}, "Tshape": {"type": "DT_INT32"}}}, {"name": "PartitionedCall/model_253/tf.concat_32/concat", "op": "ConcatV2", "input": ["PartitionedCall/model_253/tf.reshape/Reshape", "PartitionedCall/model_253/tf.reshape_4/Reshape", "PartitionedCall/model_253/tf.reshape_8/Reshape", "PartitionedCall/model_253/tf.concat_32/concat/axis"], "attr": {"Tidx": {"type": "DT_INT32"}, "N": {"i": "3"}, "T": {"type": "DT_FLOAT"}}}, {"name": "PartitionedCall/model_253/tf.concat_34/concat", "op": "ConcatV2", "input": ["PartitionedCall/model_253/tf.reshape_2/Reshape", "PartitionedCall/model_253/tf.reshape_6/Reshape", "PartitionedCall/model_253/tf.reshape_10/Reshape", "PartitionedCall/model_253/tf.concat_34/concat/axis"], "attr": {"T": {"type": "DT_FLOAT"}, "N": {"i": "3"}, "Tidx": {"type": "DT_INT32"}}}, {"name": "PartitionedCall/model_253/tf.split_8/split", "op": "SplitV", "input": ["PartitionedCall/model_253/tf.concat_34/concat", "PartitionedCall/model_253/tf.split_8/Const", "PartitionedCall/model_253/tf.split_8/split/split_dim"], "attr": {"num_split": {"i": "2"}, "Tlen": {"type": "DT_INT64"}, "T": {"type": "DT_FLOAT"}}}, {"name": "PartitionedCall/model_253/tf.reshape_12/Reshape", "op": "Reshape", "input": ["PartitionedCall/model_253/tf.split_8/split", "PartitionedCall/model_253/tf.reshape_12/Reshape/shape"], "attr": {"T": {"type": "DT_FLOAT"}, "Tshape": {"type": "DT_INT32"}}}, {"name": "PartitionedCall/model_253/tf.math.sigmoid_132/Sigmoid", "op": "Sigmoid", "input": ["PartitionedCall/model_253/tf.split_8/split:1"], "attr": {"T": {"type": "DT_FLOAT"}}}, {"name": "PartitionedCall/model_253/tf.compat.v1.transpose_7/transpose", "op": "Transpose", "input": ["PartitionedCall/model_253/tf.reshape_12/Reshape", "PartitionedCall/model_253/tf.compat.v1.transpose_7/transpose/perm"], "attr": {"Tperm": {"type": "DT_INT32"}, "T": {"type": "DT_FLOAT"}}}, {"name": "PartitionedCall/model_253/tf.nn.softmax_1/transpose", "op": "Transpose", "input": ["PartitionedCall/model_253/tf.compat.v1.transpose_7/transpose", "PartitionedCall/model_253/tf.nn.softmax_1/concat"], "attr": {"T": {"type": "DT_FLOAT"}, "Tperm": {"type": "DT_INT32"}}}, {"name": "PartitionedCall/model_253/tf.nn.softmax_1/Softmax", "op": "Softmax", "input": ["PartitionedCall/model_253/tf.nn.softmax_1/transpose"], "attr": {"T": {"type": "DT_FLOAT"}}}, {"name": "PartitionedCall/model_253/tf.nn.softmax_1/transpose_1", "op": "Transpose", "input": ["PartitionedCall/model_253/tf.nn.softmax_1/Softmax", "PartitionedCall/model_253/tf.nn.softmax_1/concat_1"], "attr": {"T": {"type": "DT_FLOAT"}, "Tperm": {"type": "DT_INT32"}}}, {"name": "PartitionedCall/model_253/tf.compat.v1.transpose_9/transpose", "op": "Transpose", "input": ["PartitionedCall/model_253/tf.nn.softmax_1/transpose_1", "PartitionedCall/model_253/tf.compat.v1.transpose_9/transpose/perm"], "attr": {"T": {"type": "DT_FLOAT"}, "Tperm": {"type": "DT_INT32"}}}, {"name": "PartitionedCall/model_253/tf.nn.convolution_150/convolution", "op": "Conv2D", "input": ["PartitionedCall/model_253/tf.compat.v1.transpose_9/transpose", "1013"], "device": "/device:CPU:0", "attr": {"strides": {"list": {"i": ["1", "1", "1", "1"]}}, "T": {"type": "DT_FLOAT"}, "explicit_paddings": {"list": {}}, "dilations": {"list": {"i": ["1", "1", "1", "1"]}}, "use_cudnn_on_gpu": {"b": true}, "padding": {"s": "U0FNRQ=="}, "data_format": {"s": "TkhXQw=="}}}, {"name": "PartitionedCall/model_253/tf.compat.v1.transpose_10/transpose", "op": "Transpose", "input": ["PartitionedCall/model_253/tf.nn.convolution_150/convolution", "PartitionedCall/model_253/tf.compat.v1.transpose_10/transpose/perm"], "attr": {"T": {"type": "DT_FLOAT"}, "Tperm": {"type": "DT_INT32"}}}, {"name": "PartitionedCall/model_253/tf.reshape_14/Reshape", "op": "Reshape", "input": ["PartitionedCall/model_253/tf.compat.v1.transpose_10/transpose", "PartitionedCall/model_253/tf.reshape_14/Reshape/shape"], "attr": {"Tshape": {"type": "DT_INT32"}, "T": {"type": "DT_FLOAT"}}}, {"name": "PartitionedCall/model_253/tf.strided_slice_1/StridedSlice", "op": "StridedSlice", "input": ["PartitionedCall/model_253/tf.reshape_14/Reshape", "1017", "1019", "PartitionedCall/model_253/tf.strided_slice_1/ones_like"], "attr": {"shrink_axis_mask": {"i": "0"}, "ellipsis_mask": {"i": "0"}, "T": {"type": "DT_FLOAT"}, "end_mask": {"i": "5"}, "Index": {"type": "DT_INT64"}, "new_axis_mask": {"i": "0"}, "begin_mask": {"i": "5"}}}, {"name": "PartitionedCall/model_253/tf.strided_slice/StridedSlice", "op": "StridedSlice", "input": ["PartitionedCall/model_253/tf.reshape_14/Reshape", "1021", "1023", "PartitionedCall/model_253/tf.strided_slice/ones_like"], "attr": {"new_axis_mask": {"i": "0"}, "T": {"type": "DT_FLOAT"}, "end_mask": {"i": "5"}, "ellipsis_mask": {"i": "0"}, "shrink_axis_mask": {"i": "0"}, "begin_mask": {"i": "7"}, "Index": {"type": "DT_INT64"}}}, {"name": "PartitionedCall/model_253/tf.math.add_163/Add", "op": "AddV2", "input": ["1031", "PartitionedCall/model_253/tf.strided_slice_1/StridedSlice"], "attr": {"T": {"type": "DT_FLOAT"}}}, {"name": "PartitionedCall/model_253/tf.math.subtract/Sub", "op": "Sub", "input": ["1033", "PartitionedCall/model_253/tf.strided_slice/StridedSlice"], "attr": {"T": {"type": "DT_FLOAT"}}}, {"name": "PartitionedCall/model_253/tf.math.add_165/Add", "op": "AddV2", "input": ["PartitionedCall/model_253/tf.math.subtract/Sub", "PartitionedCall/model_253/tf.math.add_163/Add"], "attr": {"T": {"type": "DT_FLOAT"}}}, {"name": "PartitionedCall/model_253/tf.math.subtract_2/Sub", "op": "Sub", "input": ["PartitionedCall/model_253/tf.math.add_163/Add", "PartitionedCall/model_253/tf.math.subtract/Sub"], "attr": {"T": {"type": "DT_FLOAT"}}}, {"name": "PartitionedCall/model_253/tf.math.divide/truediv", "op": "Mul", "input": ["PartitionedCall/model_253/tf.math.add_165/Add", "ConstantFolding/PartitionedCall/model_253/tf.math.divide/truediv_recip"], "attr": {"T": {"type": "DT_FLOAT"}}}, {"name": "PartitionedCall/model_253/tf.concat_36/concat", "op": "ConcatV2", "input": ["PartitionedCall/model_253/tf.math.divide/truediv", "PartitionedCall/model_253/tf.math.subtract_2/Sub", "PartitionedCall/model_253/tf.concat_36/concat/axis"], "attr": {"Tidx": {"type": "DT_INT32"}, "T": {"type": "DT_FLOAT"}, "N": {"i": "2"}}}, {"name": "PartitionedCall/model_253/tf.math.multiply_206/Mul", "op": "Mul", "input": ["PartitionedCall/model_253/tf.concat_36/concat", "PartitionedCall/model_253/tf.math.multiply_206/Mul/y"], "attr": {"T": {"type": "DT_FLOAT"}}}, {"name": "PartitionedCall/model_253/output0/concat", "op": "ConcatV2", "input": ["PartitionedCall/model_253/tf.math.multiply_206/Mul", "PartitionedCall/model_253/tf.math.sigmoid_132/Sigmoid", "PartitionedCall/model_253/tf.concat_32/concat", "PartitionedCall/model_253/output0/concat/axis"], "attr": {"T": {"type": "DT_FLOAT"}, "N": {"i": "3"}, "Tidx": {"type": "DT_INT32"}}}, {"name": "Identity", "op": "Identity", "input": ["PartitionedCall/model_253/output0/concat"], "attr": {"T": {"type": "DT_FLOAT"}}}], "library": {}, "versions": {"producer": 1286}}, "weightsManifest": [{"paths": ["group1-shard1of4.bin", "group1-shard2of4.bin", "group1-shard3of4.bin", "group1-shard4of4.bin"], "weights": [{"name": "ConstantFolding/PartitionedCall/model_253/tf.math.divide/truediv_recip", "shape": [1, 1, 1], "dtype": "float32"}, {"name": "1031", "shape": [1, 2, 8400], "dtype": "float32"}, {"name": "1017", "shape": [3], "dtype": "int32"}, {"name": "1019", "shape": [3], "dtype": "int32"}, {"name": "PartitionedCall/model_253/tf.strided_slice_1/ones_like", "shape": [3], "dtype": "int32"}, {"name": "1033", "shape": [1, 2, 8400], "dtype": "float32"}, {"name": "PartitionedCall/model_253/tf.reshape_12/Reshape/shape", "shape": [4], "dtype": "int32"}, {"name": "PartitionedCall/model_253/tf.compat.v1.transpose_7/transpose/perm", "shape": [4], "dtype": "int32"}, {"name": "PartitionedCall/model_253/tf.nn.softmax_1/concat", "shape": [4], "dtype": "int32"}, {"name": "PartitionedCall/model_253/tf.nn.softmax_1/concat_1", "shape": [4], "dtype": "int32"}, {"name": "PartitionedCall/model_253/tf.compat.v1.transpose_9/transpose/perm", "shape": [4], "dtype": "int32"}, {"name": "1013", "shape": [1, 1, 16, 1], "dtype": "float32"}, {"name": "PartitionedCall/model_253/tf.compat.v1.transpose_10/transpose/perm", "shape": [4], "dtype": "int32"}, {"name": "PartitionedCall/model_253/tf.reshape_14/Reshape/shape", "shape": [3], "dtype": "int32"}, {"name": "1021", "shape": [3], "dtype": "int32"}, {"name": "1023", "shape": [3], "dtype": "int32"}, {"name": "PartitionedCall/model_253/tf.strided_slice/ones_like", "shape": [3], "dtype": "int32"}, {"name": "PartitionedCall/model_253/tf.concat_36/concat/axis", "shape": [], "dtype": "int32"}, {"name": "PartitionedCall/model_253/tf.math.multiply_206/Mul/y", "shape": [1, 1, 8400], "dtype": "float32"}, {"name": "971", "shape": [3, 3, 64, 64], "dtype": "float32"}, {"name": "PartitionedCall/model_253/tf.math.add_88/Add/y", "shape": [64], "dtype": "float32"}, {"name": "983", "shape": [3, 3, 64, 64], "dtype": "float32"}, {"name": "PartitionedCall/model_253/tf.math.add_95/Add/y", "shape": [64], "dtype": "float32"}, {"name": "995", "shape": [1, 1, 64, 64], "dtype": "float32"}, {"name": "PartitionedCall/model_253/tf.math.add_105/Add/y", "shape": [64], "dtype": "float32"}, {"name": "969", "shape": [3, 3, 64, 80], "dtype": "float32"}, {"name": "PartitionedCall/model_253/tf.math.add_90/Add/y", "shape": [80], "dtype": "float32"}, {"name": "981", "shape": [3, 3, 80, 80], "dtype": "float32"}, {"name": "PartitionedCall/model_253/tf.math.add_97/Add/y", "shape": [80], "dtype": "float32"}, {"name": "993", "shape": [1, 1, 80, 80], "dtype": "float32"}, {"name": "PartitionedCall/model_253/tf.math.add_107/Add/y", "shape": [80], "dtype": "float32"}, {"name": "PartitionedCall/model_253/tf.concat_20/concat/axis", "shape": [], "dtype": "int32"}, {"name": "PartitionedCall/model_253/tf.compat.v1.transpose_1/transpose/perm", "shape": [4], "dtype": "int32"}, {"name": "PartitionedCall/model_253/tf.reshape_2/Reshape/shape", "shape": [3], "dtype": "int32"}, {"name": "967", "shape": [3, 3, 128, 64], "dtype": "float32"}, {"name": "PartitionedCall/model_253/tf.math.add_121/Add/y", "shape": [64], "dtype": "float32"}, {"name": "979", "shape": [3, 3, 64, 64], "dtype": "float32"}, {"name": "PartitionedCall/model_253/tf.math.add_127/Add/y", "shape": [64], "dtype": "float32"}, {"name": "991", "shape": [1, 1, 64, 64], "dtype": "float32"}, {"name": "PartitionedCall/model_253/tf.math.add_135/Add/y", "shape": [64], "dtype": "float32"}, {"name": "965", "shape": [3, 3, 128, 80], "dtype": "float32"}, {"name": "PartitionedCall/model_253/tf.math.add_123/Add/y", "shape": [80], "dtype": "float32"}, {"name": "977", "shape": [3, 3, 80, 80], "dtype": "float32"}, {"name": "PartitionedCall/model_253/tf.math.add_129/Add/y", "shape": [80], "dtype": "float32"}, {"name": "989", "shape": [1, 1, 80, 80], "dtype": "float32"}, {"name": "PartitionedCall/model_253/tf.math.add_137/Add/y", "shape": [80], "dtype": "float32"}, {"name": "PartitionedCall/model_253/tf.concat_26/concat/axis", "shape": [], "dtype": "int32"}, {"name": "PartitionedCall/model_253/tf.compat.v1.transpose_3/transpose/perm", "shape": [4], "dtype": "int32"}, {"name": "PartitionedCall/model_253/tf.reshape_6/Reshape/shape", "shape": [3], "dtype": "int32"}, {"name": "963", "shape": [3, 3, 256, 64], "dtype": "float32"}, {"name": "PartitionedCall/model_253/tf.math.add_147/Add/y", "shape": [64], "dtype": "float32"}, {"name": "975", "shape": [3, 3, 64, 64], "dtype": "float32"}, {"name": "PartitionedCall/model_253/tf.math.add_153/Add/y", "shape": [64], "dtype": "float32"}, {"name": "987", "shape": [1, 1, 64, 64], "dtype": "float32"}, {"name": "PartitionedCall/model_253/tf.math.add_159/Add/y", "shape": [64], "dtype": "float32"}, {"name": "961", "shape": [3, 3, 256, 80], "dtype": "float32"}, {"name": "PartitionedCall/model_253/tf.math.add_149/Add/y", "shape": [80], "dtype": "float32"}, {"name": "973", "shape": [3, 3, 80, 80], "dtype": "float32"}, {"name": "PartitionedCall/model_253/tf.math.add_155/Add/y", "shape": [80], "dtype": "float32"}, {"name": "985", "shape": [1, 1, 80, 80], "dtype": "float32"}, {"name": "PartitionedCall/model_253/tf.math.add_161/Add/y", "shape": [80], "dtype": "float32"}, {"name": "PartitionedCall/model_253/tf.concat_30/concat/axis", "shape": [], "dtype": "int32"}, {"name": "PartitionedCall/model_253/tf.compat.v1.transpose_5/transpose/perm", "shape": [4], "dtype": "int32"}, {"name": "PartitionedCall/model_253/tf.reshape_10/Reshape/shape", "shape": [3], "dtype": "int32"}, {"name": "PartitionedCall/model_253/tf.concat_34/concat/axis", "shape": [], "dtype": "int32"}, {"name": "PartitionedCall/model_253/tf.split_8/Const", "shape": [2], "dtype": "int32"}, {"name": "PartitionedCall/model_253/tf.split_8/split/split_dim", "shape": [], "dtype": "int32"}, {"name": "1003", "shape": [3, 3, 64, 32], "dtype": "float32"}, {"name": "PartitionedCall/model_253/tf.math.add_86/Add/y", "shape": [32], "dtype": "float32"}, {"name": "1011", "shape": [3, 3, 32, 32], "dtype": "float32"}, {"name": "PartitionedCall/model_253/tf.math.add_93/Add/y", "shape": [32], "dtype": "float32"}, {"name": "1029", "shape": [1, 1, 32, 32], "dtype": "float32"}, {"name": "PartitionedCall/model_253/tf.math.add_103/Add/y", "shape": [32], "dtype": "float32"}, {"name": "PartitionedCall/model_253/tf.compat.v1.transpose/transpose/perm", "shape": [4], "dtype": "int32"}, {"name": "PartitionedCall/model_253/tf.reshape/Reshape/shape", "shape": [3], "dtype": "int32"}, {"name": "1001", "shape": [3, 3, 128, 32], "dtype": "float32"}, {"name": "PartitionedCall/model_253/tf.math.add_119/Add/y", "shape": [32], "dtype": "float32"}, {"name": "1009", "shape": [3, 3, 32, 32], "dtype": "float32"}, {"name": "PartitionedCall/model_253/tf.math.add_125/Add/y", "shape": [32], "dtype": "float32"}, {"name": "1027", "shape": [1, 1, 32, 32], "dtype": "float32"}, {"name": "PartitionedCall/model_253/tf.math.add_133/Add/y", "shape": [32], "dtype": "float32"}, {"name": "PartitionedCall/model_253/tf.compat.v1.transpose_2/transpose/perm", "shape": [4], "dtype": "int32"}, {"name": "PartitionedCall/model_253/tf.reshape_4/Reshape/shape", "shape": [3], "dtype": "int32"}, {"name": "937", "shape": [4, 2], "dtype": "int32"}, {"name": "939", "shape": [3, 3, 64, 64], "dtype": "float32"}, {"name": "PartitionedCall/model_253/tf.math.add_82/Add/y", "shape": [64], "dtype": "float32"}, {"name": "PartitionedCall/model_253/tf.concat_18/concat/axis", "shape": [], "dtype": "int32"}, {"name": "941", "shape": [1, 1, 192, 128], "dtype": "float32"}, {"name": "PartitionedCall/model_253/tf.math.add_99/Add/y", "shape": [128], "dtype": "float32"}, {"name": "PartitionedCall/model_253/tf.split_6/Const", "shape": [2], "dtype": "int32"}, {"name": "PartitionedCall/model_253/tf.split_6/split/split_dim", "shape": [], "dtype": "int32"}, {"name": "943", "shape": [3, 3, 64, 64], "dtype": "float32"}, {"name": "PartitionedCall/model_253/tf.math.add_111/Add/y", "shape": [64], "dtype": "float32"}, {"name": "945", "shape": [3, 3, 64, 64], "dtype": "float32"}, {"name": "PartitionedCall/model_253/tf.math.add_113/Add/y", "shape": [64], "dtype": "float32"}, {"name": "PartitionedCall/model_253/tf.concat_22/concat/axis", "shape": [], "dtype": "int32"}, {"name": "947", "shape": [1, 1, 192, 128], "dtype": "float32"}, {"name": "PartitionedCall/model_253/tf.math.add_115/Add/y", "shape": [128], "dtype": "float32"}, {"name": "949", "shape": [4, 2], "dtype": "int32"}, {"name": "951", "shape": [3, 3, 128, 128], "dtype": "float32"}, {"name": "PartitionedCall/model_253/tf.math.add_117/Add/y", "shape": [128], "dtype": "float32"}, {"name": "PartitionedCall/model_253/tf.concat_24/concat/axis", "shape": [], "dtype": "int32"}, {"name": "953", "shape": [1, 1, 384, 256], "dtype": "float32"}, {"name": "PartitionedCall/model_253/tf.math.add_131/Add/y", "shape": [256], "dtype": "float32"}, {"name": "PartitionedCall/model_253/tf.split_7/Const", "shape": [2], "dtype": "int32"}, {"name": "PartitionedCall/model_253/tf.split_7/split/split_dim", "shape": [], "dtype": "int32"}, {"name": "955", "shape": [3, 3, 128, 128], "dtype": "float32"}, {"name": "PartitionedCall/model_253/tf.math.add_139/Add/y", "shape": [128], "dtype": "float32"}, {"name": "957", "shape": [3, 3, 128, 128], "dtype": "float32"}, {"name": "PartitionedCall/model_253/tf.math.add_141/Add/y", "shape": [128], "dtype": "float32"}, {"name": "PartitionedCall/model_253/tf.concat_28/concat/axis", "shape": [], "dtype": "int32"}, {"name": "959", "shape": [1, 1, 384, 256], "dtype": "float32"}, {"name": "PartitionedCall/model_253/tf.math.add_143/Add/y", "shape": [256], "dtype": "float32"}, {"name": "999", "shape": [3, 3, 256, 32], "dtype": "float32"}, {"name": "PartitionedCall/model_253/tf.math.add_145/Add/y", "shape": [32], "dtype": "float32"}, {"name": "1007", "shape": [3, 3, 32, 32], "dtype": "float32"}, {"name": "PartitionedCall/model_253/tf.math.add_151/Add/y", "shape": [32], "dtype": "float32"}, {"name": "1025", "shape": [1, 1, 32, 32], "dtype": "float32"}, {"name": "PartitionedCall/model_253/tf.math.add_157/Add/y", "shape": [32], "dtype": "float32"}, {"name": "PartitionedCall/model_253/tf.compat.v1.transpose_4/transpose/perm", "shape": [4], "dtype": "int32"}, {"name": "PartitionedCall/model_253/tf.reshape_8/Reshape/shape", "shape": [3], "dtype": "int32"}, {"name": "PartitionedCall/model_253/tf.concat_32/concat/axis", "shape": [], "dtype": "int32"}, {"name": "PartitionedCall/model_253/output0/concat/axis", "shape": [], "dtype": "int32"}, {"name": "PartitionedCall/model_253/tf.nn.conv2d_transpose/conv2d_transpose/input_sizes", "shape": [4], "dtype": "int32"}, {"name": "1005", "shape": [2, 2, 64, 64], "dtype": "float32"}, {"name": "905", "shape": [4, 2], "dtype": "int32"}, {"name": "907", "shape": [3, 3, 128, 256], "dtype": "float32"}, {"name": "PartitionedCall/model_253/tf.math.add_50/Add/y", "shape": [256], "dtype": "float32"}, {"name": "909", "shape": [1, 1, 256, 256], "dtype": "float32"}, {"name": "PartitionedCall/model_253/tf.math.add_52/Add/y", "shape": [256], "dtype": "float32"}, {"name": "PartitionedCall/model_253/tf.split_3/Const", "shape": [2], "dtype": "int32"}, {"name": "PartitionedCall/model_253/tf.split_3/split/split_dim", "shape": [], "dtype": "int32"}, {"name": "911", "shape": [3, 3, 128, 128], "dtype": "float32"}, {"name": "PartitionedCall/model_253/tf.math.add_54/Add/y", "shape": [128], "dtype": "float32"}, {"name": "913", "shape": [3, 3, 128, 128], "dtype": "float32"}, {"name": "PartitionedCall/model_253/tf.math.add_56/Add/y", "shape": [128], "dtype": "float32"}, {"name": "PartitionedCall/model_253/tf.concat_6/concat/axis", "shape": [], "dtype": "int32"}, {"name": "915", "shape": [1, 1, 384, 256], "dtype": "float32"}, {"name": "PartitionedCall/model_253/tf.math.add_60/Add/y", "shape": [256], "dtype": "float32"}, {"name": "917", "shape": [1, 1, 256, 128], "dtype": "float32"}, {"name": "PartitionedCall/model_253/tf.math.add_62/Add/y", "shape": [128], "dtype": "float32"}, {"name": "PartitionedCall/model_253/tf.concat_8/concat/axis", "shape": [], "dtype": "int32"}, {"name": "919", "shape": [1, 1, 512, 256], "dtype": "float32"}, {"name": "PartitionedCall/model_253/tf.math.add_64/Add/y", "shape": [256], "dtype": "float32"}, {"name": "PartitionedCall/model_253/lambda//model.10/Resize/size", "shape": [2], "dtype": "int32"}, {"name": "889", "shape": [4, 2], "dtype": "int32"}, {"name": "891", "shape": [3, 3, 64, 128], "dtype": "float32"}, {"name": "PartitionedCall/model_253/tf.math.add_32/Add/y", "shape": [128], "dtype": "float32"}, {"name": "893", "shape": [1, 1, 128, 128], "dtype": "float32"}, {"name": "PartitionedCall/model_253/tf.math.add_34/Add/y", "shape": [128], "dtype": "float32"}, {"name": "PartitionedCall/model_253/tf.split_2/Const", "shape": [2], "dtype": "int32"}, {"name": "PartitionedCall/model_253/tf.split_2/split/split_dim", "shape": [], "dtype": "int32"}, {"name": "895", "shape": [3, 3, 64, 64], "dtype": "float32"}, {"name": "PartitionedCall/model_253/tf.math.add_36/Add/y", "shape": [64], "dtype": "float32"}, {"name": "897", "shape": [3, 3, 64, 64], "dtype": "float32"}, {"name": "PartitionedCall/model_253/tf.math.add_38/Add/y", "shape": [64], "dtype": "float32"}, {"name": "899", "shape": [3, 3, 64, 64], "dtype": "float32"}, {"name": "PartitionedCall/model_253/tf.math.add_42/Add/y", "shape": [64], "dtype": "float32"}, {"name": "901", "shape": [3, 3, 64, 64], "dtype": "float32"}, {"name": "PartitionedCall/model_253/tf.math.add_44/Add/y", "shape": [64], "dtype": "float32"}, {"name": "PartitionedCall/model_253/tf.concat_4/concat/axis", "shape": [], "dtype": "int32"}, {"name": "903", "shape": [1, 1, 256, 128], "dtype": "float32"}, {"name": "PartitionedCall/model_253/tf.math.add_48/Add/y", "shape": [128], "dtype": "float32"}, {"name": "PartitionedCall/model_253/tf.concat_10/concat/axis", "shape": [], "dtype": "int32"}, {"name": "921", "shape": [1, 1, 384, 128], "dtype": "float32"}, {"name": "PartitionedCall/model_253/tf.math.add_66/Add/y", "shape": [128], "dtype": "float32"}, {"name": "PartitionedCall/model_253/tf.split_4/Const", "shape": [2], "dtype": "int32"}, {"name": "PartitionedCall/model_253/tf.split_4/split/split_dim", "shape": [], "dtype": "int32"}, {"name": "923", "shape": [3, 3, 64, 64], "dtype": "float32"}, {"name": "PartitionedCall/model_253/tf.math.add_68/Add/y", "shape": [64], "dtype": "float32"}, {"name": "925", "shape": [3, 3, 64, 64], "dtype": "float32"}, {"name": "PartitionedCall/model_253/tf.math.add_70/Add/y", "shape": [64], "dtype": "float32"}, {"name": "PartitionedCall/model_253/tf.concat_12/concat/axis", "shape": [], "dtype": "int32"}, {"name": "927", "shape": [1, 1, 192, 128], "dtype": "float32"}, {"name": "PartitionedCall/model_253/tf.math.add_72/Add/y", "shape": [128], "dtype": "float32"}, {"name": "PartitionedCall/model_253/lambda_2//model.13/Resize/size", "shape": [2], "dtype": "int32"}, {"name": "857", "shape": [4, 2], "dtype": "int32"}, {"name": "859", "shape": [3, 3, 3, 16], "dtype": "float32"}, {"name": "PartitionedCall/model_253/tf.math.add/Add/y", "shape": [16], "dtype": "float32"}, {"name": "861", "shape": [4, 2], "dtype": "int32"}, {"name": "863", "shape": [3, 3, 16, 32], "dtype": "float32"}, {"name": "PartitionedCall/model_253/tf.math.add_2/Add/y", "shape": [32], "dtype": "float32"}, {"name": "865", "shape": [1, 1, 32, 32], "dtype": "float32"}, {"name": "PartitionedCall/model_253/tf.math.add_4/Add/y", "shape": [32], "dtype": "float32"}, {"name": "PartitionedCall/model_253/tf.split/Const", "shape": [2], "dtype": "int32"}, {"name": "PartitionedCall/model_253/tf.split/split/split_dim", "shape": [], "dtype": "int32"}, {"name": "867", "shape": [3, 3, 16, 16], "dtype": "float32"}, {"name": "PartitionedCall/model_253/tf.math.add_6/Add/y", "shape": [16], "dtype": "float32"}, {"name": "869", "shape": [3, 3, 16, 16], "dtype": "float32"}, {"name": "PartitionedCall/model_253/tf.math.add_8/Add/y", "shape": [16], "dtype": "float32"}, {"name": "PartitionedCall/model_253/tf.concat/concat/axis", "shape": [], "dtype": "int32"}, {"name": "871", "shape": [1, 1, 48, 32], "dtype": "float32"}, {"name": "PartitionedCall/model_253/tf.math.add_12/Add/y", "shape": [32], "dtype": "float32"}, {"name": "873", "shape": [4, 2], "dtype": "int32"}, {"name": "875", "shape": [3, 3, 32, 64], "dtype": "float32"}, {"name": "PartitionedCall/model_253/tf.math.add_14/Add/y", "shape": [64], "dtype": "float32"}, {"name": "877", "shape": [1, 1, 64, 64], "dtype": "float32"}, {"name": "PartitionedCall/model_253/tf.math.add_16/Add/y", "shape": [64], "dtype": "float32"}, {"name": "PartitionedCall/model_253/tf.split_1/Const", "shape": [2], "dtype": "int32"}, {"name": "PartitionedCall/model_253/tf.split_1/split/split_dim", "shape": [], "dtype": "int32"}, {"name": "879", "shape": [3, 3, 32, 32], "dtype": "float32"}, {"name": "PartitionedCall/model_253/tf.math.add_18/Add/y", "shape": [32], "dtype": "float32"}, {"name": "881", "shape": [3, 3, 32, 32], "dtype": "float32"}, {"name": "PartitionedCall/model_253/tf.math.add_20/Add/y", "shape": [32], "dtype": "float32"}, {"name": "883", "shape": [3, 3, 32, 32], "dtype": "float32"}, {"name": "PartitionedCall/model_253/tf.math.add_24/Add/y", "shape": [32], "dtype": "float32"}, {"name": "885", "shape": [3, 3, 32, 32], "dtype": "float32"}, {"name": "PartitionedCall/model_253/tf.math.add_26/Add/y", "shape": [32], "dtype": "float32"}, {"name": "PartitionedCall/model_253/tf.concat_2/concat/axis", "shape": [], "dtype": "int32"}, {"name": "887", "shape": [1, 1, 128, 64], "dtype": "float32"}, {"name": "PartitionedCall/model_253/tf.math.add_30/Add/y", "shape": [64], "dtype": "float32"}, {"name": "PartitionedCall/model_253/tf.concat_14/concat/axis", "shape": [], "dtype": "int32"}, {"name": "929", "shape": [1, 1, 192, 64], "dtype": "float32"}, {"name": "PartitionedCall/model_253/tf.math.add_74/Add/y", "shape": [64], "dtype": "float32"}, {"name": "PartitionedCall/model_253/tf.split_5/Const", "shape": [2], "dtype": "int32"}, {"name": "PartitionedCall/model_253/tf.split_5/split/split_dim", "shape": [], "dtype": "int32"}, {"name": "931", "shape": [3, 3, 32, 32], "dtype": "float32"}, {"name": "PartitionedCall/model_253/tf.math.add_76/Add/y", "shape": [32], "dtype": "float32"}, {"name": "933", "shape": [3, 3, 32, 32], "dtype": "float32"}, {"name": "PartitionedCall/model_253/tf.math.add_78/Add/y", "shape": [32], "dtype": "float32"}, {"name": "PartitionedCall/model_253/tf.concat_16/concat/axis", "shape": [], "dtype": "int32"}, {"name": "935", "shape": [1, 1, 96, 64], "dtype": "float32"}, {"name": "PartitionedCall/model_253/tf.math.add_80/Add/y", "shape": [64], "dtype": "float32"}, {"name": "997", "shape": [3, 3, 64, 64], "dtype": "float32"}, {"name": "PartitionedCall/model_253/tf.math.add_84/Add/y", "shape": [64], "dtype": "float32"}, {"name": "PartitionedCall/model_253/tf.math.add_92/Add/y", "shape": [64], "dtype": "float32"}, {"name": "1015", "shape": [3, 3, 64, 64], "dtype": "float32"}, {"name": "PartitionedCall/model_253/tf.math.add_101/Add/y", "shape": [64], "dtype": "float32"}, {"name": "1035", "shape": [1, 1, 64, 32], "dtype": "float32"}, {"name": "PartitionedCall/model_253/tf.math.add_109/Add/y", "shape": [32], "dtype": "float32"}]}]}